models/tab_digit_cnn.tflite (tflite, 229948 bytes, 10 tensors)

model/conv2d/BiasAdd/ReadVariableOp f2 [32]
000000 d2 17 cb 98 3d 34 02 35 0e 98 1b 2e 99 9a 46 32
       0.001909 -0.00234 0.265 0.313 -0.00198 0.0954 -0.003222 0.196
000010 de 9f 1b 11 93 26 cd 8c b7 15 05 1a 66 18 7f a6
       -0.007683 0.000623 0.02568 -0.000293 0.001395 0.00294 0.002148 -0.02538
000020 5a 9c 3a 18 4c 20 a0 2e 5b 28 fa a0 99 15 a3 18
       -0.00425 0.002064 0.00839 0.1035 0.03403 -0.00972 0.001367 0.002264
000030 95 9b f2 0c e2 ad 88 30 fa ae 51 15 08 34 a8 92
       -0.003702 0.0003018 -0.0919 0.1416 -0.109 0.001298 0.252 -0.0008125

model/conv2d_1/BiasAdd/ReadVariableOp f2 [64]
000000 a8 2c dc b2 84 aa 19 28 d0 ac ee a9 e6 9c 3e 2b
       0.07275 -0.2144 -0.0509 0.032 -0.0752 -0.04633 -0.004784 0.05658
000010 c6 ae 1e 2d 08 24 de ae 6c 31 25 2c e8 2a f7 b0
       -0.10583 0.07996 0.01575 -0.1073 0.1694 0.06476 0.05396 -0.1552
000020 8d a5 37 2b 9c af cc 2b 46 30 78 aa 3e 2f c8 2e
       -0.02168 0.05637 -0.1189 0.0609 0.1335 -0.05054 0.11316 0.10596
000030 ab ae fe 2b 3f a7 55 ae b1 25 0e 2b 5c 22 70 26
       -0.1042 0.06244 -0.0283 -0.09894 0.02223 0.0551 0.01242 0.02515
000040 15 a2 2f a8 6e 26 94 37 6e a5 5d a6 98 ae 10 ad
       -0.01188 -0.03268 0.02512 0.4736 -0.02121 -0.02486 -0.103 -0.0791
000050 09 34 d2 a8 5f 2d c7 28 16 2c dc 31 2d a5 9b 2e
       0.2522 -0.03766 0.0839 0.03732 0.06384 0.1831 -0.02022 0.1032
000060 5c 2d 36 22 e6 a8 1e ad 19 a8 3e 1f 81 2d ee 2c
       0.08374 0.01213 -0.03827 -0.07996 -0.032 0.007072 0.086 0.077
000070 ce ad 2d ac c1 2c ef 2a 72 30 c9 2c 4b ad 07 2f
       -0.0907 -0.06525 0.0743 0.05417 0.1389 0.07477 -0.0827 0.1098

model/conv2d_2/BiasAdd/ReadVariableOp f2 [128]
000000 8a 27 af ae 26 ac 28 29 32 b0 ab af e3 a8 c4 2e
       0.02945 -0.10443 -0.0648 0.04028 -0.1311 -0.1198 -0.03818 0.1057
000010 0b aa a9 9b 8a 31 1b b1 01 b4 2c b0 cd b0 5b aa
       -0.0472 -0.00374 0.1731 -0.1595 -0.2502 -0.1304 -0.15 -0.04965
000020 b3 a4 41 a1 45 31 86 b0 c0 ae d3 a8 d6 b0 c4 a8
       -0.01836 -0.01026 0.1647 -0.1414 -0.10547 -0.0377 -0.1511 -0.03723
000030 81 ad 36 b2 50 31 a6 af 1b 32 93 b3 ab ae 60 b0
       -0.086 -0.1941 0.166 -0.1195 0.1908 -0.2367 -0.1042 -0.1367
000040 52 a8 5f a8 63 b1 44 ac ba a9 b4 8c db a7 76 ae
       -0.03375 -0.03415 -0.1683 -0.06665 -0.04474 -0.000287 -0.03069 -0.10095
000050 25 a1 24 ae f4 a7 34 33 85 a1 91 b2 66 b3 fc af
       -0.01005 -0.09595 -0.03107 0.2251 -0.01078 -0.2052 -0.2312 -0.12476
000060 f0 b1 14 a3 8f 2c dc b1 85 ae ed a8 d5 a8 21 b0
       -0.1855 -0.013824 0.0712 -0.1831 -0.10187 -0.03848 -0.03775 -0.129
000070 8e b0 1c a8 e2 a8 fc b1 87 aa 54 2e 14 b3 31 ac
       -0.1423 -0.0321 -0.03815 -0.187 -0.051 0.0989 -0.2212 -0.0655
000080 6e af 05 28 41 2c ec a3 70 ad c5 1c 3a b2 c3 aa
       -0.1161 0.0314 0.06647 -0.01547 -0.08496 0.004658 -0.1946 -0.05283
000090 1c b5 8f af 5f a1 11 a8 45 ae ba 29 a1 a6 67 ac
       -0.3193 -0.1181 -0.01049 -0.03177 -0.09796 0.04474 -0.0259 -0.0688
0000a0 e9 a8 a1 ae b5 21 38 21 8f a0 f4 a6 54 a8 05 ae
       -0.03836 -0.1036 0.01115 0.01019 -0.0089 -0.02716 -0.0338 -0.09406
0000b0 17 96 d7 b1 5d 30 c0 9f 87 b1 64 aa c8 ac 31 b2
       -0.001487 -0.1825 0.1364 -0.00757 -0.1727 -0.04993 -0.0747 -0.1935
0000c0 db a3 ad a0 0c 20 dd 2e 23 a5 bb a0 0f a7 b6 2a
       -0.01534 -0.00913 0.007904 0.10724 -0.02007 -0.00924 -0.02757 0.05243
0000d0 b2 28 7e b5 fa ae 29 a4 33 b4 99 b2 4d 28 9c ab
       0.03668 -0.3433 -0.109 -0.01625 -0.2625 -0.2062 0.0336 -0.05945
0000e0 36 b2 69 ad b8 a4 b2 a8 b7 a4 24 b0 cd b1 a0 a8
       -0.1941 -0.08453 -0.01843 -0.03668 -0.01842 -0.1294 -0.1813 -0.03613
0000f0 b5 2e 1b b1 77 af e9 25 18 a5 74 a8 04 2c 87 a9
       0.1048 -0.1595 -0.11664 0.02309 -0.0199 -0.0348 0.06274 -0.04318

model/conv2d/Conv2D f2 [32, 3, 3, 1]
000000 cd b8 d9 b5 27 34 4f b8 4d 2c d4 36 07 af d4 36
       -0.6 -0.3655 0.2595 -0.5386 0.0672 0.4268 -0.1098 0.4268
000010 a4 38 8c 2b 6f 2c 10 2f 6a 2f d4 34 3a b0 64 25
       0.58 0.05896 0.0693 0.11035 0.11584 0.3018 -0.1321 0.02106
000020 d7 2a 1d b5 63 37 fe 38 be 2f e7 37 cd 31 4b b7
       0.05344 -0.3196 0.4617 0.624 0.121 0.494 0.1813 -0.4558
000030 72 ae 92 b9 38 bb c6 b3 c5 ac c6 b3 81 30 c3 33
       -0.1007 -0.6963 -0.9023 -0.2429 -0.0745 -0.2429 0.1407 0.2426
000040 21 34 59 b2 4a b3 32 20 cb a8 af b5 33 bb 45 35
       0.258 -0.1984 -0.2278 0.008194 -0.03745 -0.3552 -0.9 0.3293
000050 f0 35 a1 b1 70 35 fa 37 68 12 dd 37 af a5 ed b5
       0.371 -0.1759 0.3398 0.4985 0.000782 0.4915 -0.0222 -0.3704
000060 96 37 2f aa 27 b8 4f 39 9d 2e 25 ba 17 36 9f 35
       0.474 -0.0483 -0.519 0.6636 0.10333 -0.768 0.3806 0.3513
000070 66 b1 4a 36 c6 32 29 b7 d7 32 92 95 82 b7 9c 34
       -0.1687 0.393 0.2117 -0.4475 0.2137 -0.00136 -0.4692 0.288
000080 65 37 33 37 72 a5 77 36 9b 35 0c ba 38 bb ab b7
       0.4622 0.45 -0.02127 0.404 0.3503 -0.756 -0.9023 -0.4792
000090 85 2c a7 2f 1c ac c6 2a d5 32 40 a4 ad ac 08 2b
       0.0706 0.11957 -0.0642 0.05292 0.2135 -0.0166 -0.07306 0.05493
0000a0 1e b1 88 30 ea 30 fa 2d 25 2e 0a 30 bb 31 e8 a8
       -0.1599 0.1416 0.1536 0.0934 0.096 0.1262 0.1791 -0.03833
0000b0 f0 a8 b5 ac 69 31 34 b4 42 ba 50 30 ef a1 7d b3
       -0.03857 -0.07355 0.1691 -0.2627 -0.782 0.1348 -0.01159 -0.234
0000c0 e3 38 88 37 6b af 88 36 2c 36 6c b0 8f 33 78 32
       0.611 0.4707 -0.1159 0.4082 0.3857 -0.1382 0.2362 0.2021
0000d0 3f b2 b3 33 16 b1 d0 b9 0c b9 e8 2f 19 38 08 b8
       -0.1952 0.2406 -0.1589 -0.7266 -0.631 0.12354 0.512 -0.504
0000e0 f2 30 a6 38 ef b8 94 33 0e 38 41 b0 26 33 00 38
       0.1545 0.581 -0.6167 0.2368 0.507 -0.1329 0.2234 0.5
0000f0 0a b8 58 34 a8 38 d0 b8 33 2d 9d 36 99 b8 4c b9
       -0.505 0.2715 0.582 -0.6016 0.08124 0.4133 -0.5747 -0.662
000100 15 b3 b7 b0 09 ac de 35 03 2d bf 38 20 39 82 b0
       -0.2213 -0.1473 -0.06305 0.3667 0.0783 0.5933 0.6406 -0.1409
000110 f6 28 33 ab c8 ac 52 32 84 21 87 2d 2b 31 64 9f
       0.03876 -0.05624 -0.0747 0.1975 0.01077 0.08636 0.1615 -0.007217
000120 66 a9 e8 34 a6 34 99 a9 5a 33 1e 33 40 b7 89 b2
       -0.04218 0.3066 0.2905 -0.04373 0.2297 0.2224 -0.4531 -0.2042
000130 2e ad 2b b6 1a b4 19 aa 93 b3 b4 33 1b 35 04 35
       -0.08093 -0.3855 -0.2563 -0.04764 -0.2367 0.2407 0.319 0.3135
000140 a0 37 07 36 23 b9 5d b0 6c 39 af b6 3d a8 73 37
       0.4766 0.3767 -0.642 -0.1364 0.6777 -0.4177 -0.0331 0.4656
000150 dc b5 87 2e c9 35 22 31 d3 38 07 39 fa b4 65 30
       -0.3662 0.102 0.3616 0.1604 0.603 0.6284 -0.311 0.1373
000160 4a 35 1a bb 63 b9 73 ae 60 b6 39 b1 5c 38 cc b6
       0.3306 -0.8877 -0.6733 -0.10077 -0.3984 -0.1632 0.545 -0.4248
000170 cf a9 d8 37 e4 b8 13 28 e8 38 7c 2b 02 30 b2 26
       -0.04538 0.4902 -0.6113 0.03183 0.6133 0.05847 0.1252 0.02615
000180 ff 29 cc 2f d5 a8 fa a0 55 2a 8e af 40 b8 66 b2
       0.04684 0.1218 -0.03775 -0.00972 0.04947 -0.11804 -0.5312 -0.2
000190 38 b3 25 b1 af 32 eb 34 99 32 82 37 3e 38 86 b2
       -0.2256 -0.1608 0.2089 0.3074 0.2062 0.4692 0.5303 -0.2039
0001a0 21 25 6a 39 a0 b9 e5 31 a1 39 36 ba f3 b0 08 38
       0.02003 0.677 -0.703 0.1842 0.7036 -0.7764 -0.1547 0.504
0001b0 ac ba 30 ac d4 a4 10 ae 5d 31 d8 9f e4 36 66 37
       -0.834 -0.0654 -0.01886 -0.0947 0.1676 -0.00766 0.4307 0.4624
0001c0 47 28 a6 bb 97 b5 b4 31 33 b6 ba 2e 10 31 54 34
       0.03342 -0.956 -0.3494 0.1782 -0.3875 0.1051 0.1582 0.2705
0001d0 82 39 47 36 60 31 34 2a a7 30 ec 1e 0b 2b 61 30
       0.6885 0.3923 0.168 0.04846 0.1454 0.00676 0.05502 0.1368
0001e0 e8 ac 3c af 2d a8 ec b0 0d b7 c5 b9 79 a6 02 b0
       -0.07666 -0.11304 -0.03262 -0.1538 -0.4407 -0.721 -0.02528 -0.1252
0001f0 9b b7 2c 39 03 3a 12 36 ec 17 c8 32 0e 33 8c a9
       -0.4753 0.6465 0.7515 0.3794 0.001934 0.2119 0.2205 -0.04333

model/conv2d_1/Conv2D f2 [64, 3, 3, 32]
000000 8c 32 00 32 b8 ae b1 aa 84 2d 8d 2c 4a 33 df b0
       0.2046 0.1875 -0.105 -0.05228 0.0862 0.0711 0.2278 -0.1522
000010 89 30 09 30 34 30 9e 30 56 2c af 30 7e 1d 48 30
       0.1417 0.1261 0.1313 0.1443 0.06775 0.1464 0.005363 0.1338
000020 b0 28 57 2f bf 31 92 b2 5b 30 6b 2f e1 32 0b 2d
       0.03662 0.1147 0.1796 -0.2053 0.1361 0.1159 0.215 0.0788
000030 c8 2c 8c 31 1c 32 2f a8 25 31 82 2f 7a ab fe 32
       0.0747 0.1733 0.1909 -0.03268 0.1608 0.1173 -0.0584 0.2185
000040 15 b3 9d 2d 11 32 c0 28 71 2f cf 35 8f 2f b9 2e
       -0.2213 0.0877 0.1896 0.0371 0.1163 0.363 0.1181 0.10504
000050 3b 2f 63 2f 8e 30 19 32 3d b2 cb a0 17 b2 ee a4
       0.113 0.1154 0.1423 0.1906 -0.195 -0.00936 -0.1903 -0.01926
000060 a0 26 1f 28 8f ba 9d ae 91 ba a2 2f ad ab e0 b1
       0.02588 0.0322 -0.82 -0.10333 -0.821 0.11926 -0.05997 -0.1836
000070 2b a9 1c b0 d3 1c 76 30 5c ad 4b 2e 24 a3 54 32
       -0.04037 -0.1284 0.00471 0.1394 -0.08374 0.0983 -0.01395 0.1978
000080 c1 b6 dd b2 5c 34 9d 2a ba 32 93 36 7d b1 45 31
       -0.422 -0.2145 0.2725 0.05167 0.2102 0.411 -0.1715 0.1647
000090 4c b4 03 b1 7f 36 71 ab 08 b8 71 b5 79 2c cf b3
       -0.2686 -0.1566 0.406 -0.05814 -0.504 -0.34 0.0699 -0.244
0000a0 06 b4 c9 b2 2c ba 99 2f ad b8 91 b3 0a b5 18 b8
       -0.2515 -0.212 -0.7715 0.1187 -0.5845 -0.2365 -0.315 -0.5117
0000b0 58 b4 33 b6 91 b4 be 37 7e b5 df af 6f 34 a6 b0
       -0.2715 -0.3875 -0.2854 0.484 -0.3433 -0.123 0.277 -0.1453
0000c0 99 b0 28 31 80 31 95 11 86 a1 06 34 2d 30 cc 31
       -0.1437 0.1611 0.1719 0.0006814 -0.01079 0.2515 0.1305 0.1812
0000d0 8f 32 cd 30 57 ad 8b 30 db 28 6c 9e 46 b8 36 2e
       0.205 0.15 -0.08344 0.142 0.03793 -0.00627 -0.534 0.09705
0000e0 b7 32 6e 25 60 b5 4e 32 81 b6 53 2b 54 24 98 a5
       0.2098 0.02121 -0.336 0.197 -0.4065 0.05722 0.0169 -0.02185
0000f0 d2 b4 b4 b4 bd 2b 91 b2 38 2d 95 ae 5b 32 b6 2f
       -0.3013 -0.294 0.06046 -0.2052 0.08154 -0.10284 0.1986 0.1205
000100 56 b2 f1 a9 2e 30 aa 2e 74 ac f6 25 dd 22 0f 34
       -0.198 -0.04642 0.1306 0.1041 -0.0696 0.02328 0.013405 0.2537
000110 fc ac 61 ae 74 ad 4e ad a6 b0 09 aa 01 b2 b0 b1
       -0.0779 -0.0997 -0.0852 -0.0829 -0.1453 -0.04715 -0.1876 -0.1777
000120 8b b0 7c b2 95 b7 11 32 53 b0 a3 af 3e b1 17 b4
       -0.142 -0.2026 -0.4739 0.1896 -0.1351 -0.1193 -0.1638 -0.2556
000130 14 b6 e7 b4 7b a3 29 b0 af ab 4f aa 84 30 3e a8
       -0.38 -0.3064 -0.01461 -0.13 -0.06003 -0.0493 0.1411 -0.03314
000140 4a 30 a9 a9 67 b2 06 2e 4f 32 f4 b4 71 b2 c6 b6
       0.134 -0.04422 -0.2001 0.0941 0.1971 -0.3096 -0.2013 -0.4233
000150 7b a5 11 a2 6c 1e 72 b4 d5 26 4c 2c 01 35 1c a6
       -0.02141 -0.01185 0.00627 -0.2778 0.02669 0.06714 0.3127 -0.02386
000160 80 b4 49 30 fc 2b 01 b7 43 2b fe 28 ce 31 7a 24
       -0.2812 0.1339 0.06238 -0.4377 0.05673 0.039 0.1814 0.01749
000170 c3 2f b6 30 81 aa 53 31 af ac d1 32 af b3 39 b2
       0.1213 0.1472 -0.0508 0.1664 -0.0732 0.213 -0.2401 -0.1945
000180 b5 b1 1b b4 26 37 1a a7 16 b4 f3 ac 73 b2 96 36
       -0.1783 -0.2566 0.4468 -0.02774 -0.2554 -0.07733 -0.2015 0.4116
000190 76 b2 94 b2 39 b5 e5 b0 1d b0 3b b3 30 b0 09 b2
       -0.2019 -0.2056 -0.3264 -0.153 -0.1285 -0.226 -0.1309 -0.1886
0001a0 75 b1 df b0 cd b2 fb 35 dc a5 de b3 1a b3 ab af
       -0.1705 -0.1522 -0.2125 0.3738 -0.02289 -0.2458 -0.2219 -0.1198
0001b0 b7 b6 f1 b4 06 af 5a b4 61 b2 27 b4 0c 38 d5 ad
       -0.4197 -0.3088 -0.10974 -0.272 -0.1993 -0.2595 0.506 -0.0911
0001c0 14 34 29 ad 36 b1 f7 ac 32 b6 db b8 4b b2 f0 b4
       0.255 -0.0806 -0.1628 -0.0776 -0.3872 -0.607 -0.1967 -0.3086
0001d0 2c ad 45 2c 57 b8 26 b5 dd 31 91 32 ab 35 ef 30
       -0.0808 0.0667 -0.5425 -0.3218 0.1832 0.2052 0.3542 0.1542
0001e0 02 af b9 32 7c 35 a6 b5 78 35 1b 28 b3 2f df 30
       -0.1095 0.2101 0.3428 -0.353 0.3418 0.03207 0.1203 0.1522
0001f0 53 29 8d 34 31 27 59 b3 a8 2b ef 30 17 a8 b8 ae
       0.0416 0.2844 0.02809 -0.2296 0.0598 0.1542 -0.03195 -0.105

model/conv2d_2/Conv2D f2 [128, 3, 3, 64]
000000 ae 2c 29 2f bf 1a 34 2a 23 a9 42 22 d3 33 73 34
       0.0731 0.1119 0.003294 0.04846 -0.04013 0.01222 0.2445 0.278
000010 7c 28 51 33 e8 a6 58 32 4b 34 a5 1c b9 2d fb a8
       0.03503 0.2286 -0.02698 0.1982 0.2683 0.004536 0.0894 -0.0389
000020 70 ab ce 33 39 ac b2 af 1c 10 21 ac 91 ab b8 a8
       -0.0581 0.2439 -0.066 -0.12024 0.0005016 -0.0645 -0.0591 -0.03687
000030 9d ae 0b a9 88 22 80 2d 3a 2f 72 ac 48 aa 4d 32
       -0.10333 -0.0394 0.01276 0.08594 0.1129 -0.06946 -0.04907 0.1969
000040 4e 24 25 af 52 b1 b2 ac 8f 28 72 32 d6 29 f3 a5
       0.01682 -0.11163 -0.1663 -0.07336 0.0356 0.2014 0.0456 -0.02324
000050 09 b0 96 ab 44 2b ab a1 15 a6 33 35 1e a1 87 2d
       -0.1261 -0.05927 0.05676 -0.01107 -0.02376 0.325 -0.009995 0.08636
000060 d8 31 cd 20 92 2f 90 2c 2d 33 29 30 bf 32 5d 28
       0.1826 0.00938 0.1183 0.0713 0.2242 0.13 0.2108 0.0341
000070 40 b0 95 2d e9 a5 15 31 cd 26 66 a3 7f 2e c6 35
       -0.1328 0.0872 -0.02309 0.1588 0.02657 -0.01445 0.1015 0.3608
000080 08 31 1f 2e 6e 34 6c b0 f4 ac 20 9d 43 30 64 2d
       0.1572 0.09564 0.2769 -0.1382 -0.0774 -0.005005 0.1332 0.0842
000090 fc 2a 06 20 a4 b1 71 a1 07 1e 8c a9 b6 b1 f7 ad
       0.05457 0.00786 -0.1763 -0.01063 0.005886 -0.04333 -0.1785 -0.0932
0000a0 cd 31 2d 2e b7 32 37 aa 15 31 bc a6 99 ac d6 2d
       0.1813 0.0965 0.2098 -0.04855 0.1588 -0.0263 -0.07184 0.0912
0000b0 db a8 83 24 15 29 94 ae 93 32 ec af f2 2f 1a 22
       -0.03793 0.01762 0.0397 -0.1028 0.2054 -0.1238 0.12415 0.01192
0000c0 25 27 03 30 6d b3 c7 ae b1 2e e7 2a be ad 0b 30
       0.02791 0.1254 -0.232 -0.1059 0.10455 0.05392 -0.0897 0.1263
0000d0 d4 ae 60 2e 7b 2a 29 2c 1d b4 d7 99 b0 ae d6 2c
       -0.1067 0.0996 0.05063 0.065 -0.257 -0.002851 -0.1045 0.07556
0000e0 11 b2 28 a0 6f aa 2f 2f bb 2d 23 b1 d0 ad 29 a5
       -0.1896 -0.00812 -0.05026 0.11224 0.08954 -0.1605 -0.0908 -0.02016
0000f0 52 aa 36 2f 3b a5 1e 2b bd ae 9f aa 63 ae df 32
       -0.04938 0.1127 -0.02043 0.0556 -0.1053 -0.05173 -0.0998 0.2147
000100 ec 32 50 25 68 a1 60 a5 ae ae b5 29 14 a5 43 a7
       0.2163 0.02075 -0.01056 -0.021 -0.1044 0.0446 -0.01984 -0.02837
000110 d9 ac c6 af 5c a5 d2 af 22 b4 f8 af f0 ad 23 30
       -0.07574 -0.12146 -0.02094 -0.1222 -0.2583 -0.1245 -0.0928 0.1293
000120 80 28 05 30 42 22 9e 23 21 2f 41 ad c1 af 9b 30
       0.03516 0.1256 0.01222 0.01488 0.1114 -0.0821 -0.12115 0.1439
000130 7a 29 a3 2b a4 24 68 b0 73 b0 26 b0 ab 9e c0 2a
       0.0428 0.05966 0.01813 -0.1377 -0.139 -0.1296 -0.00651 0.05273
000140 07 28 61 a4 8b ad 70 24 2e 22 b1 2c 87 1c 6d b3
       0.03146 -0.0171 -0.0866 0.01733 0.01207 0.0733 0.00442 -0.232
000150 aa 28 3c 25 87 a7 56 b1 26 b3 4e 2c 5d 20 10 a2
       0.03644 0.02045 -0.0294 -0.1667 -0.2234 0.06726 0.00852 -0.01184
000160 59 b6 35 b0 3e a3 a7 b0 76 a8 83 b4 1b b3 ed 29
       -0.3967 -0.1315 -0.014145 -0.1454 -0.03485 -0.282 -0.222 0.0463
000170 b9 1d 98 2d 6a a0 3b 30 e8 1a 3a ab a6 b0 ca b3
       0.00559 0.0874 -0.00862 0.1322 0.003372 -0.05646 -0.1453 -0.2434
000180 06 ad 15 aa 8e b2 f1 25 44 2f 25 b3 f4 2c 2f 27
       -0.0785 -0.04752 -0.2048 0.02321 0.1135 -0.2233 0.0774 0.02806
000190 dd b0 a2 1f aa 23 17 2a 3d 2c c4 97 8d 9b 05 20
       -0.152 0.007454 0.01497 0.04758 0.0662 -0.001896 -0.003687 0.00785
0001a0 c0 a1 94 32 90 ac 26 27 5f b2 d1 b1 44 9d 38 b0
       -0.01123 0.2056 -0.0713 0.02792 -0.1991 -0.1818 -0.005142 -0.1318
0001b0 03 b0 5b b3 fa 28 a6 2a 21 b0 60 a9 7e 27 db 30
       -0.1254 -0.2299 0.03888 0.05194 -0.129 -0.042 0.02927 0.1517
0001c0 60 2a 6b b2 31 ad 4c b0 51 29 1c 34 7d a1 07 a0
       0.0498 -0.2006 -0.0811 -0.1343 0.04153 0.2568 -0.01072 -0.007866
0001d0 78 af a4 a6 e1 31 e5 ad 72 a8 04 2d 0e b0 95 a8
       -0.1167 -0.02594 0.1837 -0.0921 -0.03473 0.07837 -0.1267 -0.0358
0001e0 6d 31 b0 2d 5e 24 bf 29 7c 2f 49 32 f0 29 b3 a8
       0.1696 0.08887 0.01706 0.0449 0.11694 0.1964 0.0464 -0.0367
0001f0 9a ad c9 24 2d b3 06 32 d4 31 69 ae 60 24 a0 32
       -0.0875 0.01869 -0.2242 0.1882 0.1821 -0.10016 0.01709 0.207

model/dense/BiasAdd/ReadVariableOp f2 [128]
000000 ee 2e 7c 2d 07 2b 41 32 e1 28 83 35 a8 31 78 2b
       0.1083 0.0857 0.0549 0.1954 0.03812 0.3445 0.1768 0.05835
000010 d6 ab 01 2a 84 33 ee 34 99 a8 a3 25 ca 30 3f a4
       -0.06122 0.0469 0.2349 0.308 -0.03592 0.02202 0.1497 -0.01659
000020 f7 2e c8 2f 11 2e 76 33 c2 25 64 ac 69 2a 89 2e
       0.1088 0.1216 0.0948 0.2332 0.02249 -0.0686 0.05008 0.1021
000030 30 31 df 30 51 30 d8 2c bf a5 cd 32 83 31 6d 30
       0.1621 0.1522 0.1349 0.0757 -0.02245 0.2125 0.1722 0.1383
000040 2c 32 af 2f a2 2e 35 a6 87 2d 54 2a 9a 32 8b 2f
       0.1929 0.12006 0.10364 -0.02425 0.08636 0.04944 0.2063 0.11786
000050 a8 2f 41 34 1c 32 5d 32 47 32 80 2a d5 2d 91 32
       0.1196 0.2659 0.1909 0.1989 0.1962 0.05078 0.0911 0.2052
000060 7d 34 6d 33 15 31 61 2c 01 30 cb 32 dd a8 d3 29
       0.2805 0.232 0.1588 0.0684 0.1251 0.2123 -0.038 0.0455
000070 18 34 7a a3 87 2e 3c a0 a3 26 ff 2b 11 a4 ca 32
       0.2559 -0.0146 0.102 -0.00827 0.02592 0.06247 -0.01588 0.2122
000080 a0 1b a3 30 49 32 a0 33 33 33 96 ad cb 30 cf 18
       0.003723 0.1449 0.1964 0.2383 0.225 -0.0873 0.1498 0.002348
000090 ca a8 8f 34 d1 30 17 29 2b 2d af 37 ea ac e3 31
       -0.0374 0.285 0.1505 0.03976 0.08075 0.4802 -0.0768 0.184
0000a0 bd 2a 80 2b c0 2f 5f 32 5b 2c 30 28 2a a8 63 a7
       0.05264 0.0586 0.1211 0.1991 0.06805 0.0327 -0.03253 -0.02885
0000b0 29 2a 6e ac 95 ab f1 ad 08 ac 72 2c ad 33 ec aa
       0.04813 -0.0692 -0.05923 -0.09283 -0.063 0.06946 0.2399 -0.05408
0000c0 89 24 83 a9 20 33 ba 34 25 a4 56 30 bb 2d 7e ac
       0.01772 -0.04306 0.2227 0.2954 -0.01619 0.1355 0.08954 -0.0702
0000d0 8b 31 1c 2d 6e 2b 8c 2e eb 30 97 a8 0a 2c f3 2b
       0.1732 0.07983 0.05804 0.1023 0.1537 -0.03586 0.0631 0.0621
0000e0 86 a6 b8 33 a6 2a 0e 28 c2 34 9f 2f 3a a4 78 34
       -0.02548 0.2412 0.05194 0.03168 0.2974 0.1191 -0.01651 0.2793
0000f0 dd 33 be 2e a9 2f d4 2f 33 34 ab a4 50 30 d3 28
       0.2457 0.10535 0.1197 0.1223 0.2625 -0.01823 0.1348 0.0377

model/dense_1/BiasAdd/ReadVariableOp f2 [25]
000000 5d 2c 5b 2e d2 ac 77 a8 01 2c 14 a8 e5 ac af 2b
       0.0682 0.0993 -0.0753 -0.03488 0.06256 -0.03186 -0.0765 0.06003
000010 55 26 b4 24 3d 24 2e a5 f9 ae e3 a9 cd a5 f5 a7
       0.02473 0.01837 0.01656 -0.02023 -0.10895 -0.046 -0.02266 -0.03108
000020 09 a8 e3 28 37 29 72 a7 05 a8 12 b1 a2 a6 a8 31
       -0.03152 0.03818 0.04074 -0.02908 -0.0314 -0.1584 -0.02591 0.1768
000030 73 2c
       0.0695

model/dense/MatMul f2 [128, 128]
000000 b4 2c 2b 2a 49 b4 4f b0 a6 b0 60 a3 ac 28 51 33
       0.0735 0.0482 -0.2678 -0.1346 -0.1453 -0.014404 0.0365 0.2286
000010 c5 30 2d 34 b2 22 cc 2a 85 33 c4 ab f7 29 d9 a4
       0.149 0.261 0.01308 0.0531 0.235 -0.06067 0.0466 -0.01894
000020 2c 9e 45 ab d8 32 85 34 4b 28 4d 26 60 b1 dc 29
       -0.006027 -0.0568 0.2139 0.2825 0.03354 0.02461 -0.168 0.04578
000030 55 28 c6 32 bf 18 ca 35 89 b2 74 2c 04 ad a8 34
       0.03384 0.2117 0.002317 0.3618 -0.2042 0.0696 -0.07837 0.291
000040 1b b1 3b b2 8b b5 ab b0 98 36 58 36 24 ab 8a 23
       -0.1595 -0.1947 -0.3464 -0.1459 0.412 0.3965 -0.0558 0.014725
000050 50 ae af a4 b4 ad 7b b2 43 aa ca 2b 9f b7 60 31
       -0.09863 -0.0183 -0.0891 -0.2025 -0.04892 0.06085 -0.4763 0.168
000060 21 35 f8 a9 2f 2f 80 ac 56 ad 33 31 6d a9 d5 a9
       0.3206 -0.04663 0.11224 -0.0703 -0.0834 0.1625 -0.0424 -0.04556
000070 79 36 11 b6 9d 26 e9 b3 8c af 63 ac ba ac b8 28
       0.4045 -0.3792 0.02583 -0.2472 -0.1179 -0.06854 -0.07385 0.03687
000080 8f a9 98 aa 12 33 ae 30 fc b0 6f 33 16 2a 40 33
       -0.04343 -0.0515 0.221 0.1462 -0.1558 0.2323 0.04755 0.2266
000090 44 2e 62 31 3d 92 4c 2c cb 30 21 25 56 99 3f 2e
       0.0979 0.1682 -0.0007615 0.06714 0.1498 0.02003 -0.002605 0.0976
0000a0 c7 b0 8a af 0d b4 59 a7 cf 35 1d 32 bb 30 03 a4
       -0.1493 -0.1178 -0.2532 -0.0287 0.363 0.191 0.1478 -0.01567
0000b0 bc 34 2d 30 b7 2f df 2c c7 a4 fa a7 16 b3 4a b1
       0.296 0.1305 0.12054 0.0761 -0.01866 -0.03116 -0.2214 -0.1653
0000c0 ad a9 3e 2d 9b 2d 0e 32 fa 2d 5b a9 e5 a5 24 ab
       -0.04434 0.0819 0.0876 0.1892 0.0934 -0.04184 -0.02303 -0.0558
0000d0 f6 3b 3c a9 85 34 d2 ac 78 b0 a8 31 2e ad 42 a6
       0.995 -0.0409 0.2825 -0.0753 -0.1396 0.1768 -0.08093 -0.02444
0000e0 b0 2c 84 ae d6 b2 a6 2c 8a b0 2d 35 77 b5 68 ae
       0.07324 -0.1018 -0.2136 0.07263 -0.1418 0.3235 -0.3416 -0.1001
0000f0 78 30 1e b4 be af cb b2 34 a5 7b ac cf 30 05 1f
       0.1396 -0.2573 -0.121 -0.2123 -0.02032 -0.07 0.1503 0.006855
000100 d1 31 e5 26 65 ac 05 31 43 29 d2 30 92 2f 26 25
       0.1818 0.02693 -0.06866 0.1569 0.0411 0.1506 0.1183 0.02011
000110 df 37 db b1 67 b0 96 b2 c7 a9 ca b1 90 28 d4 b0
       0.492 -0.183 -0.1376 -0.2058 -0.04514 -0.1809 0.03564 -0.1509
000120 c7 b4 bd b4 fb 32 dd 2d 68 98 90 36 75 b7 38 a2
       -0.2986 -0.2961 0.2181 0.0916 -0.002151 0.4102 -0.466 -0.012146
000130 87 28 3c a9 e7 2f db a5 96 20 6e a9 67 2f 21 ad
       0.03537 -0.0409 0.1235 -0.02287 0.00896 -0.04242 0.11566 -0.08014
000140 3a a8 16 b8 63 34 e9 ac 56 37 1a 33 a7 30 91 2d
       -0.03302 -0.5107 0.2742 -0.0767 0.4585 0.2219 0.1454 0.087
000150 2d 23 e4 2d 8d b1 75 92 10 30 d7 b2 ef 35 f7 2f
       0.014015 0.09204 -0.1735 -0.000788 0.127 -0.2137 0.3708 0.12445
000160 2c 23 ab ac a8 25 3c a0 d8 ad de ac ce a4 bd b1
       0.01401 -0.07294 0.0221 -0.00827 -0.0913 -0.07605 -0.01877 -0.1793
000170 1b b0 20 b1 d2 ae a6 9c ca 32 f9 ac 9b 2b e0 ac
       -0.1283 -0.1602 -0.10657 -0.00454 0.2122 -0.0777 0.05942 -0.0762
000180 4b b0 d4 b2 2a 20 22 24 3e b1 8c 33 03 2a 09 38
       -0.1342 -0.2134 0.00813 0.01614 -0.1638 0.2358 0.04697 0.5044
000190 05 ab d8 b5 bf a9 5c 35 0c af 3b 2c 75 af dd 31
       -0.05484 -0.3652 -0.0449 0.335 -0.1101 0.0661 -0.1165 0.1832
0001a0 3a 2e a0 a4 4b b0 c1 1f 87 aa a2 aa 95 ab 50 b5
       0.0973 -0.01807 -0.1342 0.007572 -0.051 -0.05182 -0.05923 -0.332
0001b0 0d 2d cd 31 56 2a 34 ad 1d 88 da 2c e0 2e 22 98
       0.0789 0.1813 0.0495 -0.0813 -0.0001255 0.0758 0.1074 -0.002018
0001c0 3e 2a eb 2d d0 2f 51 b0 8b b1 ad b0 ee 30 1f 38
       0.04877 0.09247 0.1221 -0.1349 -0.1732 -0.1461 0.154 0.515
0001d0 e7 39 2d 2d 96 28 f4 2b 59 b0 06 a8 dc b1 fd a1
       0.738 0.0809 0.03583 0.06213 -0.1359 -0.03143 -0.1831 -0.011696
0001e0 1a 31 20 28 a9 24 02 ae 7c b0 07 31 dc af ec 2c
       0.1594 0.03223 0.0182 -0.0939 -0.1401 0.1571 -0.1228 0.0769
0001f0 1a 28 86 32 a8 a9 a8 b9 2b ae 4c 2e 8f 2e bd 31
       0.03204 0.2039 -0.0442 -0.707 -0.0964 0.0984 0.1025 0.1793

model/dense_1/MatMul f2 [25, 128]
000000 7d a2 b9 33 0c b6 f4 31 44 33 39 b8 29 ba 70 b9
       -0.01267 0.2413 -0.378 0.186 0.227 -0.528 -0.77 -0.6797
000010 de 2c a7 b5 fd b9 f2 b6 39 2a 2d b2 f2 b7 97 b2
       0.07605 -0.3533 -0.7485 -0.434 0.0486 -0.193 -0.4966 -0.2059
000020 0f b0 05 9f 1a 9d 32 30 33 b6 6b b0 48 ad b7 ba
       -0.1268 -0.006855 -0.004982 0.1311 -0.3875 -0.1381 -0.0825 -0.8394
000030 a1 34 e7 30 29 33 b0 b6 f5 b2 db a6 c7 b6 61 ac
       0.2893 0.1532 0.2238 -0.418 -0.2174 -0.02678 -0.4236 -0.0684
000040 a0 30 23 b3 87 35 3d 2e 78 33 da 2e 01 2c 90 b5
       0.1445 -0.223 0.3455 0.0975 0.2334 0.10706 0.06256 -0.3477
000050 45 2c 79 b4 7a 2a aa b2 96 b0 ad 30 48 b8 75 ae
       0.0667 -0.2795 0.0506 -0.2083 -0.1433 0.1461 -0.535 -0.1009
000060 a3 27 26 2c 0f a4 7a 30 a6 ab 76 b0 a7 af eb ab
       0.02983 0.0648 -0.01585 0.1399 -0.05975 -0.1394 -0.11957 -0.06186
000070 8d 2d 29 2e 2e 30 de 2e 34 ad aa 31 ae b5 48 30
       0.08673 0.09625 0.1306 0.1073 -0.0813 0.177 -0.355 0.1338
000080 ad a9 4d ad 63 35 92 b5 59 2e 46 a9 0f 29 bd b8
       -0.04434 -0.0828 0.3367 -0.3481 0.0992 -0.0412 0.03952 -0.5923
000090 7b b5 bc b5 08 2f 75 af 39 b0 14 b3 18 b8 fb 36
       -0.3425 -0.3584 0.10986 -0.1165 -0.132 -0.2212 -0.5117 0.4363
0000a0 b4 ad 30 ab cc b4 81 32 2d 2d 6e b0 f6 24 e8 b4
       -0.0891 -0.05615 -0.2998 0.2032 0.0809 -0.1384 0.01938 -0.3066
0000b0 bc b2 00 ae f7 af b3 33 42 a8 a9 2c 5f a7 14 b0
       -0.2104 -0.09375 -0.12445 0.2406 -0.03326 0.0728 -0.0288 -0.1274
0000c0 5b b7 4c 2e 75 34 8e 2f b7 30 e2 b1 93 2a 61 aa
       -0.4597 0.0984 0.2786 0.11804 0.1473 -0.1838 0.05136 -0.04984
0000d0 f8 30 fe 2a 8c 33 69 2f 54 ad ea 23 65 35 33 a6
       0.1553 0.05463 0.2358 0.1158 -0.08325 0.01546 0.3372 -0.02422
0000e0 41 9e f2 34 4d b4 03 af 00 b6 be 30 61 a4 34 2f
       -0.006107 0.309 -0.2688 -0.10956 -0.375 0.1482 -0.0171 0.11255
0000f0 3c b6 a0 a0 52 b4 9a 34 fb b5 6f 2d 5d 35 bb 2e
       -0.3896 -0.00903 -0.27 0.2876 -0.3738 0.0849 0.3352 0.10516
000100 48 b6 63 b3 6b 2b de b0 0f b2 27 b2 26 38 61 b9
       -0.3926 -0.2308 0.05795 -0.1521 -0.1893 -0.1923 0.5186 -0.6724
000110 2d 30 ac b7 88 b9 25 a6 a7 28 e9 30 73 25 8f aa
       0.1305 -0.4795 -0.6914 -0.024 0.03635 0.1534 0.02129 -0.05124
000120 60 b4 d2 b6 d0 34 21 bd 7d 33 f6 30 63 35 57 b2
       -0.2734 -0.4263 0.3008 -1.282 0.234 0.155 0.3367 -0.1981
000130 fc 34 51 2f 0a b4 c5 35 ec b0 62 38 c9 bb f7 2c
       0.3115 0.1143 -0.2524 0.3606 -0.1538 0.548 -0.973 0.0776
000140 f7 b7 36 34 ca b5 e1 ac 40 31 13 2d 15 35 fd ae
       -0.4978 0.2632 -0.3618 -0.07623 0.1641 0.0793 0.3176 -0.1092
000150 e9 9c a1 34 02 31 23 bb f7 38 0e 33 cb b2 e1 ac
       -0.004795 0.2893 0.1565 -0.892 0.6206 0.2205 -0.2123 -0.07623
000160 6d b1 aa 33 7e b2 46 b7 50 b3 c1 b6 9d ad 38 31
       -0.1696 0.2395 -0.2029 -0.4546 -0.2285 -0.422 -0.0877 0.1631
000170 d4 b8 99 33 cb 9c 65 ae 50 2c c0 a1 ad 2b ae b7
       -0.6035 0.2374 -0.00468 -0.0999 0.0674 -0.01123 0.05997 -0.48
000180 36 2f bb b5 9a ad 34 32 8b 31 cf af a9 b2 6c b2
       0.1127 -0.3582 -0.0875 0.1938 0.1732 -0.122 -0.2081 -0.2007
000190 69 31 a6 31 a6 b7 fa b6 84 b4 91 be 8c 34 99 25
       0.1691 0.1765 -0.478 -0.436 -0.2822 -1.642 0.2842 0.02187
0001a0 6e 33 fa 34 29 ac 02 b8 e2 2c 44 b9 3b 29 bd 35
       0.2322 0.311 -0.065 -0.501 0.0763 -0.658 0.04086 0.3586
0001b0 c6 b0 ae ab 70 b4 f3 b7 39 ac 05 32 11 b8 5e 33
       -0.1492 -0.06 -0.2773 -0.4968 -0.066 0.1881 -0.5083 0.2302
0001c0 53 b3 37 38 f3 aa 29 b0 70 aa 07 31 61 bc 62 af
       -0.2289 0.527 -0.0543 -0.13 -0.0503 0.1571 -1.095 -0.11536
0001d0 f3 19 3e 32 72 b0 7a b3 24 33 44 aa b5 28 48 b1
       0.002905 0.1951 -0.1389 -0.2336 0.2231 -0.04895 0.03677 -0.165
0001e0 18 b9 fc b5 84 32 cb b2 78 30 17 b1 77 2c b2 24
       -0.6367 -0.374 0.2036 -0.2123 0.1396 -0.159 0.06976 0.01834
0001f0 dc 34 05 2e 2f b8 d2 35 60 36 cf af 5b b8 a8 34
       0.3037 0.09406 -0.523 0.3638 0.3984 -0.122 -0.5444 0.291
