models/tab_digit_cnn.tflite (tflite, 229948 bytes, 10 tensors)

model/conv2d/BiasAdd/ReadVariableOp f2 [32]
-0.03038 -0.9478 0.0866 0.04337 -0.04892 0.02037 -0.01365 0.02351
-0.737 -0.00476 0.08014 -0.003414 0.001257 -0.0304 -0.0007915 0.0003357
-0.6484 0.005848 -0.001976 0.04846 0.0438 -1.114 0.002382 0.003439
-0.067 3.99e-05 -0.943 -0.01263 -0.01298 0.00851 0.09357 -0.0001219
00000000: c7a7 95bb 8b2d 8d29 43aa 3725 fda2 0526
00000010: e5b9 e09c 212d fe9a 2615 c8a7 7c92 800d
00000020: 30b9 fd1d 0c98 342a 9b29 75bc e118 0b1b
00000030: 4aac 9d02 8bbb 77a2 a5a2 5b20 fd2d fd87

model/conv2d_1/BiasAdd/ReadVariableOp f2 [64]
0.1356 0.1511 0.32 0.1198 -0.04538 0.00982 -0.071 0.1746
-0.1929 -0.2637 -0.09283 -0.007473 -0.04807 -0.1385 0.00676 0.1087
-0.01614 0.192 0.068 -0.1425 0.0603 0.0677 -0.3054 -0.2489
-0.3147 0.2769 0.10034 -0.2683 0.06146 -0.412 0.2188 0.02475
-0.1677 0.3667 -0.3435 0.512 -0.09766 0.0746 0.113 0.168
0.3123 -0.21 0.0215 -0.295 0.1511 -0.1912 0.05743 0.2106
0.002142 -0.04153 0.09375 -0.3818 -0.014244 -0.2045 -0.3418 0.1508
-0.3777 -0.0264 -0.4094 0.2732 0.07886 0.1594 -0.0978 0.1295
00000000: 5730 d630 1f35 ab2f cfa9 0721 8bac 9631
00000010: 2cb2 38b4 f1ad a79f 27aa 6fb0 ec1e f52e
00000020: 22a4 2532 5a2c 8fb0 b82b 552c e3b4 f7b3
00000030: 09b5 6e34 6c2e 4bb4 de2b 98b6 0033 5626
00000040: 5eb1 de35 7fb5 1938 40ae c62c 3b2f 6031
00000050: ff34 b8b2 8125 b8b4 d630 1eb2 5a2b bd32
00000060: 6318 51a9 002e 1cb6 4ba3 8bb2 78b5 d330
00000070: 0bb6 c2a6 8db6 5f34 0c2d 1a31 42ae 2530

model/conv2d_2/BiasAdd/ReadVariableOp f2 [128]
0.09625 -0.05853 0.2181 -0.01296 0.03192 0.0765 -0.04602 0.6216
-0.00766 0.01309 0.454 -0.010506 0.1926 -0.0716 -0.1818 -0.01119
0.04666 0.2123 -0.1908 0.01113 -0.09753 -0.1919 -0.006416 0.02547
0.0583 -0.04135 -0.03842 -0.0517 0.11096 -0.04926 -0.1451 -0.03452
0.001467 0.07355 0.0967 -0.2166 -0.07623 -0.0795 -0.04135 -0.0352
-0.0651 -0.0965 -0.04498 0.11896 0.02046 -0.1821 -0.05594 0.1715
-0.0756 -0.508 -0.01697 0.09406 -0.1924 -0.1426 -0.309 -0.14
-0.02658 -0.0153 0.1051 -0.1349 0.094 -0.4 -0.1718 0.1593
-0.1819 -0.2559 0.0305 -0.1865 0.2654 -0.0583 -0.07056 -0.2573
-0.1715 -0.3472 -0.3525 -0.1031 0.105 0.004173 -0.1273 -0.389
0.1279 -0.4265 -0.04193 -0.0442 0.2416 -0.1207 -0.1248 -0.2837
-0.2384 -0.0304 -0.1752 -0.007866 -0.1283 0.0667 -0.10645 -0.1871
-0.1231 0.0919 -0.2233 0.4402 -0.2424 -0.1458 -0.03146 -0.06665
-0.02432 -0.406 -0.2279 -0.11505 -0.092 0.0912 0.0669 -0.02191
0.01265 -0.3113 0.06018 -0.01857 -0.01214 -0.0133 0.239 -0.1337
0.003414 0.0635 -0.0745 0.0865 0.1002 -0.03235 0.04605 -0.265
00000000: 292e 7eab fb32 a3a2 1628 e52c e4a9 f938
00000010: d89f b422 4437 61a1 2a32 95ac d1b1 bba1
00000020: f929 cb32 1bb2 b321 3eae 24b2 929e 8526
00000030: 762b 4ba9 eba8 9eaa 1a2f 4eaa a5b0 6ba8
00000040: 0216 b52c 302e eeb2 e1ac 17ad 4ba9 81a8
00000050: 2bac 2dae c2a9 9d2f 3d25 d4b1 29ab 7d31
00000060: d7ac 10b8 58a4 052e 28b2 90b0 f2b4 7bb0
00000070: cea6 d5a3 ba2e 51b0 042e 66b6 7fb1 1931
00000080: d2b1 18b4 cf27 f8b1 3f34 76ab 84ac 1eb4
00000090: 7db1 8eb5 a4b5 99ae b82e 461c 13b0 39b6
000000a0: 1830 d3b6 5ea9 a8a9 bb33 baaf fdaf 8ab4
000000b0: a1b3 c8a7 9bb1 07a0 1bb0 452c d0ae fdb1
000000c0: e1af e22d 25b3 0b37 c2b3 aab0 07a8 44ac
000000d0: 3aa6 7fb6 4bb3 5daf e3ad d62d 482c 9ca5
000000e0: 7a22 fbb4 b42b c1a4 37a2 cfa2 a633 47b0
000000f0: fe1a 102c c5ac 892d 6a2e 24a8 e529 3db4

model/conv2d/Conv2D f2 [32, 3, 3, 1]
-0.734 -0.8125 0.3423 -1.382 -0.2239 0.75 0.07367 0.795
0.8945 -0.01839 0.4404 0.5454 0.1469 0.6475 -0.4683 0.7134
0.833 -0.2235 0.3423 0.803 0.4597 0.7246 0.3804 -0.5156
-0.1487 -0.853 -1.239 -0.2646 0.1333 0.0987 -0.7764 0.0737
0.7 -0.5293 -0.02234 0.5483 -0.05643 -0.3298 -1.073 0.3875
0.5977 -0.33 -0.09656 0.724 0.3936 0.4546 0.07214 -0.1451
0.5117 -0.1748 -0.569 0.7534 -0.0815 -0.6753 0.288 0.58
-0.02872 0.531 0.2937 -0.742 0.4348 -0.03174 -0.6187 0.341
0.3647 0.496 0.01212 0.484 0.6797 -0.6816 -1.003 -0.5786
0.0784 0.1487 -0.02711 0.12354 0.5176 0.3376 -0.2898 0.1906
0.10803 -0.0446 0.1337 0.2299 -0.0963 0.191 0.3293 -0.01778
-0.1965 0.0425 0.1498 -0.4204 -0.9155 0.535 0.1295 -0.6396
0.588 0.5566 -0.02773 -0.1686 0.2009 0.113 0.1892 0.4385
-0.0003433 0.3777 -0.09314 -0.624 -0.14 -0.007717 0.5703 -0.5557
-0.2465 0.5005 -0.487 0.273 0.6685 -0.2003 0.0969 0.652
-1.246 -0.0341 1.207 -1.471 -0.09393 1.486 -0.6655 -1.041
-0.3362 -0.678 -0.2979 0.6855 0.2043 0.949 1.128 -0.3813
-0.178 0.578 -0.3718 0.3328 0.1212 0.523 0.01724 -0.4888
-0.2272 0.592 0.635 -0.1704 0.432 0.608 -0.4966 -0.2017
0.3525 -0.01913 -0.534 0.1383 -0.355 0.04077 0.5786 0.3804
0.5913 0.5723 -0.812 -0.2103 0.966 -0.4153 -0.2465 0.6675
-0.02519 -0.1528 0.246 0.3655 0.5723 0.6655 -0.2323 0.07275
0.4075 -0.595 -0.8228 -0.4812 -0.0472 -0.04044 0.5635 -0.4087
-0.3745 0.4736 -0.5923 -0.3005 0.738 0.1412 0.4822 0.4546
0.096 0.4363 0.1103 0.2502 0.55 0.389 -0.518 -0.8267
0.2773 -1.072 -0.237 1.017 0.1533 0.6514 1.084 -0.3657
0.04324 0.8213 -1.175 0.07776 1.206 -0.7983 -0.3965 0.813
-0.8647 -0.00866 0.5576 -0.266 0.644 0.2542 0.455 0.2001
-0.738 -0.3352 -0.364 0.6963 -0.3682 0.1572 0.3557 0.1864
0.3054 -0.3818 0.2585 0.2788 0.4365 0.00336 0.3152 0.4336
-0.0831 -0.1302 0.418 -0.02864 -0.3447 -0.5005 0.4006 -0.1572
-1.129 0.794 0.88 0.1098 -0.1381 -0.3845 0.5034 -0.1974
00000000: dfb9 80ba 7a35 87bd 2ab3 003a b72c 5c3a
00000010: 283b b5a4 0c37 5d38 b330 2e39 7eb7 b539
00000020: aa3a 27b3 7a35 6d3a 5b37 cc39 1636 20b8
00000030: c2b0 d3ba f5bc 3cb4 4430 512e 36ba b82c
00000040: 9a39 3cb8 b8a5 6338 39ab 47b5 4bbc 3336
00000050: c838 48b5 2eae cb39 4c36 4637 9e2c a5b0
00000060: 1838 98b1 8db8 073a 37ad 67b9 9c34 a438
00000070: 5aa7 3f38 b334 f0b9 f536 10a8 f3b8 7535
00000080: d635 f037 3522 be37 7039 74b9 03bc a1b8
00000090: 052d c230 f1a6 e82f 2438 6735 a3b4 1932
000000a0: ea2e b5a9 4730 5b33 2aae 1d32 4535 8da4
000000b0: 4ab2 7129 cb30 bab6 53bb 4838 2530 1eb9
000000c0: b438 7438 19a7 65b1 6e32 3b2f 0e32 0437
000000d0: a08d 0b36 f6ad feb8 7bb0 e79f 9038 72b8
000000e0: e3b3 0138 cbb7 5e34 5939 69b2 342e 3739
000000f0: fcbc 5da8 d43c e2bd 03ae f23d 53b9 2abc
00000100: 61b5 6db9 c4b4 7c39 8a32 983b 833c 1ab6
00000110: b2b1 a038 f3b5 5335 c22f 2f38 6a24 d2b7
00000120: 45b3 bc38 1439 74b1 e936 dd38 f2b7 74b2
00000130: a435 e6a4 46b8 6d30 aeb5 3829 a138 1636
00000140: bb38 9438 7fba bbb2 ba3b a5b6 e3b3 5739
00000150: 73a6 e4b0 df33 d935 9438 5339 6fb3 a82c
00000160: 8536 c3b8 95ba b3b7 0baa 2da9 8238 8ab6
00000170: feb5 9437 bdb8 cfb4 e739 8530 b737 4637
00000180: 252e fb36 0f2f 0134 6638 3936 25b8 9dba
00000190: 7034 4abc 96b3 113c e830 3639 563c dab5
000001a0: 8929 923a b3bc fa2c d33c 63ba 58b6 813a
000001b0: ebba 6fa0 7638 42b4 2739 1134 4837 6732
000001c0: e7b9 5db5 d3b5 9239 e4b5 0831 b135 f731
000001d0: e334 1cb6 2334 7634 fc36 e21a 0b35 f036
000001e0: 52ad 2bb0 b036 55a7 84b5 01b8 6936 08b1
000001f0: 84bc 5a3a 0a3b 072f 6bb0 27b6 0738 51b2

model/conv2d_1/Conv2D f2 [64, 3, 3, 32]
0.2317 0.1454 -0.2365 0.2825 -0.2007 0.1665 0.1315 -0.4988
0.1653 -0.008026 -0.2139 0.09625 -0.03543 0.0868 0.07715 0.01087
-0.006386 0.004147 0.3618 -0.4978 0.4377 0.05835 0.1251 0.07513
0.0772 0.0772 0.1985 -0.63 0.0744 -0.08594 -0.3022 0.2338
0.1423 0.1044 0.06415 0.1847 -0.091 0.131 0.02858 -0.04318
0.02986 0.1735 -0.3865 0.10114 0.057 0.1808 0.08624 0.0951
0.1368 0.1196 0.27 -0.1041 -0.00405 0.09814 0.0801 0.2264
0.1537 0.1041 0.0086 -0.2615 0.07056 0.0162 -0.11304 0.2201
-0.2764 0.010666 0.05853 -0.3586 0.09875 0.5933 0.1519 0.1032
-0.08026 0.0584 0.375 0.1802 -0.09686 -0.1145 -0.3474 0.11194
0.07776 -0.11774 -0.3853 0.2449 -0.461 -0.0645 -0.1962 -0.1382
0.014336 -0.08813 -0.1045 0.68 -0.04156 -0.02136 0.2322 0.259
-0.0438 0.09375 0.00793 -0.03503 0.0884 0.0844 0.0334 0.03464
0.0712 0.1503 -0.0616 0.0681 0.0549 -0.1415 -0.1665 0.1963
0.05258 0.1532 0.1932 0.0851 -0.2368 -0.04144 0.0664 -0.03302
0.166 0.1155 -0.006115 0.0276 0.1296 0.0427 0.06537 0.01466
-0.1738 -0.133 0.0555 -0.2703 -0.09705 -0.1521 0.04123 0.4285
-0.09686 -0.010086 -0.1273 -0.00863 -0.02167 -0.0635 -0.3523 0.006805
-0.02316 -0.1296 -0.3071 0.3318 -0.1919 -0.1908 -0.0661 -0.2174
0.004948 -0.02364 -0.0087 -0.4329 0.05795 -0.03525 0.1366 -0.06235
-0.00419 -0.1586 -0.3877 0.1978 -0.1539 -0.4639 -0.2241 -0.1509
-0.04016 -0.09094 -0.2285 -0.10406 0.01187 0.02022 -0.02475 -0.13
-0.2156 0.008675 -0.00872 -0.1348 0.1455 -0.08984 0.0742 0.00868
-0.0742 -0.0501 -0.1151 -1.09 -0.1538 0.08466 -0.1736 -0.4436
-0.03455 -0.552 0.564 -0.2507 -0.374 -0.2842 -0.1046 0.814
-0.392 -0.2041 -0.2957 -0.02615 -0.0642 -0.2125 0.2039 -0.3386
-0.501 -0.007423 -0.604 0.685 -0.08246 -0.549 -0.10443 -0.2051
-0.47 -0.41 -0.2876 -0.316 -0.4045 -0.1192 0.6826 -0.05304
0.4932 -0.1621 -0.04034 0.011055 -0.291 -0.7334 -0.2136 -0.636
-0.4055 -0.05368 -0.6274 -0.0809 0.1595 0.1107 0.6064 0.1715
-0.3928 0.3254 -0.03625 -0.525 0.0937 -0.1112 0.2898 -0.05884
0.2229 0.2559 -0.2024 -1.083 0.2385 0.312 -0.1614 -0.2937
00000000: 6a33 a730 91b3 8534 6cb2 5431 3530 fbb7
00000010: 4a31 1ca0 d8b2 292e 89a8 8e2d f02c 9121
00000020: 8a9e 3f1c ca35 f7b7 0137 782b 0130 cf2c
00000030: f12c f12c 5a32 0ab9 c32c 80ad d6b4 7b33
00000040: 8e30 ae2e 1b2c e931 d3ad 3130 5127 87a9
00000050: a527 8d31 2fb6 792e 4c2b c931 852d 162e
00000060: 6130 a82f 5234 aaae 269c 482e 202d 3f33
00000070: eb30 aa2e 6720 2fb4 842c 2624 3caf 0b33
00000080: 6cb4 7621 7e2b bdb5 522e bf38 dc30 9b2e
00000090: 23ad 7a2b 0036 c431 33ae 54af 8fb5 2a2f
000000a0: fa2c 89af 2ab6 d633 60b7 21ac 47b2 6cb0
000000b0: 5723 a4ad b0ae 7139 52a9 78a5 6e33 2534
000000c0: 9ba9 002e 0f20 7ca8 a82d 672d 4628 6f28
000000d0: 8f2c cf30 e3ab 5c2c 072b 87b0 54b1 4832
000000e0: bb2a e730 2f32 722d 94b3 4ea9 402c 3aa8
000000f0: 5031 642f 439e 1127 2630 7729 2f2c 8223
00000100: 90b1 42b0 1b2b 53b4 36ae deb0 4729 db36
00000110: 33ae 2aa1 13b0 6ba0 8ca5 10ac a3b5 f81e
00000120: eea5 26b0 eab4 4f35 24b2 1bb2 3bac f5b2
00000130: 111d 0da6 74a0 edb6 6b2b 83a8 5f30 fbab
00000140: 4a9c 13b1 34b6 5432 edb0 6cb7 2cb3 d4b0
00000150: 24a9 d2ad 50b3 a9ae 1422 2d25 56a6 29b0
00000160: e6b2 7120 77a0 50b0 a830 c0ad c02c 7220
00000170: c0ac 6aaa 5eaf 5cbc ecb0 6b2d 8eb1 19b7
00000180: 6ca8 6ab8 8338 03b4 fcb5 8cb4 b2ae 833a
00000190: 46b6 88b2 bbb4 b2a6 1cac cdb2 8632 6bb5
000001a0: 02b8 9a9f d5b8 7b39 47ad 64b8 afae 90b2
000001b0: 85b7 8fb6 9ab4 0eb5 79b6 a1af 7639 caaa
000001c0: e437 30b1 2aa9 a921 a8b4 deb9 d6b2 17b9
000001d0: 7db6 dfaa 05b9 2dad 1b31 162f da38 7d31
000001e0: 49b6 3535 a4a8 33b8 ff2d 1eaf a334 88ab
000001f0: 2233 1834 7ab2 55bc a233 fe34 2ab1 b3b4

model/conv2d_2/Conv2D f2 [128, 3, 3, 64]
0.1526 0.1309 0.006516 0.04553 0.2898 0.01894 -0.1554 -0.03214
0.04935 -0.1364 -0.03857 0.1721 0.10443 -0.11725 -0.00377 0.2524
-0.03592 0.2866 0.0825 0.002943 0.0233 0.02448 0.05475 0.02367
0.05084 -0.09094 0.08374 0.05408 -0.0067 -0.1271 -0.2467 -0.04596
-0.08527 -0.00991 0.3054 -0.0322 0.05133 -0.3098 -0.0552 0.02849
-0.011024 -0.0957 0.2212 0.12476 -0.1838 -0.1251 -0.1344 -0.235
0.1814 0.1516 0.09607 0.0881 0.10846 -0.0685 -0.06683 -0.2119
-0.1979 0.1007 -0.1278 -0.00473 0.209 -0.3186 -0.03784 0.157
-0.09454 0.207 -0.1539 -0.01222 0.18 -0.1108 -0.3076 0.01339
-0.1875 -0.1519 -0.06223 0.0902 -0.2328 -0.1946 -0.00465 0.012535
0.05383 0.2216 0.0661 0.0953 -0.1848 -0.1349 0.05145 0.07965
-0.1635 0.2966 0.146 -0.2473 -0.1478 -0.1666 -0.10156 -0.0837
0.004074 -0.008545 0.3064 -0.01308 0.138 -0.0705 -0.0633 0.05927
0.03061 -0.1192 -0.0725 0.03833 -0.2646 0.01408 -0.05246 -0.2854
0.0432 2.456e-05 0.07587 0.0842 -0.0736 0.02039 -0.3164 -0.3347
-0.254 0.1142 -0.02946 0.01796 0.1741 -0.1241 -0.1929 0.2262
-0.1329 0.1652 -0.1715 0.0872 0.09546 -0.05515 0.00886 0.1273
0.10297 -0.02457 -0.1763 0.0316 0.0648 0.004524 0.0916 0.03014
0.02449 0.26 0.0953 0.0558 0.04736 -0.521 0.128 0.02757
-0.03653 0.1489 0.1084 0.113 0.267 -0.3481 0.010475 0.05597
-0.02829 0.4111 -0.2264 0.069 0.1003 -0.08374 0.1317 -0.03693
-0.05292 -0.0645 0.1715 -0.0372 -0.03065 0.1995 0.04166 -0.543
0.1067 0.1702 0.00304 -0.2612 0.006733 -0.07385 0.1998 -0.1992
-0.1511 0.06 -0.429 0.0679 0.1884 -0.0277 -0.753 0.3674
0.1497 0.001055 0.11084 0.1116 0.05627 -0.332 0.1508 -0.04703
-0.0732 0.01985 -0.2094 -0.04214 0.08044 -0.2292 0.0566 0.04752
0.0472 -0.4175 -0.1059 -0.0394 0.1613 0.145 0.312 0.004284
0.0438 -0.2307 -0.02477 0.3066 0.2354 -0.11163 0.2161 -0.4014
0.1212 0.07996 -0.2429 0.06604 -0.3628 0.05078 0.293 -0.11005
-0.3127 0.0634 0.01503 -0.2329 -0.3484 -0.164 0.144 0.2075
-0.1473 -0.1682 0.0739 0.1255 0.1216 0.04077 0.0633 -0.1855
0.0735 -0.5933 -0.0821 0.03677 -0.02316 0.261 -0.2025 -0.0647
00000000: e230 3030 ac1e d429 a334 d924 f9b0 1da8
00000010: 512a 5db0 f0a8 8231 af2e 81af b99b 0a34
00000020: 99a8 9634 482d 071a f725 4426 022b 0f26
00000030: 822a d2ad 5c2d ec2a dc9e 11b0 e5b3 e2a9
00000040: 75ad 13a1 e334 1fa8 922a f5b4 11ab 4b27
00000050: a5a1 20ae 1433 fc2f e2b1 01b0 4db0 85b3
00000060: ce31 da30 262e a32d f12e 62ac 47ac c8b2
00000070: 55b2 722e 17b0 d89c b032 19b5 d8a8 0631
00000080: 0dae a032 edb0 42a2 c331 17af ecb4 db22
00000090: 00b2 dcb0 f7ab c62d 73b3 3ab2 c39c 6b22
000000a0: e42a 1733 3b2c 192e eab1 51b0 962a 192d
000000b0: 3bb1 bf34 ac30 eab3 bbb0 55b1 80ae 5bad
000000c0: 2c1c 60a0 e734 b2a2 6a30 83ac 0dac 962b
000000d0: d627 a1af a4ac e828 3cb4 3523 b7aa 91b4
000000e0: 8829 9c01 db2c 642d b6ac 3825 10b5 5bb5
000000f0: 10b4 4f2f 8ba7 9924 9231 f1af 2cb2 3d33
00000100: 41b0 4931 7db1 952d 1c2e 0fab 8920 1330
00000110: 972e 4aa6 a4b1 0b28 262c a21c dd2d b727
00000120: 4526 2934 192e 242b 102a 2bb8 1930 0f27
00000130: ada8 c430 f02e 3b2f 4634 92b5 5d21 2a2b
00000140: 3ea7 9436 3fb3 6a2c 6b2e 5cad 3730 baa8
00000150: c6aa 21ac 7d31 c3a8 d9a7 6232 5529 58b8
00000160: d42e 7231 3a1a 2eb4 e51e baac 6532 60b2
00000170: d6b0 ae2b ddb6 582c 0732 17a7 06ba e135
00000180: ca30 5214 182f 242f 342b 50b5 d330 05aa
00000190: afac 1525 b3b2 65a9 262d 56b3 3f2b 152a
000001a0: 0b2a aeb6 c7ae 0ba9 2931 a430 fe34 631c
000001b0: 9b29 62b3 57a6 e834 8833 25af ea32 6cb6
000001c0: c22f 1e2d c6b3 3a2c ceb5 802a b034 0baf
000001d0: 01b5 0f2c b223 74b3 93b5 3fb1 9c30 a432
000001e0: b7b0 62b1 bb2c 0430 c82f 3829 0d2c f0b1
000001f0: b42c bfb8 41ad b528 eea5 2d34 7bb2 24ac

model/dense/BiasAdd/ReadVariableOp f2 [128]
-0.099 0.3909 0.0798 0.2078 -0.1028 -0.06143 0.1499 0.2029
0.4043 0.2252 0.2695 -0.03864 -0.02046 -0.03693 -0.05435 -0.03053
0.2747 0.2251 0.1746 -0.02316 -0.01585 0.000679 0.1753 0.1824
0.3591 -0.0949 0.3591 -0.0641 -0.05258 0.4226 -0.0469 -0.04828
0.266 0.0988 0.358 -0.03113 0.3855 -0.0652 0.2502 0.1381
0.4226 0.2642 0.1975 0.2505 -0.04404 0.0857 -0.00986 -0.05545
0.4846 0.2512 -0.0688 0.0865 0.3672 0.1631 -0.0649 0.3145
0.4026 0.1304 0.2194 -0.02927 -0.06726 -0.02972 0.2954 0.3347
0.143 -0.0529 -0.0429 -0.08856 0.2473 0.373 0.22 0.244
0.3118 -0.01035 0.3223 0.2605 0.32 0.1995 -0.1295 0.203
0.0946 0.382 0.0789 0.051 0.3318 0.247 0.2135 -0.04538
0.4004 0.1288 0.4658 0.3345 0.1895 0.2468 -0.07056 0.3079
0.1519 0.0867 0.2478 -0.03824 -0.00923 0.308 0.531 -0.05722
0.2268 0.157 0.2351 0.19 0.11505 0.349 0.2042 0.357
0.3137 -0.01869 0.2361 0.4165 0.2041 0.1298 0.1696 0.3777
0.2605 0.3384 0.1636 0.1552 -0.04465 -0.01485 0.37 -0.03757
00000000: 56ae 4136 1b2d a632 94ae ddab cc30 7e32
00000010: 7836 3533 5034 f2a8 3da5 baa8 f5aa d1a7
00000020: 6534 3433 9631 eea5 0fa4 9011 9c31 d631
00000030: bf35 13ae bf35 1aac bbaa c336 01aa 2eaa
00000040: 4234 532e ba35 f8a7 2b36 2cac 0134 6b30
00000050: c336 3a34 5232 0234 a3a9 7c2d 0ca1 19ab
00000060: c137 0534 67ac 892d e035 3831 27ac 0835
00000070: 7136 2c30 0533 7ea7 4eac 9ca7 ba34 5b35
00000080: 9330 c5aa 7ea9 abad ea33 f835 0a33 cf33
00000090: fd34 4da1 2835 2b34 1f35 6232 25b0 7f32
000000a0: 0e2e 1d36 0d2d 872a 4f35 e733 d532 cfa9
000000b0: 6836 1f30 7437 5a35 1032 e633 84ac ed34
000000c0: dc30 8c2d ee33 e5a8 baa0 ee34 3f38 53ab
000000d0: 4233 0631 8633 1432 5d2f 9635 8932 b635
000000e0: 0535 c9a4 8e33 aa36 8832 2730 6d31 0b36
000000f0: 2b34 6a35 3c31 f730 b7a9 9aa3 ec35 cfa8

model/dense_1/BiasAdd/ReadVariableOp f2 [25]
0.2025 0.00813 -0.00555 -0.02092 -0.004246 0.184 -0.1641 0.2612
-0.0547 -0.01619 -0.07556 -0.1576 -0.09766 -0.06775 -0.03134 0.02078
-0.11816 0.2042 0.0088 0.1744 -0.3916 -0.00967 0.1345 0.03046
0.03232
00000000: 7b32 2a20 af9d 5ba5 599c e331 40b1 2e34
00000010: 00ab 25a4 d6ac 0bb1 40ae 56ac 03a8 5225
00000020: 90af 8932 8120 9531 44b6 f3a0 4e30 cc27
00000030: 2328

model/dense/MatMul f2 [128, 128]
-0.1484 -0.03262 -0.11475 -0.03214 -0.0841 -0.03528 -0.06082 0.02382
0.1389 -0.02612 0.00327 0.0526 0.0628 -0.01102 -0.10657 -0.03986
-0.08417 -0.189 0.0711 0.1483 -0.0548 0.04413 0.1587 -0.003147
-0.08 0.1135 -0.1181 0.1356 -0.1371 -0.004425 -0.0692 0.07294
-0.05933 0.01973 -0.0753 -0.11926 -0.0852 -0.0873 -0.08606 0.004402
-0.2365 0.067 0.0758 -0.2002 -0.146 -0.11755 0.09326 -0.1064
0.0263 -0.108 -0.1356 -0.166 0.005096 0.04132 -0.1605 -0.1631
0.1439 0.05676 -0.04004 -0.1945 -0.01656 0.01892 -0.1199 -0.05762
-0.03928 -0.1476 0.04865 0.08154 -0.07715 -0.08215 -0.01619 -0.1693
0.005676 -0.10736 -0.01517 0.0304 0.01548 0.0876 -0.03308 0.004593
-0.1495 0.00969 -0.223 -0.04706 0.03488 0.0709 -0.0633 0.05338
0.0791 -0.0539 -0.1231 0.0697 -0.0775 -0.0499 -0.07416 -0.0009484
-0.06223 0.0426 0.0813 -0.05627 -0.1052 -0.05615 -0.01451 -0.04355
0.122 -0.13 0.1279 -0.0987 -0.0977 -0.0459 -0.1367 0.1026
0.0759 -0.063 -0.0803 0.06125 -0.1526 0.02869 -0.01334 -0.1849
0.04117 -0.1719 -0.199 0.02261 -0.05014 -0.02899 0.042 0.01765
-0.324 0.048 -0.2656 0.1315 -0.549 0.3276 0.3503 -0.2817
0.0742 0.2083 0.2112 -0.1353 0.3318 -0.1678 0.099 -0.1249
-0.1099 -0.01348 -0.03397 0.6016 -0.00785 -0.04855 -0.1794 -0.1917
-0.644 0.1038 0.07446 -0.05652 0.2333 0.4597 -0.01566 0.0705
-0.02917 -0.11584 -0.0444 0.1896 0.1544 -0.07574 0.2888 0.1135
0.2318 0.1958 0.1191 -0.01572 -0.5747 -0.09937 0.11597 -0.01752
-0.207 -0.01471 -0.2057 0.1416 0.1273 0.0935 -0.1675 -0.3674
0.002821 0.1726 0.1575 0.0869 0.3933 0.0511 -0.1353 -0.174
-0.1373 -0.2036 -0.02632 -0.05597 -0.12415 0.09424 0.666 0.10876
-0.3555 -0.1266 -0.0868 0.2015 0.149 0.5425 -0.02036 0.01633
0.228 -0.2576 0.01092 0.0763 -0.0879 -0.09863 0.03125 -0.1396
-0.147 0.03595 0.06696 -0.05545 -0.05997 -0.0841 0.2491 -0.09546
-0.1593 0.2113 0.09906 0.05798 0.1197 -0.2678 0.478 0.3457
0.2559 0.1991 0.2416 0.052 -0.1364 -0.03052 -0.223 -0.0734
0.1692 -0.2583 -0.2344 0.02652 -0.162 -0.2107 -0.1399 0.4656
-0.2068 0.209 -0.1989 -0.259 -0.02231 0.06064 0.05798 0.156
00000000: c0b0 2da8 58af 1da8 62ad 84a8 c9ab 1926
00000010: 7230 b0a6 b21a bc2a 052c a4a1 d2ae 1aa9
00000020: 63ad 0cb2 8d2c bf30 04ab a629 1431 729a
00000030: 1fad 442f 8faf 5730 63b0 889c 6eac ab2c
00000040: 98ab 0d25 d2ac a2af 74ad 96ad 82ad 821c
00000050: 91b3 4a2c da2c 68b2 acb0 86af f82d cfae
00000060: bc26 e9ae 57b0 50b1 381d 4a29 23b1 38b1
00000070: 9b30 442b 20a9 39b2 3da4 d824 acaf 60ab
00000080: 07a9 b9b0 3a2a 382d f0ac 42ad 25a4 6bb1
00000090: d01d dfae c4a3 c827 ed23 9b2d 3ca8 b41c
000000a0: c9b0 f620 23b3 06aa 7728 8a2c 0dac d52a
000000b0: 102d e6aa e1af 762c f6ac 63aa bfac c593
000000c0: f7ab 7429 342d 34ab bcae 30ab 6ea3 93a9
000000d0: cf2f 29b0 1830 51ae 41ae e0a9 60b0 912e
000000e0: dc2c 08ac 24ad d72b e2b0 5827 d5a2 ebb1
000000f0: 4529 80b1 5eb2 ca25 6baa 6ca7 6029 8524
00000100: 2fb5 252a 40b4 3530 64b8 3e35 9b35 82b4
00000110: c02c aa32 c232 54b0 4f35 5fb1 562e feaf
00000120: 09af e7a2 59a8 d038 05a0 37aa beb1 22b2
00000130: 27b9 a52e c42c 3cab 7733 5b37 02a4 832c
00000140: 78a7 6aaf afa9 1132 f130 d9ac 9f34 442f
00000150: 6b33 4432 9f2f 06a4 99b8 5cae 6c2f 7ca4
00000160: a0b2 88a3 95b2 8830 1330 fc2d 5cb1 e1b5
00000170: c719 8631 0a31 902d 4b36 8a2a 54b0 91b1
00000180: 65b0 84b2 bda6 2aab f2af 082e 5439 f62e
00000190: b0b5 0db0 8ead 7332 c530 5738 36a5 2e24
000001a0: 4c33 1fb4 9721 e22c a0ad 50ae 0028 78b0
000001b0: b4b0 9a28 492c 19ab adab 62ad f933 1cae
000001c0: 19b1 c332 572e 6c2b a92f 49b4 a637 8835
000001d0: 1834 5f32 bb33 a82a 5db0 d0a7 23b3 b3ac
000001e0: 6a31 22b4 80b3 ca26 2fb1 beb2 7ab0 7337
000001f0: 9eb2 b032 5db2 25b4 b6a5 c32b 6c2b fe30

model/dense_1/MatMul f2 [25, 128]
-0.0886 0.1731 -0.136 0.03925 0.02002 0.002651 -0.5103 -0.3306
-0.1324 -0.9233 -0.3389 -0.2812 0.0392 0.011406 -0.1948 -0.1653
-0.04172 0.1896 -0.04745 0.06244 -0.1663 -0.8057 -0.0708 -0.636
0.4343 0.02396 0.0724 -0.1667 -0.229 0.3696 -0.0378 -0.1342
0.0931 -0.3555 0.2097 0.10925 0.02293 0.02896 0.2986 -0.764
0.3284 -0.2079 0.1484 -0.3618 0.04413 0.0725 -0.0886 -0.0839
-0.679 0.002493 -0.05197 0.2319 -0.046 -0.3499 -0.1504 0.02373
-0.1732 0.3745 0.1129 0.06033 0.0698 0.1675 -0.4075 -0.0478
-0.0372 -0.03806 0.107 -0.02634 -0.652 -0.408 -0.1323 -0.6685
-0.1157 -0.0932 0.01692 -0.4177 -0.515 0.254 -0.9634 0.3503
-0.4568 -0.1993 -0.296 0.1343 0.2257 0.03003 -0.1627 0.04868
-0.02051 -0.2163 -0.05103 -0.1267 0.2355 0.1571 -0.04245 -0.4216
-0.5977 0.1467 0.2272 0.0866 0.1492 -0.0702 0.2402 -0.06934
-0.108 -0.0869 0.302 0.09406 -0.1139 -0.503 0.2793 -0.2046
-0.1969 0.07 -0.761 0.1238 -0.4617 0.1051 0.0704 0.2087
0.0936 0.2288 -0.3438 0.2786 -0.591 0.0756 0.3613 0.0906
-0.215 -0.1442 0.0746 0.1726 -0.10565 0.081 0.228 -0.2856
0.2568 0.02956 -0.506 -0.2001 0.02565 0.1033 -0.010254 -0.0879
-0.7573 -0.49 0.02658 -0.1467 0.02205 -0.628 0.2673 0.02559
0.2394 0.05685 -1.196 0.08344 -0.1095 -0.253 -0.0895 -0.0834
-0.8774 0.3318 -0.749 -0.0673 0.3213 0.0955 0.3655 0.2297
0.1746 0.5137 -0.2489 -1.473 0.04285 0.4763 -0.07214 0.1087
0.0754 0.0654 -0.02274 -0.6885 -1.159 0.09766 -0.02594 0.2358
-1.46 0.259 0.2627 -0.0731 0.04306 -0.007633 0.2048 -0.9854
0.1733 -0.1339 0.0772 0.1003 -0.106 -0.4985 -0.6377 -0.314
0.3945 0.06107 0.6846 -0.3247 -0.2832 -0.8867 0.3958 -0.05313
0.0765 0.3298 0.1633 -0.5205 -0.3901 0.09467 -0.0586 0.08905
-0.3018 0.02728 0.03665 -0.4792 -0.2668 -0.10175 -0.176 0.004795
0.1063 0.3164 -0.6426 0.01313 -0.10736 0.0917 0.0902 -0.1582
0.01663 0.03735 -0.2053 0.1092 0.2422 -0.0656 0.00687 -0.334
-0.657 0.03876 0.285 0.01643 -0.09674 -0.2343 0.06036 0.04614
0.328 0.1664 -0.2312 0.22 0.3103 -0.1393 -0.3662 0.0823
00000000: acad 8a31 5ab0 0629 2025 6e19 15b8 4ab5
00000010: 3db0 63bb 6cb5 80b4 0529 d721 3cb2 4ab1
00000020: 57a9 1132 13aa fe2b 52b1 72ba 88ac 17b9
00000030: f336 2226 a22c 56b1 54b3 ea35 d7a8 4bb0
00000040: f52d b0b5 b632 fe2e df25 6a27 c734 1dba
00000050: 4135 a7b2 c030 cab5 a629 a42c acad 5fad
00000060: 6fb9 1b19 a7aa 6c33 e3a9 99b5 d0b0 1326
00000070: 8bb1 fe35 3a2f b92b 782c 5c31 85b6 1eaa
00000080: c3a8 dfa8 d92e bea6 37b9 87b6 3cb0 59b9
00000090: 68af f7ad 5524 afb6 1fb8 1034 b5bb 9b35
000000a0: 4fb7 61b2 bcb4 4c30 3933 b027 35b1 3b2a
000000b0: 40a5 ecb2 88aa 0eb0 8933 0731 6fa9 bfb6
000000c0: c8b8 b230 4533 8b2d c630 7eac b033 70ac
000000d0: e9ae 90ad d534 052e 4aaf 06b8 7834 8cb2
000000e0: 4db2 7b2c 17ba ec2f 63b7 ba2e 812c ae32
000000f0: fe2d 5233 80b5 7534 bab8 d72c c835 cc2d
00000100: e1b2 9db0 c62c 8631 c3ae 2f2d 4c33 92b4
00000110: 1c34 9127 0cb8 67b2 9126 9c2e 40a1 a0ad
00000120: 0fba d7b7 ce26 b2b0 a525 06b9 4734 8d26
00000130: a933 472b c9bc 572d 02af 0cb4 baad 56ad
00000140: 05bb 4f35 feb9 4fac 2435 1d2e d935 5a33
00000150: 9631 1c38 f7b3 e4bd 7c29 9f37 9eac f52e
00000160: d32c 302c d2a5 82b9 a3bc 402e a4a6 8c33
00000170: d7bd 2534 3434 aeac 8329 d19f 8e32 e2bb
00000180: 8c31 49b0 f12c 6b2e c9ae fab7 1ab9 06b5
00000190: 5036 d12b 7a39 32b5 88b4 18bb 5536 cdaa
000001a0: e52c 4735 3a31 2ab8 3eb6 0f2e 80ab b32d
000001b0: d4b4 fc26 b128 abb7 45b4 83ae a2b1 e91c
000001c0: ce2e 1035 24b9 b922 dfae de2d c62d 10b1
000001d0: 4224 c828 92b2 fd2e c033 33ac 091f 58b5
000001e0: 42b9 f628 8f34 3524 31ae 7fb3 ba2b e829
000001f0: 3f35 5331 66b3 0a33 f734 75b0 dcb5 442d
