models/tab_digit_cnn.tflite (tflite, 229948 bytes, 10 tensors)

model/conv2d/BiasAdd/ReadVariableOp f2 [32]
0	0x1d0c	0.00493
1	0xb15f	-0.1678
2	0x3369	0.2316
3	0x2b07	0.0549
4	0x31b9	0.1788
5	0x1df2	0.005806
6	0x1fb9	0.00754
7	0x2e9b	0.1032
8	0xb97d	-0.686
9	0xbca0	-1.156
10	0x270c	0.02753
11	0xb4e9	-0.307
12	0xb528	-0.3223
13	0xaf81	-0.11725
14	0x1c05	0.003925
15	0xb8df	-0.609
16	0xb2ea	-0.2161
17	0x23d1	0.01527
18	0x26a7	0.02599
19	0x2615	0.02376
20	0x202c	0.00815
21	0xb8b7	-0.5894
22	0xbab8	-0.84
23	0x1de1	0.00574
24	0x39f7	0.7456
25	0xba0a	-0.755
26	0xba52	-0.79
27	0x3054	0.1353
28	0xbbef	-0.9917
29	0xb93e	-0.6553
30	0x348c	0.2842
31	0x2086	0.008835

model/conv2d_1/BiasAdd/ReadVariableOp f2 [64]
0	0x2f8a	0.1178
1	0xb0b2	-0.1467
2	0x3428	0.2598
3	0xb0f0	-0.1543
4	0x2d08	0.0786
5	0x2f6a	0.11584
6	0xb09d	-0.1442
7	0xa561	-0.02101
8	0xa573	-0.02129
9	0x2b13	0.05527
10	0xa7c7	-0.03038
11	0x28e2	0.03815
12	0xb4ba	-0.2954
13	0xa51d	-0.01997
14	0x14a9	0.001138
15	0xadb1	-0.0889
16	0xa6d6	-0.0267
17	0x351a	0.3188
18	0x2ed4	0.1067
19	0xac94	-0.07153
20	0xae47	-0.0981
21	0x25ac	0.02216
22	0x28cd	0.0375
23	0xaa03	-0.04697
24	0xb1a6	-0.1765
25	0x1cfb	0.004864
26	0x344b	0.2683
27	0x334b	0.2279
28	0x3313	0.2211
29	0xb15a	-0.1672
30	0x9432	-0.001024
31	0x2e88	0.10205
32	0xa19f	-0.01098
33	0xa3de	-0.015366
34	0x2444	0.01666
35	0x356d	0.339
36	0x2aa7	0.05197
37	0x2d72	0.0851
38	0xb0a0	-0.1445
39	0x373c	0.4521
40	0xae5a	-0.09924
41	0x20d6	0.009445
42	0x28e3	0.03818
43	0x2848	0.03345
44	0x25f8	0.02332
45	0xb440	-0.2656
46	0xafbb	-0.1208
47	0xaf82	-0.1173
48	0xaf96	-0.1185
49	0xb0ce	-0.1501
50	0x260e	0.02365
51	0xae47	-0.0981
52	0xb28b	-0.2045
53	0xab73	-0.0582
54	0xb4b3	-0.2937
55	0x2c67	0.0688
56	0xaf32	-0.1124
57	0xa60d	-0.02364
58	0x3433	0.2625
59	0x2f0e	0.1102
60	0x2fc9	0.12164
61	0xac8c	-0.07104
62	0x320d	0.1891
63	0xa549	-0.02065

model/conv2d_2/BiasAdd/ReadVariableOp f2 [128]
0	0xa3d6	-0.015305
1	0x3474	0.2783
2	0x34e7	0.3064
3	0x2d9e	0.08777
4	0x2c6f	0.0693
5	0xa8da	-0.0379
6	0x9341	-0.0008855
7	0x3365	0.2311
8	0xa088	-0.00885
9	0x2605	0.02351
10	0x31b3	0.1781
11	0xa52b	-0.02019
12	0xaef1	-0.10846
13	0xac51	-0.06744
14	0xb0e4	-0.1528
15	0xa906	-0.03925
16	0x2217	0.011894
17	0xa702	-0.02737
18	0xad5d	-0.0838
19	0xa705	-0.02742
20	0x2bc2	0.0606
21	0x9be9	-0.003862
22	0xa8b4	-0.03674
23	0xaf4b	-0.11395
24	0xae3b	-0.09735
25	0xacd5	-0.0755
26	0x264a	0.02457
27	0x1ba7	0.003736
28	0x2bb1	0.0601
29	0xa608	-0.02356
30	0xac16	-0.06384
31	0x24fe	0.0195
32	0xa0ce	-0.009384
33	0x991e	-0.002499
34	0x9de5	-0.005756
35	0xacbf	-0.07416
36	0xafde	-0.1229
37	0xa283	-0.01272
38	0x96ba	-0.001642
39	0xafcf	-0.122
40	0xac31	-0.0655
41	0x2c71	0.0694
42	0xa7ee	-0.03098
43	0xa9d7	-0.04562
44	0xa55b	-0.02092
45	0xb070	-0.1387
46	0x264a	0.02457
47	0x240c	0.01581
48	0xacb8	-0.0737
49	0xa85f	-0.03415
50	0x2b62	0.05768
51	0xa99f	-0.0439
52	0xb19c	-0.1753
53	0xa427	-0.01622
54	0xa307	-0.013725
55	0xb48d	-0.2844
56	0x2b77	0.05832
57	0xb49b	-0.2878
58	0x30a7	0.1454
59	0xb2f0	-0.2168
60	0xb46b	-0.2761
61	0xaac7	-0.05295
62	0xb222	-0.1917
63	0x27c2	0.0303
64	0x9693	-0.001605
65	0x26a0	0.02588
66	0xabf7	-0.06223
67	0xa8bf	-0.03708
68	0x2edd	0.10724
69	0x2d45	0.08234
70	0xb4ac	-0.292
71	0xb1ec	-0.185
72	0xb35b	-0.2299
73	0xad56	-0.0834
74	0x3165	0.1686
75	0xb3e0	-0.2461
76	0x2bde	0.06146
77	0xaabc	-0.0526
78	0x29fa	0.0467
79	0xb014	-0.1274
80	0xab35	-0.0563
81	0xb485	-0.2825
82	0xb0e0	-0.1523
83	0xaa1c	-0.04773
84	0xb04a	-0.134
85	0x9fab	-0.00749
86	0xa901	-0.0391
87	0x26a3	0.02592
88	0xae32	-0.0968
89	0xa00b	-0.0079
90	0xa6f0	-0.0271
91	0x2d2b	0.08075
92	0xaf8e	-0.11804
93	0xab57	-0.05734
94	0xb113	-0.1586
95	0xaf93	-0.11835
96	0xa7de	-0.03073
97	0xae1d	-0.0955
98	0xac4f	-0.0673
99	0x2def	0.0927
100	0xa67c	-0.02533
101	0xa4d7	-0.0189
102	0xa463	-0.01714
103	0xb111	-0.1583
104	0x9f87	-0.00735
105	0x2912	0.0396
106	0x2d5a	0.0836
107	0x1d13	0.004955
108	0x2b6b	0.05795
109	0xa364	-0.014435
110	0xabc4	-0.06067
111	0xae90	-0.10254
112	0xb07d	-0.1403
113	0xafd4	-0.1223
114	0xaafb	-0.05453
115	0xacb6	-0.0736
116	0xa69f	-0.02586
117	0xa706	-0.02744
118	0x2b78	0.05835
119	0xa6af	-0.02611
120	0x30a6	0.1453
121	0xabfc	-0.06238
122	0x2ba2	0.05963
123	0x3009	0.1261
124	0x293b	0.04086
125	0xa948	-0.04126
126	0xa59e	-0.02194
127	0xa8d7	-0.0378

model/conv2d/Conv2D f2 [32, 3, 3, 1]
0	0xb4ce	-0.3003
1	0xb8a0	-0.578
2	0x3554	0.333
3	0xb905	-0.6274
4	0xb222	-0.1917
5	0x38bf	0.5933
6	0xb316	-0.2214
7	0x3554	0.333
8	0x39f9	0.7466
9	0xb2c5	-0.2115
10	0xb452	-0.27
11	0x3308	0.2197
12	0x31fa	0.1868
13	0x3742	0.4536
14	0x20fe	0.00975
15	0x3655	0.3958
16	0x32a5	0.2076
17	0xb144	-0.1646
18	0x34d5	0.302
19	0x393c	0.6543
20	0x34a1	0.2893
21	0x3583	0.3445
22	0x324c	0.1968
23	0xb29b	-0.2064
24	0xaea4	-0.10376
25	0xb9df	-0.734
26	0xbc00	-1.0
27	0xb5ad	-0.3547
28	0x2f5e	0.1151
29	0x3406	0.2515
30	0xb983	-0.689
31	0x1ce7	0.004787
32	0x3949	0.6606
33	0xb6aa	-0.4165
34	0xb03f	-0.1327
35	0x3818	0.5117
36	0x3051	0.1349
37	0xaed2	-0.10657
38	0xbace	-0.8506
39	0x365b	0.3972
40	0x3648	0.3926
41	0xb691	-0.4104
42	0x3267	0.2001
43	0x368f	0.41
44	0xb4ca	-0.2993
45	0x383e	0.5303
46	0x2d20	0.0801
47	0xb506	-0.314
48	0x3615	0.3801
49	0xad7f	-0.0859
50	0xb4d1	-0.301
51	0x39fb	0.7476
52	0xadff	-0.0937
53	0xba7d	-0.811
54	0x3699	0.4124
55	0x35ae	0.355
56	0xb4c8	-0.2988
57	0x38be	0.593
58	0x2ac4	0.05286
59	0xbb3f	-0.906
60	0x3837	0.527
61	0xa820	-0.03223
62	0xb6fb	-0.4363
63	0x35d8	0.3652
64	0x34ef	0.3083
65	0x3485	0.2825
66	0x30a7	0.1454
67	0x3673	0.403
68	0x31b1	0.1779
69	0xb91b	-0.638
70	0xb939	-0.653
71	0xb6bc	-0.421
72	0x2d39	0.0816
73	0x2d6c	0.0847
74	0xb041	-0.1329
75	0x324e	0.197
76	0x390b	0.6304
77	0x3445	0.2668
78	0xb4d5	-0.302
79	0x2f91	0.1182
80	0x9cb4	-0.004593
81	0x369a	0.4126
82	0x3884	0.5645
83	0x3852	0.54
84	0x35e9	0.3694
85	0x39ca	0.7236
86	0x38f4	0.619
87	0xb7e4	-0.4932
88	0xb425	-0.259
89	0xb343	-0.2269
90	0x3394	0.2368
91	0xb5fc	-0.374
92	0xbbd9	-0.981
93	0x33ad	0.2399
94	0xa204	-0.01175
95	0xb615	-0.3801
96	0x39c0	0.7188
97	0x38b2	0.587
98	0xaa2f	-0.0483
99	0x37b3	0.4812
100	0x383e	0.5303
101	0x2c34	0.0657
102	0x38eb	0.6147
103	0x38d8	0.6055
104	0x290a	0.03937
105	0x35f8	0.373
106	0xb4c4	-0.2979
107	0xbbe2	-0.9854
108	0xb580	-0.3438
109	0x30e0	0.1523
110	0x3ab8	0.84
111	0xb5d8	-0.3652
112	0x2c85	0.0706
113	0x3bdb	0.982
114	0xb849	-0.5356
115	0x327d	0.2028
116	0x3bed	0.9907
117	0xad78	-0.08545
118	0x2f3f	0.1132
119	0x3851	0.5396
120	0xbb4e	-0.913
121	0x323d	0.195
122	0x3c7b	1.12
123	0xbabc	-0.842
124	0xa9e3	-0.046
125	0x3c50	1.078
126	0xb92d	-0.647
127	0xbbce	-0.9756
128	0xb30c	-0.2202
129	0xaa77	-0.0505
130	0xaa23	-0.04794
131	0x3899	0.5747
132	0xaa48	-0.04907
133	0x38be	0.593
134	0x3a7a	0.8096
135	0xb6ee	-0.433
136	0xb69a	-0.4126
137	0xb1f1	-0.1857
138	0x2f05	0.1097
139	0x390e	0.632
140	0x33ea	0.2473
141	0x3999	0.6997
142	0x36fd	0.4368
143	0xb219	-0.1906
144	0xaf6b	-0.1159
145	0x3805	0.5024
146	0x38dd	0.608
147	0xa3ab	-0.01498
148	0x36ec	0.4326
149	0x3961	0.6724
150	0xbcb1	-1.173
151	0xb9e7	-0.738
152	0x3294	0.2056
153	0xb26e	-0.2009
154	0xb9e7	-0.738
155	0xac41	-0.06647
156	0xb1bc	-0.1792
157	0x2f65	0.11554
158	0x39b8	0.715
159	0x3622	0.3833
160	0x3255	0.1979
161	0x3402	0.2505
162	0xb973	-0.681
163	0xb2ac	-0.2085
164	0x3aff	0.8745
165	0xb34b	-0.2279
166	0xb3ec	-0.2476
167	0x3752	0.4575
168	0xb0ed	-0.1539
169	0xaf55	-0.11456
170	0x34a3	0.2898
171	0x351c	0.3193
172	0x3858	0.543
173	0x3822	0.5166
174	0xb1c6	-0.1804
175	0x2f86	0.11755
176	0x310c	0.1577
177	0xb983	-0.689
178	0xb876	-0.5576
179	0xb410	-0.254
180	0xb385	-0.235
181	0xaca3	-0.07245
182	0x3889	0.567
183	0xb20f	-0.1893
184	0xb43f	-0.2654
185	0x34bf	0.2966
186	0xb805	-0.5024
187	0xb209	-0.1886
188	0x397a	0.6846
189	0xb0f6	-0.155
190	0x2d33	0.08124
191	0x29db	0.04575
192	0x32cf	0.2128
193	0x38eb	0.6147
194	0x2d63	0.08417
195	0x2f2d	0.1121
196	0x3831	0.524
197	0x34d5	0.302
198	0xbdf4	-1.488
199	0xb93d	-0.655
200	0x38d3	0.603
201	0xbb4a	-0.911
202	0x36f3	0.4343
203	0x3d1d	1.278
204	0x2811	0.03177
205	0x39b7	0.7144
206	0x3c9a	1.15
207	0xb4c5	-0.298
208	0xb408	-0.252
209	0x3980	0.6875
210	0xbba7	-0.9565
211	0xab21	-0.0557
212	0x3c70	1.109
213	0xb897	-0.5737
214	0xb578	-0.3418
215	0x3b4f	0.9136
216	0xb0c0	-0.1484
217	0xb660	-0.3984
218	0xb9a3	-0.7046
219	0x3810	0.508
220	0x3650	0.3945
221	0x3729	0.4475
222	0xb8ce	-0.6006
223	0xbc15	-1.0205
224	0xbd75	-1.364
225	0xbaa0	-0.828
226	0xb0fb	-0.1556
227	0x376f	0.4646
228	0xb420	-0.2578
229	0x3758	0.459
230	0x365f	0.3982
231	0x37b0	0.4805
232	0x39a3	0.7046
233	0x2c32	0.06555
234	0x3501	0.3127
235	0x34ec	0.3076
236	0x3834	0.5254
237	0x30c9	0.1495
238	0x38e7	0.613
239	0x3843	0.5327
240	0x2c96	0.07166
241	0xa915	-0.0397
242	0x3542	0.3286
243	0xb2a3	-0.2074
244	0xba27	-0.769
245	0xba5f	-0.7964
246	0xaee9	-0.108
247	0xb580	-0.3438
248	0xb583	-0.3445
249	0x39c3	0.72
250	0x3b45	0.9087
251	0x3a4c	0.787
252	0x2c4d	0.0672
253	0x3868	0.551
254	0x3a02	0.751
255	0xb7f6	-0.4976

model/conv2d_1/Conv2D f2 [64, 3, 3, 32]
0	0x2ee7	0.10785
1	0x3008	0.126
2	0xabb7	-0.06027
3	0x2895	0.0358
4	0xa913	-0.03964
5	0xae46	-0.098
6	0x2dba	0.0895
7	0xae66	-0.1
8	0x30b4	0.147
9	0x2f00	0.1094
10	0xad8d	-0.08673
11	0x3039	0.132
12	0x2636	0.02426
13	0x2fe5	0.12335
14	0xaa9d	-0.05167
15	0x2c85	0.0706
16	0xac8d	-0.0711
17	0x19c3	0.002813
18	0x30b0	0.1465
19	0xb03e	-0.1326
20	0x3024	0.1294
21	0x2c44	0.06665
22	0x3125	0.1608
23	0x2e80	0.10156
24	0xadf7	-0.0932
25	0x3097	0.1434
26	0x31af	0.1776
27	0xad8e	-0.0868
28	0x323d	0.195
29	0x2a38	0.04858
30	0x2f1d	0.11115
31	0x2e57	0.09906
32	0xb2d4	-0.2134
33	0x2f56	0.1146
34	0x30cf	0.1503
35	0xb85a	-0.544
36	0x2b09	0.05496
37	0x3076	0.1394
38	0x31f5	0.1862
39	0x2e03	0.09393
40	0x319e	0.1755
41	0x327f	0.203
42	0xaf56	-0.1146
43	0x30a2	0.1448
44	0xa4c5	-0.01863
45	0x2514	0.01984
46	0xb17e	-0.1716
47	0x29ec	0.04626
48	0xad47	-0.08246
49	0x22cc	0.013275
50	0xb94f	-0.6636
51	0xabfa	-0.06232
52	0xb90c	-0.631
53	0x324e	0.197
54	0xa085	-0.00883
55	0xb3ef	-0.2479
56	0xabe6	-0.0617
57	0x2b7d	0.0585
58	0x2e7c	0.1013
59	0xa724	-0.0279
60	0x2fc1	0.12115
61	0x3001	0.1251
62	0xa917	-0.03976
63	0x3388	0.2354
64	0xb392	-0.2366
65	0xb1c9	-0.1808
66	0x3013	0.1273
67	0xb4d7	-0.3025
68	0x3563	0.3367
69	0x3840	0.5312
70	0x3765	0.4622
71	0x2cc8	0.0747
72	0xb48f	-0.285
73	0xb1c9	-0.1808
74	0x35fd	0.3743
75	0x25c3	0.0225
76	0xb54a	-0.3306
77	0xb581	-0.344
78	0x2dd7	0.09125
79	0xb084	-0.1411
80	0xb823	-0.517
81	0xb0b5	-0.1471
82	0xb833	-0.525
83	0x2b98	0.05933
84	0xb64c	-0.3936
85	0xb1f7	-0.1864
86	0xb7cc	-0.4873
87	0xb64f	-0.3943
88	0x1ee7	0.00674
89	0xb7bb	-0.4832
90	0xb357	-0.2294
91	0x36d0	0.4258
92	0xb608	-0.377
93	0xa32a	-0.01399
94	0x2f02	0.1095
95	0x34f9	0.3108
96	0xae80	-0.10156
97	0x30ab	0.1459
98	0x298a	0.04327
99	0xb1b1	-0.1779
100	0x2beb	0.06186
101	0x2ae5	0.05386
102	0x2842	0.03326
103	0x2ab3	0.05234
104	0x313f	0.164
105	0x3003	0.1254
106	0xb1ca	-0.1809
107	0x2db1	0.0889
108	0x28d1	0.03763
109	0xab9c	-0.05945
110	0xb1c3	-0.18
111	0x3130	0.1621
112	0x324a	0.1965
113	0x264d	0.02461
114	0xb432	-0.2622
115	0x2e88	0.10205
116	0xb574	-0.3408
117	0x294f	0.04147
118	0x2609	0.02357
119	0xad1f	-0.08
120	0x2cd8	0.0757
121	0xa797	-0.02965
122	0x2c90	0.0713
123	0xab72	-0.05817
124	0x299d	0.04385
125	0xac7c	-0.07007
126	0x2d17	0.0795
127	0x2960	0.042
128	0xb238	-0.1943
129	0x9bcb	-0.003805
130	0x23bc	0.01511
131	0xb42d	-0.261
132	0x3054	0.1353
133	0xac8f	-0.0712
134	0x302f	0.1307
135	0x335e	0.2302
136	0x2888	0.0354
137	0x2058	0.008484
138	0x24fb	0.01945
139	0xab2d	-0.05606
140	0xad25	-0.0804
141	0xa7bf	-0.03026
142	0xb43b	-0.2644
143	0xaa68	-0.05005
144	0x8b78	-0.0002279
145	0xb1b8	-0.1787
146	0xb89f	-0.5776
147	0x31d8	0.1826
148	0xb1fe	-0.1873
149	0xa58f	-0.02171
150	0xb1af	-0.1776
151	0xb414	-0.255
152	0x3128	0.1611
153	0xaeca	-0.1061
154	0x2c80	0.0703
155	0xad55	-0.0833
156	0xac5a	-0.068
157	0x2a1d	0.04776
158	0x2f94	0.1184
159	0x287e	0.0351
160	0x32c6	0.2117
161	0x2848	0.03345
162	0xb4fe	-0.312
163	0x3603	0.3757
164	0x2b4b	0.05698
165	0xafe9	-0.1236
166	0xb286	-0.2039
167	0xb25f	-0.1991
168	0x2ca7	0.0727
169	0x27a3	0.02983
170	0xaa9f	-0.05173
171	0xaf7f	-0.1171
172	0x2fc1	0.12115
173	0x30e5	0.153
174	0x3171	0.17
175	0xa878	-0.0349
176	0xb6f1	-0.4338
177	0x3163	0.1683
178	0x3393	0.2367
179	0xae53	-0.0988
180	0x333c	0.2261
181	0x2c54	0.0676
182	0x2ee2	0.10754
183	0x33ae	0.24
184	0xb1e1	-0.1837
185	0x2d1a	0.0797
186	0x9d15	-0.004963
187	0x3314	0.2212
188	0xb425	-0.259
189	0x2fa4	0.1194
190	0x3019	0.128
191	0xb560	-0.336
192	0xa7f0	-0.031
193	0xb48b	-0.284
194	0x362f	0.3865
195	0x2f37	0.11273
196	0x2b30	0.05615
197	0xb039	-0.132
198	0xae59	-0.0992
199	0x37c2	0.4849
200	0xb4be	-0.2964
201	0xb416	-0.2554
202	0xb5d2	-0.3638
203	0xaef6	-0.10876
204	0xab22	-0.05573
205	0xb09c	-0.144
206	0xad2d	-0.0809
207	0xb43e	-0.2651
208	0x2bdb	0.06137
209	0xb053	-0.1351
210	0xac50	-0.0674
211	0x377e	0.4683
212	0x2d8d	0.08673
213	0xb489	-0.2834
214	0xaeb3	-0.1047
215	0x2aea	0.05402
216	0x33d7	0.245
217	0xb336	-0.2253
218	0xb0ce	-0.1501
219	0xa6cb	-0.02654
220	0xaf02	-0.1095
221	0xb4f8	-0.3105
222	0x364c	0.3936
223	0x276c	0.02899
224	0x319f	0.1757
225	0xac4d	-0.0672
226	0xad01	-0.0782
227	0x2fe3	0.1232
228	0xb3b6	-0.241
229	0xb8dd	-0.608
230	0xb738	-0.4512
231	0xb1bf	-0.1796
232	0xadf6	-0.09314
233	0x2bcf	0.061
234	0xb839	-0.528
235	0xad05	-0.0784
236	0x2d1f	0.08
237	0x30d3	0.1508
238	0x2eb0	0.1045
239	0x2d3c	0.0818
240	0xb64c	-0.3936
241	0x2ec5	0.1058
242	0x2f06	0.10974
243	0xb39e	-0.238
244	0x30d8	0.1514
245	0x243e	0.01657
246	0x27a9	0.02992
247	0x2f1e	0.1112
248	0xacff	-0.07806
249	0x320b	0.1888
250	0xa51d	-0.01997
251	0xa489	-0.01772
252	0x1c08	0.003937
253	0x2ccb	0.0749
254	0xa33c	-0.01413
255	0xb431	-0.262

model/conv2d_2/Conv2D f2 [128, 3, 3, 64]
0	0xb4cb	-0.2996
1	0xb444	-0.2666
2	0x310b	0.1576
3	0xb373	-0.2328
4	0xb2c8	-0.2119
5	0xb609	-0.3772
6	0xa864	-0.0343
7	0x2bd0	0.06104
8	0x338d	0.236
9	0xb484	-0.2822
10	0xb50c	-0.3154
11	0x1dd0	0.005676
12	0x3159	0.1671
13	0xa995	-0.0436
14	0xb482	-0.2817
15	0xb1cb	-0.181
16	0xa89e	-0.03607
17	0x2970	0.04248
18	0xad66	-0.08435
19	0x2f3d	0.1131
20	0x32e4	0.2153
21	0x2e9a	0.10315
22	0xb170	-0.1699
23	0xb015	-0.1276
24	0xa79e	-0.02975
25	0xb450	-0.2695
26	0x2f84	0.11743
27	0xb588	-0.3457
28	0x25e2	0.02298
29	0xb183	-0.1722
30	0xb6b8	-0.42
31	0x3094	0.1431
32	0xb6c6	-0.4233
33	0xb7a0	-0.4766
34	0xb091	-0.1427
35	0xaba8	-0.0598
36	0x1f66	0.007225
37	0xb77f	-0.4685
38	0xb790	-0.4727
39	0xaf93	-0.11835
40	0x3160	0.168
41	0xb7bd	-0.4836
42	0xb2e5	-0.2155
43	0x24eb	0.01921
44	0xb23d	-0.195
45	0xaf04	-0.1096
46	0x323d	0.195
47	0x2d40	0.08203
48	0xb656	-0.396
49	0x3172	0.1702
50	0x3063	0.1371
51	0xb197	-0.1747
52	0x2f6c	0.11597
53	0xaa5b	-0.04965
54	0x3447	0.2673
55	0x2ceb	0.07684
56	0xb1ca	-0.1809
57	0x311a	0.1594
58	0xb10f	-0.1581
59	0xabca	-0.06085
60	0xa998	-0.0437
61	0xb5bf	-0.3591
62	0xb365	-0.2311
63	0xa46e	-0.0173
64	0xb536	-0.3257
65	0xb7a9	-0.4788
66	0x2fb7	0.12054
67	0xb060	-0.1367
68	0x275d	0.02876
69	0xba08	-0.754
70	0xb57a	-0.3423
71	0xb4c7	-0.2986
72	0x35fe	0.3745
73	0xb729	-0.4475
74	0xb7af	-0.4802
75	0xb708	-0.4395
76	0xacf1	-0.0772
77	0x28c7	0.03732
78	0xb751	-0.4573
79	0x2365	0.01444
80	0x2b1f	0.05563
81	0x2880	0.03516
82	0x2ca9	0.0728
83	0x32a8	0.208
84	0xaa39	-0.0486
85	0x314c	0.1655
86	0xb624	-0.3838
87	0xa54a	-0.02066
88	0x2970	0.04248
89	0xb63f	-0.3904
90	0xa674	-0.0252
91	0x21c5	0.01127
92	0x16e3	0.001681
93	0x2d96	0.0873
94	0xaae9	-0.054
95	0x315e	0.1677
96	0xb553	-0.3328
97	0xb1b0	-0.1777
98	0xa3bd	-0.015114
99	0xadcb	-0.0905
100	0x1cb9	0.004612
101	0xb84c	-0.537
102	0xb632	-0.3872
103	0xad69	-0.08453
104	0x3316	0.2214
105	0xb23e	-0.1951
106	0xb2c8	-0.2119
107	0x2cd0	0.0752
108	0xb514	-0.3174
109	0xb459	-0.2717
110	0x2748	0.02844
111	0x32a7	0.2079
112	0xb21d	-0.191
113	0x3254	0.1978
114	0x32c9	0.212
115	0xb0ec	-0.1538
116	0xad1b	-0.0798
117	0x2cf9	0.0777
118	0xb067	-0.1376
119	0x34f3	0.3093
120	0x1416	0.000998
121	0x32ce	0.2126
122	0xaed0	-0.10645
123	0x27f0	0.031
124	0x2e42	0.0978
125	0xabc2	-0.0606
126	0xa9b4	-0.04456
127	0x30cd	0.15
128	0x3005	0.1256
129	0xba22	-0.7666
130	0xb560	-0.336
131	0x2077	0.00872
132	0xaf6d	-0.116
133	0xb9ac	-0.709
134	0xb8e6	-0.6123
135	0xb5eb	-0.3699
136	0x3265	0.1998
137	0xb8ad	-0.5845
138	0xb87b	-0.56
139	0xb505	-0.3137
140	0xac37	-0.06586
141	0xa44e	-0.01682
142	0xbc19	-1.024
143	0xa33d	-0.01414
144	0x27db	0.03069
145	0x32e4	0.2153
146	0x2847	0.03342
147	0x34d8	0.3027
148	0xae16	-0.0951
149	0x31dc	0.1831
150	0xbd7c	-1.371
151	0xb489	-0.2834
152	0x29b3	0.04453
153	0xb67e	-0.4058
154	0xb287	-0.204
155	0xb729	-0.4475
156	0xb0e1	-0.1525
157	0x3394	0.2368
158	0xb95a	-0.669
159	0x2eec	0.10815
160	0xb496	-0.2866
161	0xb011	-0.1271
162	0xb509	-0.3147
163	0xadb9	-0.0894
164	0x2fd8	0.12256
165	0xb594	-0.3486
166	0xba8c	-0.8184
167	0xb101	-0.1564
168	0x3477	0.279
169	0xb9d2	-0.7275
170	0x244b	0.01677
171	0xaf87	-0.1176
172	0xb346	-0.2273
173	0xb766	-0.4624
174	0xaf47	-0.1137
175	0x3488	0.2832
176	0xb571	-0.34
177	0x2dc1	0.0899
178	0x9c52	-0.00422
179	0xaec7	-0.1059
180	0xb49b	-0.2878
181	0xa9fa	-0.0467
182	0xb4bf	-0.2966
183	0x378a	0.4712
184	0x2636	0.02426
185	0x3560	0.336
186	0xa9d7	-0.04562
187	0x3447	0.2673
188	0xac63	-0.06854
189	0xabd2	-0.0611
190	0x35a7	0.3533
191	0x2414	0.01593
192	0xaf29	-0.1119
193	0x3040	0.1328
194	0x2ffe	0.1249
195	0x24df	0.01903
196	0x90f6	-0.0006056
197	0x2ff5	0.1243
198	0x34b9	0.2952
199	0x348a	0.2837
200	0xafcf	-0.122
201	0x2807	0.03146
202	0xa710	-0.02759
203	0x32a4	0.2075
204	0x3379	0.2335
205	0xa7d9	-0.03065
206	0xa932	-0.0406
207	0x2ac7	0.05295
208	0x28cd	0.0375
209	0x2c51	0.06744
210	0xac08	-0.063
211	0xa1e8	-0.011536
212	0x3598	0.3496
213	0xb2e9	-0.216
214	0xa2ce	-0.01329
215	0xb567	-0.3376
216	0xb4ab	-0.2917
217	0x2943	0.0411
218	0x34d0	0.3008
219	0x3497	0.2869
220	0x2926	0.04022
221	0xb43d	-0.265
222	0xae83	-0.10175
223	0x3355	0.2291
224	0xacad	-0.07306
225	0x2962	0.04205
226	0x2e9d	0.10333
227	0xb448	-0.2676
228	0x2c8b	0.071
229	0xada9	-0.08844
230	0x2adc	0.0536
231	0xb867	-0.5503
232	0xa361	-0.01441
233	0x326c	0.2007
234	0x33dd	0.2457
235	0xb405	-0.2512
236	0xac51	-0.06744
237	0x2189	0.01081
238	0x2e1f	0.09564
239	0xb483	-0.282
240	0xb588	-0.3457
241	0xb227	-0.1923
242	0xb284	-0.2036
243	0x31b9	0.1788
244	0x2c95	0.0716
245	0xb2d0	-0.2129
246	0x349f	0.2888
247	0xae4c	-0.0984
248	0xb111	-0.1583
249	0xafcc	-0.1218
250	0xaec8	-0.10596
251	0x2dfc	0.0935
252	0x2b3a	0.05646
253	0xaa8b	-0.05112
254	0x2cb8	0.0737
255	0xb05f	-0.1366

model/dense/BiasAdd/ReadVariableOp f2 [128]
0	0x3174	0.1704
1	0x2411	0.01588
2	0xa20e	-0.011826
3	0x3465	0.2747
4	0x338b	0.2357
5	0xab06	-0.05487
6	0x3099	0.1437
7	0xac50	-0.0674
8	0x346d	0.2766
9	0x379e	0.476
10	0x3451	0.2698
11	0x2cc7	0.07465
12	0xa4f4	-0.01935
13	0x2ea3	0.1037
14	0x2302	0.01369
15	0xaca4	-0.0725
16	0x2a5c	0.04968
17	0x2e4f	0.0986
18	0xaa54	-0.04944
19	0xa744	-0.02838
20	0x2d43	0.0822
21	0x2510	0.01978
22	0x25bc	0.0224
23	0xa7bc	-0.03021
24	0x313e	0.1638
25	0xa803	-0.03134
26	0x3506	0.314
27	0x2610	0.02368
28	0x2a62	0.04987
29	0x2ee3	0.1076
30	0xa1bd	-0.01121
31	0xa4f8	-0.01941
32	0x318b	0.1732
33	0x3077	0.1395
34	0x356d	0.339
35	0xa5f5	-0.02327
36	0x315c	0.1675
37	0x3875	0.557
38	0x3626	0.3843
39	0x32db	0.2142
40	0x34dc	0.3037
41	0x3239	0.1945
42	0xa16c	-0.01059
43	0x322e	0.1931
44	0xaa5f	-0.04977
45	0x31ce	0.1814
46	0x2f25	0.11163
47	0x33c3	0.2426
48	0x2d5b	0.0837
49	0x3166	0.1687
50	0x327d	0.2028
51	0x2e47	0.0981
52	0x31ad	0.1774
53	0x31df	0.1835
54	0xab9f	-0.05954
55	0x185d	0.00213
56	0x330c	0.2202
57	0xa8b0	-0.03662
58	0x3566	0.3374
59	0xac48	-0.0669
60	0x3328	0.2236
61	0x2bc7	0.06076
62	0x2c8b	0.071
63	0x34c4	0.2979
64	0x32dd	0.2145
65	0xa94c	-0.04138
66	0x3372	0.2327
67	0x2c4e	0.06726
68	0xac1b	-0.06415
69	0x307e	0.1404
70	0x3047	0.1337
71	0xac3a	-0.06604
72	0x2b38	0.0564
73	0x301c	0.1284
74	0x2652	0.02469
75	0xa9ec	-0.04626
76	0x318f	0.1737
77	0x2dea	0.0924
78	0xa98b	-0.0433
79	0x29ef	0.04636
80	0x2f5b	0.1149
81	0xa389	-0.01472
82	0x2b47	0.05685
83	0x3257	0.1981
84	0x3549	0.3303
85	0xa85a	-0.034
86	0x32de	0.2146
87	0x2a90	0.05127
88	0x341f	0.2576
89	0x2fb2	0.12024
90	0x2ec0	0.10547
91	0x2ecd	0.10626
92	0x2e32	0.0968
93	0x314e	0.1658
94	0x34f6	0.31
95	0x342f	0.2615
96	0x281b	0.03207
97	0x2dea	0.0924
98	0x32fd	0.2184
99	0x2e7c	0.1013
100	0xa94e	-0.04144
101	0xa530	-0.02026
102	0x31da	0.1829
103	0xaca4	-0.0725
104	0x31ce	0.1814
105	0x32ca	0.2122
106	0x353d	0.3274
107	0x2a58	0.04956
108	0x2ee0	0.1074
109	0x2f48	0.1138
110	0x348d	0.2844
111	0x2ff4	0.12427
112	0xaab6	-0.05243
113	0x269e	0.02585
114	0x2f68	0.1157
115	0xa8a3	-0.03622
116	0x2c6d	0.06915
117	0x35a1	0.3518
118	0xa780	-0.0293
119	0x33e6	0.2468
120	0xa883	-0.03525
121	0x31f4	0.186
122	0x300d	0.1266
123	0x2c97	0.0717
124	0x2db1	0.0889
125	0xab4b	-0.05698
126	0xaa50	-0.04932
127	0x3191	0.174

model/dense_1/BiasAdd/ReadVariableOp f2 [25]
0	0x3010	0.127
1	0xa954	-0.04163
2	0x2f62	0.11536
3	0xadea	-0.0924
4	0x26f2	0.02713
5	0x2948	0.04126
6	0xadf9	-0.0933
7	0x3437	0.2634
8	0xb0a8	-0.1455
9	0xa298	-0.01288
10	0xac3f	-0.06635
11	0xad23	-0.08026
12	0xab49	-0.05692
13	0x2944	0.04114
14	0x26b2	0.02615
15	0x320f	0.1893
16	0xaf43	-0.11346
17	0x16e9	0.001687
18	0x9c77	-0.00436
19	0x28fa	0.03888
20	0xb297	-0.2059
21	0xafa7	-0.11957
22	0x3266	0.2
23	0xa93a	-0.04083
24	0x33cb	0.2435

model/dense/MatMul f2 [128, 128]
0	0xb50c	-0.3154
1	0x3764	0.462
2	0xb473	-0.278
3	0xa3bb	-0.0151
4	0xaf98	-0.11865
5	0xb06f	-0.1385
6	0xaf3f	-0.1132
7	0x358a	0.3462
8	0x302e	0.1306
9	0x2a8d	0.05118
10	0x2f45	0.1136
11	0x2891	0.03568
12	0x38d4	0.6035
13	0x340e	0.2534
14	0xa15b	-0.01046
15	0xac89	-0.07086
16	0x2c28	0.06494
17	0xada8	-0.0884
18	0x9c69	-0.004307
19	0x3072	0.1389
20	0xb112	-0.1584
21	0x2ff9	0.1246
22	0x3014	0.1274
23	0x2f0d	0.11017
24	0xac7e	-0.0702
25	0x3522	0.3208
26	0xac9e	-0.07214
27	0x33c5	0.2428
28	0xb249	-0.1964
29	0xb60e	-0.3784
30	0xb1b5	-0.1783
31	0xa961	-0.04202
32	0xa74e	-0.02853
33	0x2de1	0.09186
34	0xada4	-0.08813
35	0xb519	-0.3186
36	0xb0fb	-0.1556
37	0xac0b	-0.0632
38	0x2689	0.02553
39	0x27b1	0.03004
40	0x24f1	0.0193
41	0xb4c9	-0.299
42	0x3088	0.1416
43	0x9e71	-0.00629
44	0x2e1e	0.0956
45	0xb582	-0.3442
46	0x360c	0.378
47	0x3380	0.2344
48	0x2db9	0.0894
49	0x9cf1	-0.004826
50	0x30f4	0.1548
51	0xad0a	-0.07874
52	0x2fd2	0.1222
53	0x2d6b	0.08466
54	0xad22	-0.0802
55	0xa6aa	-0.02603
56	0x2d5d	0.0838
57	0x302a	0.1301
58	0x3279	0.2023
59	0xb11b	-0.1595
60	0x3401	0.2502
61	0x31ca	0.1809
62	0xadfd	-0.09357
63	0x2045	0.00834
64	0x3101	0.1564
65	0x31ab	0.1771
66	0xb098	-0.1436
67	0xb6a4	-0.415
68	0x3575	0.341
69	0xb16a	-0.1692
70	0x2eeb	0.1081
71	0x2359	0.01435
72	0x3398	0.2373
73	0x3457	0.2712
74	0x1cc3	0.00465
75	0xabfd	-0.0624
76	0x30bd	0.1481
77	0x33b0	0.2402
78	0x99ac	-0.00277
79	0x3024	0.1294
80	0x1539	0.001275
81	0x3155	0.1666
82	0x2c73	0.0695
83	0x2876	0.03485
84	0xaced	-0.07697
85	0x3025	0.1295
86	0x81ae	-2.563e-05
87	0x3142	0.1643
88	0x2457	0.01695
89	0xaaff	-0.05466
90	0xa90e	-0.0395
91	0xb137	-0.163
92	0xad77	-0.0854
93	0xb4e1	-0.305
94	0xb1d8	-0.1826
95	0x356a	0.3384
96	0xad97	-0.08734
97	0x2d95	0.0872
98	0x2e78	0.1011
99	0x3822	0.5166
100	0xb4a7	-0.2908
101	0xa80c	-0.03162
102	0x11ca	0.0007067
103	0xb115	-0.1588
104	0x37fc	0.499
105	0xb9fd	-0.7485
106	0x3074	0.1392
107	0xb562	-0.3364
108	0xb6c6	-0.4233
109	0x338d	0.236
110	0xac2a	-0.06506
111	0x394e	0.663
112	0x3106	0.157
113	0x1dd1	0.00568
114	0xacb3	-0.0734
115	0xb29d	-0.2067
116	0xb048	-0.1338
117	0x2dc9	0.0904
118	0xaed3	-0.1066
119	0xabb6	-0.06024
120	0x31b2	0.178
121	0xb917	-0.636
122	0xb4a1	-0.2893
123	0xb42c	-0.2607
124	0x321e	0.1912
125	0xa6ee	-0.02707
126	0x2381	0.014656
127	0x2b77	0.05832
128	0xa796	-0.02963
129	0xa8e8	-0.03833
130	0xb669	-0.4006
131	0x328c	0.2046
132	0x3445	0.2668
133	0x367f	0.406
134	0x2e50	0.09863
135	0x2d1d	0.0799
136	0x2cf2	0.0773
137	0xab06	-0.05487
138	0x3450	0.2695
139	0xb056	-0.1355
140	0x32df	0.2147
141	0xb210	-0.1895
142	0x2974	0.0426
143	0xb1e8	-0.1846
144	0xa6e4	-0.02692
145	0xaeee	-0.1083
146	0x32e9	0.216
147	0x2e5e	0.0995
148	0x313b	0.1635
149	0x2423	0.01616
150	0xa84d	-0.0336
151	0xb313	-0.2211
152	0xae73	-0.10077
153	0x3110	0.1582
154	0x8d01	-0.0003054
155	0xaf44	-0.1135
156	0x3283	0.2035
157	0x1dfb	0.00584
158	0x3371	0.2325
159	0x2d08	0.0786
160	0xad39	-0.0816
161	0xb08e	-0.1423
162	0x289d	0.03604
163	0x2709	0.02748
164	0x2edc	0.1072
165	0x305b	0.1361
166	0x38fa	0.622
167	0x29aa	0.04425
168	0xb587	-0.3455
169	0xa0fd	-0.00974
170	0xabf7	-0.06223
171	0xb24b	-0.1967
172	0xb835	-0.526
173	0x2a55	0.04947
174	0x3113	0.1586
175	0x2f31	0.11237
176	0xa3ab	-0.01498
177	0xae6b	-0.1003
178	0x2d38	0.08154
179	0x2957	0.04172
180	0x307d	0.1403
181	0xaa45	-0.04898
182	0x2594	0.02179
183	0xa61b	-0.02385
184	0x2071	0.008675
185	0x2b0a	0.055
186	0x289b	0.03598
187	0xab2d	-0.05606
188	0x3181	0.172
189	0xaf53	-0.11444
190	0x34a3	0.2898
191	0xac36	-0.0658
192	0xb2a6	-0.2078
193	0xb137	-0.163
194	0x27d8	0.03064
195	0xaaa7	-0.05197
196	0xb3e7	-0.247
197	0x32dd	0.2145
198	0x2f2b	0.112
199	0x35a9	0.3538
200	0xb09b	-0.1439
201	0xb08e	-0.1423
202	0xa893	-0.03574
203	0x3183	0.1722
204	0xb332	-0.2249
205	0x2cc9	0.07477
206	0xb272	-0.2014
207	0x2e07	0.0942
208	0x350c	0.3154
209	0x28e3	0.03818
210	0xadc2	-0.08997
211	0xb04b	-0.1342
212	0xb39f	-0.2382
213	0xad6d	-0.0848
214	0xa34f	-0.014275
215	0xb347	-0.2274
216	0xb1d6	-0.1824
217	0x311e	0.1599
218	0xadbd	-0.08966
219	0xb090	-0.1426
220	0x300f	0.1268
221	0x2919	0.03983
222	0x34c7	0.2986
223	0x2d97	0.08734
224	0x2c7e	0.0702
225	0x27d0	0.03052
226	0x34b8	0.295
227	0xb664	-0.3994
228	0xa6af	-0.02611
229	0xb079	-0.1398
230	0x2d7b	0.08563
231	0x33ca	0.2434
232	0x3347	0.2274
233	0xb265	-0.1998
234	0x3412	0.2544
235	0x2ed4	0.1067
236	0x2d13	0.0793
237	0xb2ca	-0.2122
238	0xb400	-0.25
239	0x2471	0.01735
240	0x2e27	0.0961
241	0xb687	-0.408
242	0xb375	-0.233
243	0x3327	0.2235
244	0xb089	-0.1417
245	0x3020	0.1289
246	0x343c	0.2646
247	0x2e5d	0.0994
248	0xb3bb	-0.2416
249	0x2cad	0.07306
250	0xb41c	-0.2568
251	0xb966	-0.675
252	0x2a1e	0.0478
253	0x2fcf	0.122
254	0x2f81	0.11725
255	0x2e1c	0.09546

model/dense_1/MatMul f2 [25, 128]
0	0xa7eb	-0.03093
1	0x3139	0.1632
2	0xb0e0	-0.1523
3	0x3377	0.2333
4	0xb5da	-0.3657
5	0xad58	-0.0835
6	0xb88a	-0.5674
7	0xafac	-0.1199
8	0xb87b	-0.56
9	0xb9fe	-0.749
10	0xb615	-0.3801
11	0xb94a	-0.661
12	0x2858	0.03394
13	0xaf3e	-0.11316
14	0xb48f	-0.285
15	0xb369	-0.2316
16	0xb5d3	-0.364
17	0x315f	0.1678
18	0x1f8f	0.00738
19	0x2e38	0.09717
20	0xb687	-0.408
21	0xb7a7	-0.4783
22	0xa8af	-0.0366
23	0xb0ef	-0.1542
24	0x35ff	0.3748
25	0xb5c8	-0.3613
26	0x364b	0.3933
27	0xbb0b	-0.8804
28	0xb913	-0.6343
29	0x3460	0.2734
30	0xa29d	-0.01292
31	0xaf12	-0.1105
32	0x31fd	0.1871
33	0xb59e	-0.351
34	0x3720	0.4453
35	0x2ec7	0.1059
36	0x2b39	0.05643
37	0xb408	-0.252
38	0x2fe7	0.1235
39	0xb860	-0.547
40	0x354d	0.3313
41	0xbaac	-0.834
42	0x9a55	-0.003092
43	0xb49e	-0.2886
44	0x2bf0	0.062
45	0xa3d6	-0.015305
46	0xb6a8	-0.416
47	0xa744	-0.02838
48	0xb096	-0.1433
49	0x2418	0.01599
50	0x2b02	0.05475
51	0x3441	0.2659
52	0x3018	0.1279
53	0x9bee	-0.003872
54	0xacba	-0.07385
55	0x26bb	0.02629
56	0xa92e	-0.04047
57	0x305c	0.1362
58	0x349d	0.2883
59	0x2dd9	0.0914
60	0xb0ef	-0.1542
61	0x3612	0.3794
62	0xb4a8	-0.291
63	0x2d43	0.0822
64	0x2a13	0.04745
65	0x26af	0.02611
66	0xae0e	-0.0946
67	0xb6a1	-0.4143
68	0xb453	-0.2703
69	0xb845	-0.5337
70	0x263c	0.02435
71	0xab87	-0.0588
72	0xb8b5	-0.5884
73	0xb489	-0.2834
74	0xab18	-0.05542
75	0x297f	0.04294
76	0xa2a5	-0.01298
77	0x3319	0.2218
78	0xb84d	-0.5376
79	0x352b	0.323
80	0xb487	-0.283
81	0xaf28	-0.1118
82	0xb500	-0.3125
83	0x3253	0.1976
84	0x3307	0.2196
85	0x2aeb	0.05405
86	0x2c0e	0.06335
87	0xa5ec	-0.02313
88	0x2bc5	0.0607
89	0xb009	-0.1261
90	0x3251	0.1974
91	0x29c0	0.04492
92	0x30d8	0.1514
93	0xaad3	-0.0533
94	0x34dc	0.3037
95	0xad18	-0.0796
96	0xb8cb	-0.599
97	0xbabb	-0.8413
98	0x34e8	0.3066
99	0x2fd8	0.12256
100	0x3117	0.159
101	0xb14b	-0.1654
102	0x309d	0.1442
103	0xb096	-0.1433
104	0xb48d	-0.2844
105	0x33ec	0.2476
106	0x32e8	0.2158
107	0xa97e	-0.0429
108	0x2996	0.04364
109	0xad51	-0.08307
110	0x3522	0.3208
111	0xb698	-0.412
112	0x2607	0.02354
113	0x3030	0.1309
114	0xb558	-0.334
115	0xaff8	-0.1245
116	0xb3ef	-0.2479
117	0x311e	0.1599
118	0x2df5	0.0931
119	0x2dde	0.0917
120	0xb43c	-0.2646
121	0xa9dd	-0.0458
122	0xb388	-0.2354
123	0x32d1	0.213
124	0xb874	-0.5566
125	0x2c6c	0.0691
126	0x31d3	0.182
127	0x345c	0.2725
128	0xb926	-0.6436
129	0xbad5	-0.854
130	0x3413	0.2546
131	0x35bb	0.3582
132	0xb628	-0.3848
133	0x2e59	0.0992
134	0xaf1b	-0.111
135	0xaf99	-0.1187
136	0x356c	0.3389
137	0xb01c	-0.1284
138	0xba77	-0.808
139	0xb006	-0.1257
140	0x27bb	0.0302
141	0x35e8	0.3691
142	0x2de4	0.09204
143	0xad2b	-0.08075
144	0x2a39	0.0486
145	0xbeea	-1.729
146	0x9f5b	-0.007183
147	0xb00c	-0.1265
148	0x2e18	0.0952
149	0xb45e	-0.273
150	0x35ad	0.3547
151	0x3034	0.1313
152	0x3819	0.512
153	0x3144	0.1646
154	0xb03c	-0.1323
155	0x3585	0.345
156	0xbafe	-0.874
157	0xab8c	-0.05896
158	0xadcb	-0.0905
159	0xabb9	-0.06033
160	0xbac9	-0.848
161	0x3322	0.2229
162	0x3657	0.3962
163	0xac52	-0.0675
164	0x361d	0.382
165	0x35b5	0.3567
166	0x2e5d	0.0994
167	0x0f29	0.000437
168	0xb098	-0.1436
169	0x316a	0.1692
170	0xb076	-0.1394
171	0xbaf5	-0.8696
172	0x2b49	0.05692
173	0x3423	0.2585
174	0xa715	-0.02766
175	0x372d	0.4485
176	0xa9bc	-0.0448
177	0x29db	0.04575
178	0x2f18	0.11084
179	0xb3b3	-0.2406
180	0xb25a	-0.1985
181	0xb793	-0.4734
182	0xad6f	-0.0849
183	0x2e19	0.0953
184	0xba8e	-0.8193
185	0x314f	0.1659
186	0x36f0	0.4336
187	0xad36	-0.0814
188	0xb142	-0.1643
189	0x2fe7	0.1235
190	0x2fc8	0.1216
191	0xbc6a	-1.104
192	0x399b	0.7007
193	0xb854	-0.541
194	0xb959	-0.6685
195	0x3171	0.17
196	0xaee1	-0.1075
197	0xb590	-0.3477
198	0xb7ae	-0.48
199	0xb07c	-0.1401
200	0x2e6e	0.10046
201	0xa2af	-0.013054
202	0x343f	0.2654
203	0xb132	-0.1624
204	0xb9b7	-0.7144
205	0xb5a9	-0.3538
206	0x2fbf	0.12103
207	0x2bbf	0.06052
208	0x2a00	0.04688
209	0x37e5	0.4934
210	0x369c	0.413
211	0xb92c	-0.6465
212	0xb79b	-0.4753
213	0xa6f2	-0.02713
214	0x2cb9	0.0738
215	0x2419	0.016
216	0xb482	-0.2817
217	0x9fcb	-0.00761
218	0xae80	-0.10156
219	0xb951	-0.6646
220	0xba5b	-0.7944
221	0x3050	0.1348
222	0xb40b	-0.2527
223	0x3543	0.3289
224	0xa759	-0.0287
225	0x3430	0.2617
226	0xb60d	-0.3782
227	0xacb4	-0.0735
228	0xae3f	-0.0976
229	0x2f6c	0.11597
230	0xb088	-0.1416
231	0xb248	-0.1963
232	0x328e	0.2048
233	0xb433	-0.2625
234	0xb1de	-0.1833
235	0xb0ed	-0.1539
236	0x34d3	0.3015
237	0xb5d8	-0.3652
238	0xb127	-0.161
239	0xb3f2	-0.2483
240	0xb17f	-0.1718
241	0x353a	0.3267
242	0x33cf	0.244
243	0xb0c9	-0.1495
244	0xb5ff	-0.3748
245	0xb683	-0.407
246	0xa97f	-0.04294
247	0x2b1c	0.05554
248	0x34bf	0.2966
249	0x2ec8	0.10596
250	0xb438	-0.2637
251	0x35de	0.3667
252	0x31b0	0.1777
253	0xaee1	-0.1075
254	0x2df4	0.093
255	0x3585	0.345
