models/tab_digit_cnn.tflite (tflite, 63292 bytes, 10 tensors)

model/conv2d/BiasAdd/ReadVariableOp f2 [16]
0	0x2d33	0.08124
1	0xb1d9	-0.1827
2	0xb905	-0.6274
3	0x3406	0.2515
4	0x1fa7	0.007473
5	0xb53e	-0.3276
6	0xab2d	-0.05606
7	0xb26e	-0.2009
8	0x2b35	0.0563
9	0x388f	0.57
10	0xbcd3	-1.206
11	0x9801	-0.001955
12	0x3016	0.1277
13	0x2db8	0.08936
14	0x2974	0.0426
15	0xa57b	-0.02141

model/conv2d_1/BiasAdd/ReadVariableOp f2 [32]
0	0xa696	-0.02573
1	0x3380	0.2344
2	0xb5bc	-0.3584
3	0xb796	-0.474
4	0xb41d	-0.257
5	0xaf50	-0.11426
6	0xa0e5	-0.00956
7	0xb3ab	-0.2396
8	0xab9b	-0.05942
9	0xb6c0	-0.4219
10	0x3038	0.1318
11	0xaf5f	-0.1152
12	0xaa9c	-0.05164
13	0xb181	-0.172
14	0xb0b5	-0.1471
15	0xb476	-0.2788
16	0xa5ae	-0.02219
17	0xae43	-0.09784
18	0xb39d	-0.2379
19	0xa3d7	-0.01531
20	0x2f20	0.1113
21	0xb148	-0.165
22	0xad83	-0.0861
23	0x2d7b	0.08563
24	0x31f5	0.1862
25	0x216b	0.01058
26	0xb306	-0.2195
27	0xad2c	-0.0808
28	0x2ce5	0.0765
29	0xb084	-0.1411
30	0x28d4	0.03772
31	0xa10f	-0.00988

model/conv2d_2/BiasAdd/ReadVariableOp f2 [64]
0	0xb123	-0.1605
1	0xb5ab	-0.3542
2	0xb424	-0.2588
3	0xba18	-0.7617
4	0xb1f0	-0.1855
5	0xa9db	-0.04575
6	0xae5c	-0.09937
7	0xaed3	-0.1066
8	0xb15b	-0.1674
9	0x2747	0.02843
10	0xb0e9	-0.1534
11	0xb661	-0.3987
12	0x3064	0.1372
13	0xb1dc	-0.1831
14	0xb1ad	-0.1774
15	0xab01	-0.05472
16	0xab2b	-0.056
17	0x30e2	0.1526
18	0xafb6	-0.1205
19	0xa466	-0.01718
20	0xba04	-0.752
21	0x313f	0.164
22	0xb45c	-0.2725
23	0x2771	0.02907
24	0x2fdf	0.123
25	0x3249	0.1964
26	0xb04e	-0.1345
27	0x2837	0.03293
28	0x2fc1	0.12115
29	0xb377	-0.2333
30	0x3202	0.1877
31	0xb7a8	-0.4785
32	0x341b	0.2566
33	0xaff4	-0.12427
34	0x3160	0.168
35	0xb087	-0.1415
36	0xb7e6	-0.4937
37	0x1d41	0.00513
38	0xb2f1	-0.2169
39	0x2899	0.03592
40	0xa705	-0.02742
41	0x30b1	0.1466
42	0x9a27	-0.003004
43	0xb73f	-0.453
44	0xb378	-0.2334
45	0xa8d9	-0.03787
46	0xb1fe	-0.1873
47	0xb4d2	-0.3013
48	0xa8b3	-0.0367
49	0xb08c	-0.1421
50	0x2c03	0.0627
51	0x3137	0.163
52	0xb401	-0.2502
53	0xb82c	-0.5215
54	0xb5ae	-0.355
55	0xae84	-0.1018
56	0xb31b	-0.222
57	0xb50d	-0.3157
58	0xae74	-0.1008
59	0xb0ed	-0.1539
60	0xadb3	-0.08905
61	0x3402	0.2505
62	0xa846	-0.0334
63	0xa2bf	-0.013176

model/conv2d/Conv2D f2 [16, 3, 3, 1]
0	0x3988	0.6914
1	0x384e	0.538
2	0xb788	-0.4707
3	0x346c	0.2764
4	0x341e	0.2573
5	0x291f	0.04
6	0xbbb1	-0.9614
7	0xbb9e	-0.952
8	0x3400	0.25
9	0x2d9c	0.08765
10	0xb9be	-0.718
11	0xbc8f	-1.14
12	0x34ee	0.308
13	0x3611	0.3792
14	0xb60f	-0.3787
15	0x38b6	0.589
16	0x3c46	1.068
17	0x30bc	0.148
18	0xb42c	-0.2607
19	0x36f2	0.434
20	0x3742	0.4536
21	0x301e	0.1287
22	0x3833	0.525
23	0x3812	0.509
24	0x13e1	0.000962
25	0x394b	0.6616
26	0x384b	0.5366
27	0xb541	-0.3284
28	0xba85	-0.815
29	0xba95	-0.8228
30	0x29af	0.0444
31	0x3158	0.167
32	0xad5b	-0.0837
33	0xae93	-0.1027
34	0x38fd	0.6235
35	0x38e3	0.611
36	0x38b9	0.5903
37	0xb5ea	-0.3696
38	0xb4da	-0.3032
39	0x3a29	0.77
40	0xb61d	-0.382
41	0xb61b	-0.3816
42	0x38ab	0.5835
43	0xb7e6	-0.4937
44	0xa239	-0.01215
45	0xb8ab	-0.5835
46	0xb8e3	-0.611
47	0x38c8	0.5977
48	0xbb36	-0.9014
49	0x3bb0	0.961
50	0x3764	0.462
51	0x392e	0.6475
52	0x3a2b	0.771
53	0xb5b5	-0.3567
54	0x3739	0.4514
55	0x3971	0.68
56	0xba09	-0.7544
57	0x3a7e	0.8115
58	0x38c6	0.5967
59	0xbc17	-1.022
60	0x3dea	1.479
61	0x3861	0.5474
62	0xbfce	-1.951
63	0xbcf3	-1.237
64	0x399a	0.7
65	0x3a56	0.792
66	0xbce5	-1.224
67	0x3a02	0.751
68	0x3c2d	1.044
69	0xbe89	-1.634
70	0x3d32	1.299
71	0x3a7f	0.812
72	0xb212	-0.1897
73	0x3917	0.636
74	0x3889	0.567
75	0xb1b0	-0.1777
76	0x3928	0.6445
77	0x3720	0.4453
78	0xbd90	-1.391
79	0xbaf8	-0.871
80	0xaf38	-0.1128
81	0xa5de	-0.02292
82	0x35dd	0.3665
83	0x37c3	0.485
84	0xba8e	-0.8193
85	0xbb30	-0.8984
86	0xbaad	-0.8345
87	0x2b92	0.05914
88	0xa33d	-0.01414
89	0xad6a	-0.0846
90	0x35bf	0.3591
91	0x3979	0.684
92	0xb13a	-0.1633
93	0x37e1	0.4924
94	0x3c60	1.094
95	0x30c5	0.149
96	0x3a12	0.759
97	0x3c7d	1.122
98	0xb4ff	-0.3123
99	0xb059	-0.1359
100	0xb472	-0.2778
101	0x36ac	0.417
102	0xba72	-0.8057
103	0xb4da	-0.3032
104	0x3c41	1.063
105	0xba06	-0.753
106	0x35df	0.367
107	0x3889	0.567
108	0x3418	0.2559
109	0xb8b2	-0.587
110	0xb91d	-0.639
111	0x34a8	0.291
112	0xa83c	-0.03308
113	0x366f	0.402
114	0x3850	0.539
115	0xb393	-0.2367
116	0xb934	-0.6504
117	0xb3f6	-0.2488
118	0xb1a1	-0.1759
119	0x38bd	0.5923
120	0xaca8	-0.07275
121	0xb7b5	-0.4817
122	0x3877	0.558
123	0xb7fa	-0.4985
124	0xbb99	-0.9497
125	0x3ca8	1.164
126	0xb000	-0.125
127	0x381a	0.5127
128	0xb638	-0.3887
129	0xacb0	-0.07324
130	0x3aae	0.835
131	0xba19	-0.762
132	0x34b7	0.2947
133	0x3071	0.1388
134	0xb7c4	-0.4854
135	0xb8b0	-0.586
136	0x2820	0.03223
137	0x398e	0.6943
138	0xb92d	-0.647
139	0x3a56	0.792
140	0xa868	-0.03442
141	0x3534	0.3252
142	0x35d5	0.3645
143	0xb9c3	-0.72

model/conv2d_1/Conv2D f2 [32, 3, 3, 16]
0	0xb777	-0.4666
1	0xa8ae	-0.03656
2	0xaf8d	-0.118
3	0x324a	0.1965
4	0xb870	-0.5547
5	0x3498	0.287
6	0x3117	0.159
7	0x3416	0.2554
8	0x2fdf	0.123
9	0x2bd0	0.06104
10	0xb21a	-0.1907
11	0x3493	0.286
12	0x2d73	0.08514
13	0x2df1	0.09283
14	0xafef	-0.12396
15	0x38e8	0.6133
16	0x362a	0.3853
17	0x34d2	0.3013
18	0xa21c	-0.01193
19	0x34c8	0.2988
20	0x3606	0.3765
21	0xa40a	-0.01578
22	0x2d74	0.0852
23	0xb13e	-0.1638
24	0x2344	0.01419
25	0xae05	-0.09406
26	0xb300	-0.2188
27	0xafb2	-0.12024
28	0x2976	0.04266
29	0xb0ae	-0.1462
30	0xb58b	-0.3464
31	0xb148	-0.165
32	0xa26f	-0.012566
33	0xb075	-0.1393
34	0x2922	0.0401
35	0xb056	-0.1355
36	0xb3c4	-0.2427
37	0xaa4d	-0.04922
38	0xab8b	-0.05893
39	0xa24a	-0.01228
40	0xb2be	-0.2107
41	0xb21e	-0.1912
42	0x2aa0	0.05176
43	0x3816	0.5107
44	0xb59e	-0.351
45	0x3424	0.2588
46	0xb2aa	-0.2083
47	0x319b	0.1752
48	0x34bf	0.2966
49	0xb180	-0.1719
50	0xb3ea	-0.2473
51	0x2971	0.0425
52	0x34a9	0.2913
53	0x2c23	0.06464
54	0x2b85	0.05875
55	0xb2a1	-0.2072
56	0x303f	0.1327
57	0xb050	-0.1348
58	0xb572	-0.3403
59	0x2835	0.03287
60	0xa554	-0.02081
61	0x2cec	0.0769
62	0xb4c9	-0.299
63	0x3249	0.1964
64	0x35e4	0.3682
65	0xb34c	-0.228
66	0x24cd	0.01875
67	0x2b44	0.05676
68	0xb555	-0.3333
69	0x355a	0.3345
70	0xb05a	-0.136
71	0x299f	0.0439
72	0xb4d6	-0.3022
73	0xb9a3	-0.7046
74	0xb1ca	-0.1809
75	0x3864	0.549
76	0xb689	-0.4084
77	0x3360	0.2305
78	0x2172	0.010635
79	0x3895	0.5728
80	0x3863	0.5483
81	0xaf47	-0.1137
82	0xaaac	-0.05212
83	0xaf14	-0.1106
84	0x3536	0.3257
85	0x30f7	0.1552
86	0x3360	0.2305
87	0xb228	-0.1924
88	0xb77b	-0.4675
89	0xba2e	-0.7725
90	0xae78	-0.1011
91	0xb3f0	-0.248
92	0x306a	0.138
93	0xb467	-0.2751
94	0x3565	0.3372
95	0x38f8	0.621
96	0xafab	-0.1198
97	0xbcc6	-1.193
98	0xae21	-0.09576
99	0x3608	0.377
100	0x3649	0.3928
101	0x3af1	0.8677
102	0x37d0	0.4883
103	0x3092	0.1428
104	0xb9f5	-0.7446
105	0xb1a4	-0.1763
106	0x2da6	0.08826
107	0x3a61	0.7974
108	0xbc92	-1.143
109	0x3209	0.1886
110	0x2928	0.04028
111	0x3bad	0.9595
112	0x3952	0.665
113	0xba3c	-0.7793
114	0xb08c	-0.1421
115	0xb487	-0.283
116	0x2da9	0.08844
117	0x38f2	0.618
118	0x33e8	0.2471
119	0xb3b5	-0.2408
120	0xb9ae	-0.71
121	0xb9cb	-0.724
122	0xb3aa	-0.2395
123	0xa8d8	-0.03784
124	0xb877	-0.558
125	0xaac8	-0.05298
126	0x357c	0.3428
127	0x3b50	0.914
128	0x395e	0.671
129	0xaa71	-0.05032
130	0xae39	-0.0972
131	0x345b	0.2722
132	0xaea6	-0.1039
133	0x3300	0.2188
134	0xb3b3	-0.2406
135	0x32a5	0.2076
136	0xb28c	-0.2046
137	0xb4a2	-0.2896
138	0xb807	-0.5034
139	0x392f	0.648
140	0xae91	-0.1026
141	0x354e	0.3315
142	0xb437	-0.2634
143	0x2dc0	0.08984
144	0xaff2	-0.12415
145	0x301f	0.1288
146	0x26d0	0.02661
147	0xaa68	-0.05005
148	0x37cb	0.487
149	0x3053	0.1351
150	0x340e	0.2534
151	0xad4d	-0.0828
152	0xa8f5	-0.03873
153	0x98e5	-0.00239
154	0x34eb	0.3074
155	0x27f0	0.031
156	0x3038	0.1318
157	0x2cb1	0.0733
158	0x3894	0.5723
159	0x2ecb	0.10614
160	0xb637	-0.3884
161	0x2ea6	0.1039
162	0x1430	0.001022
163	0x20ea	0.0096
164	0x3432	0.2622
165	0x2700	0.02734
166	0x3033	0.1312
167	0xad8a	-0.08655
168	0xaf68	-0.1157
169	0xad11	-0.07916
170	0x2ed0	0.10645
171	0x1850	0.002106
172	0x2f0e	0.1102
173	0x2f21	0.1114
174	0x3023	0.1293
175	0x91c9	-0.000706
176	0xb0d6	-0.1511
177	0xad80	-0.08594
178	0xafe0	-0.12305
179	0xa798	-0.02966
180	0x352c	0.3232
181	0x3581	0.344
182	0x3049	0.1339
183	0x346e	0.2769
184	0x3265	0.1998
185	0xa902	-0.03912
186	0x2cff	0.07806
187	0x3314	0.2212
188	0x9a15	-0.00297
189	0x3376	0.2332
190	0x3486	0.2827
191	0x3a7c	0.8105
192	0x2ba8	0.0598
193	0x3683	0.407
194	0x3380	0.2344
195	0x3495	0.2864
196	0x367f	0.406
197	0xae92	-0.10266
198	0x344d	0.2688
199	0xa4e5	-0.01912
200	0x361e	0.3823
201	0x2aeb	0.05405
202	0x30b7	0.1473
203	0x31c5	0.1803
204	0x324f	0.1971
205	0x3042	0.133
206	0x2ebf	0.1054
207	0xac8f	-0.0712
208	0xae43	-0.09784
209	0x3405	0.2512
210	0x336c	0.2319
211	0x30f2	0.1545
212	0x3505	0.3137
213	0xb1fc	-0.187
214	0x3239	0.1945
215	0x3167	0.1688
216	0x2b83	0.0587
217	0xa9a4	-0.04407
218	0x3588	0.3457
219	0x2b30	0.05615
220	0x30a6	0.1453
221	0x2c47	0.06683
222	0xa8a9	-0.0364
223	0xb415	-0.2551
224	0xb5f2	-0.3716
225	0xb53e	-0.3276
226	0xb0fa	-0.1555
227	0xab84	-0.05872
228	0x38a5	0.5806
229	0x21b2	0.01112
230	0x36d8	0.4277
231	0xb32a	-0.2239
232	0xb741	-0.4534
233	0x2558	0.02087
234	0x34b9	0.2952
235	0xb8d9	-0.606
236	0x2834	0.03284
237	0xb7c7	-0.486
238	0x3190	0.1738
239	0x3068	0.1377
240	0xae31	-0.09674
241	0xab33	-0.05624
242	0xb4c1	-0.297
243	0x29b7	0.04465
244	0x3142	0.1643
245	0xbb26	-0.8936
246	0xb4ef	-0.3083
247	0xb495	-0.2864
248	0x34c4	0.2979
249	0x3188	0.1729
250	0xbb90	-0.9453
251	0x2469	0.01723
252	0x3296	0.2058
253	0x314f	0.1659
254	0xb4d5	-0.302
255	0xb8c8	-0.5977

model/conv2d_2/Conv2D f2 [64, 3, 3, 32]
0	0xae63	-0.0998
1	0xb80f	-0.5073
2	0x3440	0.2656
3	0x33b9	0.2413
4	0x358b	0.3464
5	0x30a8	0.1455
6	0xb55f	-0.3357
7	0xb041	-0.1329
8	0xb574	-0.3408
9	0x3901	0.6255
10	0xb6b8	-0.42
11	0xb39c	-0.2378
12	0xb510	-0.3164
13	0x3462	0.274
14	0xbb9a	-0.95
15	0x35fe	0.3745
16	0xb897	-0.5737
17	0xa8a4	-0.03625
18	0x2e1d	0.0955
19	0x2daf	0.0888
20	0xbb78	-0.9336
21	0x3361	0.2306
22	0x3152	0.1663
23	0xb253	-0.1976
24	0xb6ba	-0.4204
25	0xb565	-0.3372
26	0x2dac	0.0886
27	0xb593	-0.3484
28	0x3340	0.2266
29	0x2ce6	0.07654
30	0x2f26	0.1117
31	0xa6c1	-0.02638
32	0xac47	-0.06683
33	0xb690	-0.4102
34	0xb182	-0.1721
35	0x2a72	0.05035
36	0x25ea	0.0231
37	0xa19f	-0.01098
38	0x27c9	0.03041
39	0xaa51	-0.04935
40	0xb5b4	-0.3564
41	0x347b	0.28
42	0xb97c	-0.6855
43	0x9a1d	-0.002985
44	0xb639	-0.389
45	0xade9	-0.09235
46	0x34e5	0.306
47	0x385f	0.5464
48	0x318f	0.1737
49	0xaf23	-0.1115
50	0x2cc8	0.0747
51	0xada7	-0.0883
52	0xb83d	-0.53
53	0x30d8	0.1514
54	0x345a	0.272
55	0xad7b	-0.08563
56	0xb301	-0.2189
57	0xb51a	-0.3188
58	0xabd9	-0.0613
59	0x3503	0.3132
60	0x31d4	0.1821
61	0x37ba	0.483
62	0xb45b	-0.2722
63	0x9a10	-0.00296
64	0xb0b0	-0.1465
65	0x30b9	0.1476
66	0x2cec	0.0769
67	0x238d	0.01475
68	0x2d8f	0.08685
69	0x2f53	0.11444
70	0xb2da	-0.2141
71	0xa1e7	-0.01153
72	0x3433	0.2625
73	0xb7dc	-0.4912
74	0x3951	0.6646
75	0x2f78	0.1167
76	0x3517	0.318
77	0x2cfb	0.0778
78	0x3350	0.2285
79	0xb88a	-0.5674
80	0x20cf	0.00939
81	0x2a60	0.0498
82	0x3599	0.3499
83	0x838b	-5.406e-05
84	0xb580	-0.3438
85	0xb56b	-0.3386
86	0x2a35	0.0485
87	0xb290	-0.2051
88	0xaee6	-0.1078
89	0x33b5	0.2408
90	0x3195	0.1744
91	0xb522	-0.3208
92	0xb40a	-0.2524
93	0xb694	-0.4111
94	0x3589	0.346
95	0xb005	-0.1256
96	0x2e70	0.1006
97	0xb887	-0.566
98	0x35ed	0.3704
99	0x3460	0.2734
100	0x3385	0.235
101	0x3454	0.2705
102	0xb538	-0.3262
103	0xb1f6	-0.1863
104	0x34ce	0.3003
105	0x37fb	0.4988
106	0xb3cf	-0.244
107	0xb6df	-0.4294
108	0x2c94	0.07153
109	0x3578	0.3418
110	0xb806	-0.503
111	0x35fe	0.3745
112	0xb89c	-0.576
113	0x3429	0.26
114	0x2671	0.02516
115	0x2e68	0.1001
116	0xb525	-0.3215
117	0x301e	0.1287
118	0x33e5	0.2467
119	0x2ec5	0.1058
120	0xb5d7	-0.365
121	0xb989	-0.692
122	0x33e2	0.2463
123	0x34a4	0.29
124	0x389d	0.5767
125	0x313e	0.1638
126	0xaad8	-0.05347
127	0x2791	0.02956
128	0x3440	0.2656
129	0xb584	-0.3447
130	0xa457	-0.01695
131	0xb04d	-0.1344
132	0x23df	0.01537
133	0x3321	0.2228
134	0xac2c	-0.0652
135	0x2863	0.03427
136	0xab20	-0.05566
137	0x3039	0.132
138	0xb62d	-0.386
139	0xb5d9	-0.3655
140	0x3575	0.341
141	0x2dee	0.09265
142	0x3539	0.3264
143	0x36a7	0.4158
144	0xae72	-0.1007
145	0x9a4a	-0.00307
146	0x2fb5	0.1204
147	0x2790	0.02954
148	0xb215	-0.1901
149	0x3042	0.133
150	0x3445	0.2668
151	0xb552	-0.3325
152	0xb439	-0.264
153	0xb834	-0.5254
154	0xac4b	-0.0671
155	0x33fd	0.2496
156	0x35e3	0.368
157	0x385e	0.546
158	0xb80e	-0.507
159	0x050c	7.7e-05
160	0xafa9	-0.1197
161	0xa604	-0.0235
162	0x3266	0.2
163	0xb070	-0.1387
164	0xb380	-0.2344
165	0x321c	0.1909
166	0xb255	-0.1979
167	0x34cf	0.3005
168	0x32f9	0.2179
169	0xad37	-0.0815
170	0x32de	0.2146
171	0xb534	-0.3252
172	0x39f4	0.744
173	0x3495	0.2864
174	0x3603	0.3757
175	0xaadd	-0.05362
176	0xb043	-0.1332
177	0x32b0	0.209
178	0x38ed	0.6157
179	0x310f	0.1581
180	0xb0c3	-0.1488
181	0x1b2f	0.003508
182	0x340b	0.2527
183	0x29ec	0.04626
184	0xab10	-0.05518
185	0x3427	0.2595
186	0xa458	-0.01697
187	0x2e42	0.0978
188	0x38ce	0.6006
189	0x3157	0.1669
190	0xb088	-0.1416
191	0xb2c7	-0.2118
192	0xb02b	-0.1302
193	0xb894	-0.5723
194	0xb438	-0.2637
195	0xb55c	-0.335
196	0xb760	-0.461
197	0xa8d6	-0.03778
198	0xb4d3	-0.3015
199	0xb7bf	-0.4841
200	0xb512	-0.317
201	0x31d6	0.1824
202	0xb03b	-0.1322
203	0xba11	-0.7583
204	0xb7ae	-0.48
205	0x30eb	0.1537
206	0xb75e	-0.4604
207	0xb81d	-0.514
208	0xb7d6	-0.4897
209	0xb35b	-0.2299
210	0xb112	-0.1584
211	0xaa70	-0.0503
212	0x30f2	0.1545
213	0xb98a	-0.6924
214	0xb149	-0.1652
215	0xb96a	-0.677
216	0xb7ec	-0.495
217	0xbc91	-1.142
218	0xb7d5	-0.4895
219	0xaefe	-0.10925
220	0xa199	-0.01093
221	0xb92c	-0.6465
222	0xb667	-0.4001
223	0xb537	-0.326
224	0xb253	-0.1976
225	0xb1f4	-0.186
226	0xb0da	-0.1516
227	0xb86b	-0.5522
228	0xb4f3	-0.3093
229	0xb17e	-0.1716
230	0xb21f	-0.1913
231	0xb666	-0.4
232	0xb5f4	-0.372
233	0xb223	-0.1918
234	0x2fc6	0.12146
235	0xb529	-0.3225
236	0xbd57	-1.335
237	0x305f	0.1366
238	0xb2d5	-0.2135
239	0x1e4b	0.006145
240	0xb46f	-0.277
241	0xb19f	-0.1757
242	0xb4ce	-0.3003
243	0xb4d3	-0.3015
244	0xb302	-0.219
245	0xad41	-0.0821
246	0xb3cc	-0.2437
247	0xba9c	-0.826
248	0xb06b	-0.1381
249	0xbd9c	-1.402
250	0xb631	-0.387
251	0x2d04	0.07837
252	0xafa7	-0.11957
253	0x3221	0.1915
254	0xb119	-0.1593
255	0xb608	-0.377

model/dense/BiasAdd/ReadVariableOp f2 [64]
0	0x3622	0.3833
1	0x3491	0.2854
2	0x317e	0.1716
3	0x3412	0.2544
4	0xa545	-0.02058
5	0x3549	0.3303
6	0x2d9a	0.0875
7	0xab06	-0.05487
8	0x3750	0.457
9	0xa565	-0.02107
10	0xac48	-0.0669
11	0x3904	0.627
12	0x3335	0.2252
13	0x3358	0.2295
14	0x353f	0.328
15	0x37c4	0.4854
16	0x2c4d	0.0672
17	0x35ba	0.358
18	0x31ab	0.1771
19	0x388f	0.57
20	0x37f8	0.498
21	0x35c1	0.3596
22	0x376c	0.4639
23	0xa40a	-0.01578
24	0x35cc	0.3623
25	0x2815	0.0319
26	0x3351	0.2286
27	0x367a	0.4048
28	0x3578	0.3418
29	0x2d41	0.0821
30	0x35fd	0.3743
31	0x302a	0.1301
32	0xa13a	-0.01021
33	0x3639	0.389
34	0x3423	0.2585
35	0x33f6	0.2488
36	0x3219	0.1906
37	0x354f	0.3318
38	0x313a	0.1633
39	0x3302	0.219
40	0xac57	-0.0678
41	0xac0f	-0.0634
42	0x3a7e	0.8115
43	0x32ac	0.2085
44	0x345e	0.273
45	0xa98f	-0.04343
46	0xa895	-0.0358
47	0x2ee2	0.10754
48	0xaa14	-0.0475
49	0xaba5	-0.05972
50	0x3140	0.1641
51	0x3840	0.5312
52	0x3625	0.384
53	0xa67f	-0.02538
54	0x1ea3	0.00648
55	0x354b	0.3308
56	0xa6c7	-0.02647
57	0x37ee	0.4956
58	0x2a1c	0.04773
59	0xabda	-0.06134
60	0x2f10	0.11035
61	0x371d	0.4446
62	0xafd7	-0.1225
63	0x300e	0.1267

model/dense_1/BiasAdd/ReadVariableOp f2 [25]
0	0xb5af	-0.3552
1	0x3952	0.665
2	0x31ae	0.1775
3	0xb4aa	-0.2915
4	0x2a77	0.0505
5	0x3343	0.2269
6	0xb454	-0.2705
7	0x3527	0.322
8	0xb817	-0.511
9	0xb496	-0.2866
10	0x3453	0.2703
11	0x3223	0.1918
12	0xa02d	-0.008156
13	0x2c9b	0.07196
14	0x2c05	0.0628
15	0x26e4	0.02692
16	0xb2f7	-0.2177
17	0x2fbb	0.1208
18	0xab9b	-0.05942
19	0xaca2	-0.0724
20	0x3742	0.4536
21	0xb022	-0.1292
22	0x32fd	0.2184
23	0x2835	0.03287
24	0xabb5	-0.0602

model/dense/MatMul f2 [64, 64]
0	0x9da3	-0.005505
1	0x32b3	0.2094
2	0x328a	0.2043
3	0xac58	-0.0679
4	0x2e50	0.09863
5	0x3050	0.1348
6	0xa7c4	-0.03033
7	0xb893	-0.572
8	0xb714	-0.4424
9	0xb322	-0.2229
10	0x36d7	0.4275
11	0x2b2f	0.05612
12	0xb509	-0.3147
13	0xaf1d	-0.11115
14	0x2ef9	0.10895
15	0x395d	0.6704
16	0x2d83	0.0861
17	0x3241	0.1954
18	0x2c8c	0.07104
19	0xb877	-0.558
20	0x3282	0.2034
21	0x2567	0.0211
22	0x36d2	0.4263
23	0x273f	0.0283
24	0xb2fd	-0.2184
25	0x3615	0.3801
26	0x342b	0.2605
27	0x2c70	0.06934
28	0x3279	0.2023
29	0x314b	0.1654
30	0xa874	-0.0348
31	0xbca1	-1.157
32	0xb69f	-0.4138
33	0xb41e	-0.2573
34	0x3291	0.2052
35	0x3442	0.266
36	0xb53a	-0.3267
37	0x38e0	0.6094
38	0xbc6c	-1.105
39	0xba00	-0.75
40	0x30e7	0.1532
41	0xb4a7	-0.2908
42	0x3427	0.2595
43	0x2da0	0.0879
44	0xb7d3	-0.489
45	0x1d0b	0.004925
46	0x3415	0.2551
47	0x374c	0.456
48	0xaf79	-0.11676
49	0x311a	0.1594
50	0xb440	-0.2656
51	0x170c	0.00172
52	0x2f9a	0.1188
53	0xab9d	-0.05948
54	0xb4ac	-0.292
55	0xb0af	-0.1464
56	0xb5dd	-0.3665
57	0xa84d	-0.0336
58	0xac95	-0.0716
59	0xb81f	-0.515
60	0xb6ad	-0.4172
61	0x386b	0.5522
62	0x32b5	0.2096
63	0x35e5	0.3684
64	0xb757	-0.4587
65	0x301c	0.1284
66	0xa3cf	-0.01525
67	0xae09	-0.0943
68	0xb5fa	-0.3735
69	0x2c92	0.0714
70	0xb666	-0.4
71	0x9f3d	-0.00707
72	0xb864	-0.549
73	0x3178	0.1709
74	0xb485	-0.2825
75	0xb71b	-0.444
76	0x340d	0.2532
77	0xb20a	-0.1887
78	0x3060	0.1367
79	0xb659	-0.3967
80	0x3728	0.4473
81	0xb798	-0.4746
82	0x39a7	0.7065
83	0xb08c	-0.1421
84	0x32f5	0.2174
85	0xb456	-0.271
86	0xb634	-0.3877
87	0xaae0	-0.0537
88	0x330c	0.2202
89	0x34d7	0.3025
90	0x3673	0.403
91	0x296d	0.0424
92	0xb673	-0.403
93	0xb6f8	-0.4355
94	0x3a58	0.793
95	0x3097	0.1434
96	0x35b6	0.357
97	0x36df	0.4294
98	0xb8b4	-0.588
99	0xa898	-0.0359
100	0xb720	-0.4453
101	0x3845	0.5337
102	0xb819	-0.512
103	0xb1e5	-0.1842
104	0x37c0	0.4844
105	0x1e33	0.006054
106	0x295e	0.04193
107	0x3352	0.2288
108	0xa015	-0.00797
109	0xb1dd	-0.1832
110	0x34b0	0.293
111	0xb50c	-0.3154
112	0x38b2	0.587
113	0x3378	0.2334
114	0x2870	0.03467
115	0xafbc	-0.12085
116	0xb50d	-0.3157
117	0xb84c	-0.537
118	0x32f3	0.2172
119	0x33c8	0.2432
120	0x2bef	0.06198
121	0x30f9	0.1554
122	0x3454	0.2705
123	0x2f5e	0.1151
124	0x24ed	0.01924
125	0x2d49	0.0826
126	0xafff	-0.12494
127	0xb528	-0.3223
128	0xb52b	-0.323
129	0xb167	-0.1688
130	0x2cec	0.0769
131	0x34a0	0.289
132	0xb48f	-0.285
133	0x9c51	-0.004215
134	0xbc1d	-1.028
135	0xac16	-0.06384
136	0x372b	0.448
137	0x2f9d	0.11896
138	0xa8e6	-0.03827
139	0xadc6	-0.0902
140	0x358f	0.3474
141	0x35d4	0.3643
142	0x3734	0.4502
143	0xba07	-0.7534
144	0xb951	-0.6646
145	0xb665	-0.3997
146	0x2e2b	0.0964
147	0xbab7	-0.8394
148	0x24e5	0.01912
149	0x1d94	0.005447
150	0x3471	0.2776
151	0xacd8	-0.0757
152	0xacc0	-0.0742
153	0x33e2	0.2463
154	0xac68	-0.06885
155	0x3204	0.188
156	0xb1f2	-0.1858
157	0xb62b	-0.3855
158	0xaa57	-0.04953
159	0x36a5	0.4153
160	0x2cab	0.07294
161	0x3600	0.375
162	0xb497	-0.2869
163	0x3513	0.3171
164	0x38e7	0.613
165	0x393b	0.654
166	0x364e	0.394
167	0x31cf	0.1815
168	0x2f65	0.11554
169	0x3702	0.438
170	0x31e8	0.1846
171	0x3487	0.283
172	0xab1b	-0.0555
173	0xb2fd	-0.2184
174	0x3730	0.4492
175	0xb906	-0.628
176	0xb1de	-0.1833
177	0xb65d	-0.3977
178	0x30b3	0.1469
179	0x348d	0.2844
180	0xb882	-0.5635
181	0x300e	0.1267
182	0x2d68	0.0845
183	0xaff7	-0.12445
184	0x31b9	0.1788
185	0xa9c0	-0.04492
186	0xaf4f	-0.1142
187	0x378b	0.4714
188	0x2d47	0.08246
189	0xa8d4	-0.03772
190	0xae62	-0.09973
191	0xaf28	-0.1118
192	0xb053	-0.1351
193	0xb5a5	-0.3528
194	0xb27e	-0.2029
195	0xb93f	-0.656
196	0x383d	0.53
197	0xaa00	-0.04688
198	0x3145	0.1647
199	0x28d3	0.0377
200	0xb5dc	-0.3662
201	0x3366	0.2312
202	0x33be	0.242
203	0xb1d4	-0.1821
204	0x378b	0.4714
205	0xb155	-0.1666
206	0xad88	-0.0864
207	0x38de	0.6084
208	0xad00	-0.0781
209	0xb0b4	-0.147
210	0xb147	-0.1649
211	0xb6e1	-0.43
212	0x2f1a	0.11096
213	0x3804	0.502
214	0xbc29	-1.04
215	0xa42e	-0.01633
216	0x2456	0.01694
217	0x3604	0.376
218	0x3c56	1.084
219	0xb3d8	-0.2451
220	0x3608	0.377
221	0xbb7b	-0.935
222	0x39f2	0.743
223	0x33a2	0.2385
224	0x327f	0.203
225	0x36c6	0.4233
226	0xb807	-0.5034
227	0x2ff6	0.1244
228	0xb9ec	-0.74
229	0x360f	0.3787
230	0xb6a4	-0.415
231	0x2c85	0.0706
232	0xaf68	-0.1157
233	0x2d6b	0.08466
234	0x30fc	0.1558
235	0xb0b0	-0.1465
236	0xb133	-0.1625
237	0x30f0	0.1543
238	0x37f6	0.4976
239	0x38db	0.607
240	0x38a7	0.5815
241	0x3c52	1.08
242	0xaf91	-0.1182
243	0xb420	-0.2578
244	0xb75d	-0.4602
245	0xb489	-0.2834
246	0xb603	-0.3757
247	0x2fc3	0.1213
248	0xad01	-0.0782
249	0x36ba	0.4204
250	0x2ee5	0.1077
251	0x3216	0.1902
252	0xacaa	-0.0729
253	0xb2d1	-0.213
254	0x2f75	0.1165
255	0xb8d1	-0.602

model/dense_1/MatMul f2 [25, 64]
0	0x377b	0.4675
1	0xb6c1	-0.422
2	0xbf45	-1.817
3	0xbb2e	-0.8975
4	0xad39	-0.0816
5	0x35e7	0.369
6	0xadd3	-0.091
7	0x30ca	0.1497
8	0xbb99	-0.9497
9	0x2183	0.010765
10	0xb1f6	-0.1863
11	0xbc2a	-1.041
12	0xad54	-0.08325
13	0xb6b3	-0.4187
14	0x342f	0.2615
15	0xb1d3	-0.182
16	0x2a1b	0.0477
17	0x3433	0.2625
18	0x2a2b	0.0482
19	0xba46	-0.784
20	0x360f	0.3787
21	0x3733	0.45
22	0x31cd	0.1813
23	0xb310	-0.2207
24	0xb6f3	-0.4343
25	0xabc1	-0.06058
26	0xbaf4	-0.869
27	0xbb2f	-0.898
28	0xb4e3	-0.3054
29	0xb83b	-0.529
30	0xba96	-0.823
31	0xb13a	-0.1633
32	0x3653	0.3953
33	0xb50c	-0.3154
34	0x35f0	0.371
35	0xb7ab	-0.4792
36	0x3409	0.2522
37	0xb45a	-0.272
38	0xb873	-0.556
39	0x365d	0.3977
40	0x36c1	0.422
41	0xa187	-0.010796
42	0x32c2	0.2112
43	0xb6c8	-0.4238
44	0xb82f	-0.523
45	0x31a0	0.1758
46	0x32fc	0.2183
47	0xb041	-0.1329
48	0x29a6	0.04413
49	0xb4f9	-0.3108
50	0xb98f	-0.695
51	0x3232	0.1936
52	0x2c8a	0.0709
53	0x2c2c	0.0652
54	0x9335	-0.00088
55	0x3086	0.1414
56	0x2a30	0.04834
57	0xb808	-0.504
58	0x35b7	0.3572
59	0xb214	-0.19
60	0x37cb	0.487
61	0x3712	0.442
62	0x2a5b	0.04965
63	0x38c3	0.595
64	0x378a	0.4712
65	0xb53f	-0.328
66	0x2e33	0.09686
67	0xbeba	-1.682
68	0xba9c	-0.826
69	0xb7ea	-0.4946
70	0x37f1	0.4963
71	0xbb07	-0.8784
72	0x3359	0.2296
73	0xb4e0	-0.3047
74	0x2fda	0.1227
75	0x353f	0.328
76	0x384f	0.5386
77	0x353a	0.3267
78	0x3234	0.1938
79	0xbe54	-1.582
80	0x3a52	0.79
81	0x359a	0.35
82	0xb0e3	-0.1527
83	0x391d	0.639
84	0x3148	0.165
85	0x356e	0.3394
86	0xc022	-2.066
87	0xb294	-0.2056
88	0xc046	-2.137
89	0xb451	-0.2698
90	0x36c8	0.4238
91	0x37b9	0.4827
92	0xb60d	-0.3782
93	0x30e4	0.1528
94	0xb2f6	-0.2175
95	0x2538	0.02039
96	0x3446	0.267
97	0xbc72	-1.111
98	0xbdde	-1.467
99	0x355e	0.3354
100	0xc0e7	-2.451
101	0x3505	0.3137
102	0x39bb	0.7163
103	0xb9d8	-0.7305
104	0xb8b8	-0.59
105	0x3229	0.1925
106	0x24b1	0.01833
107	0xbe14	-1.52
108	0xb627	-0.3845
109	0x30dc	0.1519
110	0xb1bd	-0.1793
111	0x35cb	0.362
112	0xb083	-0.141
113	0xb484	-0.2822
114	0xb270	-0.2012
115	0x3706	0.439
116	0xbd30	-1.297
117	0x3114	0.1587
118	0x344f	0.2693
119	0xb027	-0.1298
120	0xb397	-0.2372
121	0x321b	0.1908
122	0xb4e4	-0.3057
123	0xb160	-0.168
124	0xc0a9	-2.33
125	0x3763	0.4617
126	0xaafe	-0.05463
127	0x31e2	0.1838
128	0xb758	-0.459
129	0xb83d	-0.53
130	0xb1f9	-0.1866
131	0xbad8	-0.8555
132	0xbd37	-1.304
133	0xbeac	-1.668
134	0x34e7	0.3064
135	0xb12e	-0.1619
136	0x34cc	0.2998
137	0xaf4d	-0.1141
138	0xb4ab	-0.2917
139	0xa618	-0.0238
140	0x3944	0.658
141	0x353d	0.3274
142	0xb431	-0.262
143	0x2e80	0.10156
144	0x35cd	0.3625
145	0x2d9b	0.0876
146	0xad4a	-0.08264
147	0x2d77	0.0854
148	0x3818	0.5117
149	0x37e6	0.4937
150	0x346f	0.277
151	0x30fd	0.1559
152	0x250f	0.01976
153	0xc165	-2.697
154	0xb9c3	-0.72
155	0xb59f	-0.3513
156	0xb4e0	-0.3047
157	0xabe9	-0.0618
158	0xbb1b	-0.888
159	0x341e	0.2573
160	0x2d76	0.0853
161	0xb513	-0.3171
162	0xbef6	-1.74
163	0x38ed	0.6157
164	0x37b3	0.4812
165	0xb182	-0.1721
166	0x38b3	0.5874
167	0xb64c	-0.3936
168	0x35c0	0.3594
169	0x2f48	0.1138
170	0x38f7	0.6206
171	0xb12f	-0.162
172	0xb661	-0.3987
173	0xb40c	-0.253
174	0xaf74	-0.11646
175	0xb325	-0.2233
176	0xb45c	-0.2725
177	0xa805	-0.0314
178	0xbd03	-1.253
179	0x32b3	0.2094
180	0xb4bf	-0.2966
181	0x3865	0.5493
182	0x3898	0.574
183	0xb745	-0.4543
184	0xae78	-0.1011
185	0x380b	0.5054
186	0xc316	-3.543
187	0xb202	-0.1877
188	0xbc7b	-1.12
189	0x354e	0.3315
190	0x36cc	0.4248
191	0xb2cc	-0.2124
192	0xb8d6	-0.6045
193	0xb30b	-0.2201
194	0x38f1	0.6177
195	0xb9f2	-0.743
196	0x36cc	0.4248
197	0xbd94	-1.395
198	0x314b	0.1654
199	0x2d90	0.0869
200	0xb65c	-0.3975
201	0xb09d	-0.1442
202	0x31df	0.1835
203	0x36bd	0.4211
204	0xb4f9	-0.3108
205	0xafd0	-0.1221
206	0xbc71	-1.11
207	0xb2fa	-0.218
208	0x37f7	0.4978
209	0xa9f3	-0.04648
210	0x2b01	0.05472
211	0xb204	-0.188
212	0x304c	0.1343
213	0x3137	0.163
214	0xbc6c	-1.105
215	0xa55d	-0.02095
216	0x35cb	0.362
217	0xb444	-0.2666
218	0x3255	0.1979
219	0x3402	0.2505
220	0xb648	-0.3926
221	0x3401	0.2502
222	0x3630	0.3867
223	0xb4d2	-0.3013
224	0x381a	0.5127
225	0xbb57	-0.9175
226	0xbabd	-0.8423
227	0x3536	0.3257
228	0xb5b3	-0.3562
229	0xb9ad	-0.7095
230	0x38ad	0.5845
231	0xb6ee	-0.433
232	0xb5ab	-0.3542
233	0x30df	0.1522
234	0x3af0	0.867
235	0xb813	-0.5093
236	0xbf00	-1.75
237	0xa96f	-0.04245
238	0xb2af	-0.2089
239	0x30d6	0.1511
240	0x9a95	-0.003214
241	0x2c77	0.06976
242	0x3a40	0.7812
243	0x3684	0.4072
244	0xb3b4	-0.2407
245	0x35f5	0.3723
246	0x34e5	0.306
247	0x2a67	0.05002
248	0xa9d7	-0.04562
249	0x2a0d	0.04727
250	0xb9c5	-0.721
251	0xb2e0	-0.2148
252	0xb9d8	-0.7305
253	0xb5ab	-0.3542
254	0x2fb9	0.12067
255	0x2d86	0.0863
