models/tab_digit_cnn.tflite (tflite, 226076 bytes, 10 tensors)

model/conv2d/BiasAdd/ReadVariableOp f2 [32]
0	0xb772	-0.4653
1	0xac2a	-0.06506
2	0x2843	0.0333
3	0x2d26	0.08044
4	0xa019	-0.008
5	0xa66e	-0.02512
6	0x2b8f	0.05905
7	0x2c4c	0.06714
8	0xb705	-0.4387
9	0xb896	-0.573
10	0x210b	0.00985
11	0xaa5c	-0.04968
12	0xb80e	-0.507
13	0xa18f	-0.01086
14	0x28dd	0.038
15	0xb526	-0.3218
16	0xb00e	-0.1267
17	0xb00f	-0.1268
18	0x2749	0.02846
19	0x2588	0.0216
20	0x2761	0.02882
21	0xb859	-0.5435
22	0xb059	-0.1359
23	0xb3b7	-0.2411
24	0xa195	-0.0109
25	0xa13c	-0.01022
26	0xad14	-0.07935
27	0xa28b	-0.01278
28	0xb869	-0.5513
29	0xa110	-0.00989
30	0x295e	0.04193
31	0x9da6	-0.005516

model/conv2d_1/BiasAdd/ReadVariableOp f2 [64]
0	0x224a	0.01228
1	0x2914	0.03967
2	0x3027	0.1298
3	0x2c8c	0.07104
4	0x2839	0.033
5	0x294c	0.04138
6	0xa886	-0.03534
7	0xa72c	-0.02802
8	0xae87	-0.102
9	0xaa00	-0.04688
10	0xb00b	-0.1263
11	0x2df0	0.0928
12	0x2586	0.02158
13	0xaaf5	-0.05435
14	0x1c41	0.004154
15	0xafba	-0.1207
16	0xa490	-0.01782
17	0x2c3a	0.06604
18	0xaf8d	-0.118
19	0xad59	-0.08356
20	0x2341	0.01417
21	0xb03b	-0.1322
22	0xab87	-0.0588
23	0x2bd1	0.06107
24	0xae5e	-0.0995
25	0x22c5	0.01322
26	0x1d74	0.005325
27	0xb194	-0.1743
28	0xa6e2	-0.02689
29	0x24b0	0.01831
30	0xa341	-0.01417
31	0x2da9	0.08844
32	0x2a25	0.048
33	0x2a95	0.05142
34	0xacf4	-0.0774
35	0x2b72	0.05817
36	0xa969	-0.04227
37	0xa7c5	-0.03035
38	0xa8af	-0.0366
39	0xaa3a	-0.04865
40	0xad70	-0.08496
41	0x93a0	-0.000931
42	0x9cca	-0.004677
43	0xb0c9	-0.1495
44	0xa4bc	-0.0185
45	0x2b4f	0.0571
46	0xac26	-0.0648
47	0xa60a	-0.02359
48	0xb080	-0.1406
49	0xae71	-0.10065
50	0xace3	-0.07635
51	0x2cbc	0.074
52	0xa1e4	-0.011505
53	0xb406	-0.2515
54	0x214b	0.01034
55	0xa4b9	-0.01845
56	0x2495	0.0179
57	0xb17b	-0.1713
58	0x2251	0.01234
59	0x2c0d	0.0633
60	0xad51	-0.08307
61	0x24c3	0.0186
62	0x296f	0.04245
63	0x26ba	0.02628

model/conv2d_2/BiasAdd/ReadVariableOp f2 [128]
0	0xaea8	-0.104
1	0x30c9	0.1495
2	0xb3d1	-0.2443
3	0xb141	-0.1642
4	0xb2b9	-0.2101
5	0xab7c	-0.05847
6	0x301f	0.1288
7	0xa559	-0.02089
8	0xa402	-0.01566
9	0x1edf	0.00671
10	0x2cd4	0.07544
11	0xafd4	-0.1223
12	0xa584	-0.02155
13	0xac28	-0.06494
14	0xb136	-0.1628
15	0xad5b	-0.0837
16	0xae60	-0.0996
17	0x2016	0.00798
18	0xaf74	-0.11646
19	0xae50	-0.09863
20	0xb2b0	-0.209
21	0x3301	0.2189
22	0xaa35	-0.0485
23	0xafb7	-0.12054
24	0xb023	-0.1293
25	0xac43	-0.0666
26	0xadb2	-0.089
27	0xa86f	-0.03464
28	0xb144	-0.1646
29	0xaec5	-0.1058
30	0xb296	-0.2058
31	0xb318	-0.2217
32	0xa81a	-0.03204
33	0xae8d	-0.10236
34	0xb1e4	-0.1841
35	0xaccf	-0.07513
36	0xa862	-0.03424
37	0xa6a6	-0.02597
38	0xa4fc	-0.01947
39	0xafc6	-0.12146
40	0x2caa	0.0729
41	0xb342	-0.2268
42	0xae2b	-0.0964
43	0xb11b	-0.1595
44	0xb355	-0.2291
45	0xb173	-0.1703
46	0xabf2	-0.06207
47	0x2674	0.0252
48	0x2cd3	0.0754
49	0xb026	-0.1296
50	0xb0e9	-0.1534
51	0xb06c	-0.1382
52	0xb1ce	-0.1814
53	0xb26e	-0.2009
54	0xa767	-0.02892
55	0xb22a	-0.1926
56	0xb377	-0.2333
57	0xb137	-0.163
58	0x2b8c	0.05896
59	0x2d3b	0.0817
60	0xa62f	-0.02415
61	0xb1a1	-0.1759
62	0xa9c6	-0.0451
63	0xab01	-0.05472
64	0xab4a	-0.05695
65	0x251a	0.01993
66	0xb21d	-0.191
67	0xb0f1	-0.1544
68	0x2ef7	0.1088
69	0xa923	-0.04013
70	0xa2f1	-0.01356
71	0xb018	-0.1279
72	0xb2f1	-0.2169
73	0xadc6	-0.0902
74	0x28c6	0.0373
75	0xaadb	-0.05356
76	0xb067	-0.1376
77	0xad61	-0.08405
78	0xa849	-0.03348
79	0xa1ec	-0.011566
80	0xb215	-0.1901
81	0xb228	-0.1924
82	0xacff	-0.07806
83	0x308b	0.142
84	0x983b	-0.002066
85	0x2908	0.0393
86	0xadd8	-0.0913
87	0x2d1a	0.0797
88	0x1a28	0.003006
89	0xacd5	-0.0755
90	0xb00f	-0.1268
91	0x28b1	0.03665
92	0xacaf	-0.0732
93	0xafb4	-0.12036
94	0x2cd4	0.07544
95	0xa438	-0.01648
96	0xae0b	-0.0944
97	0x2d3e	0.0819
98	0xb2ce	-0.2126
99	0xa588	-0.0216
100	0xad87	-0.08636
101	0x2695	0.02571
102	0xa8e7	-0.0383
103	0xae7d	-0.1014
104	0xa2aa	-0.013016
105	0x299b	0.0438
106	0xaa4e	-0.04926
107	0x2d3c	0.0818
108	0x36c4	0.4229
109	0x31e4	0.1841
110	0xb1ce	-0.1814
111	0xaef9	-0.10895
112	0xafea	-0.12366
113	0xb0b3	-0.1469
114	0xa10d	-0.009865
115	0xab56	-0.0573
116	0x262c	0.02411
117	0x3087	0.1415
118	0xb190	-0.1738
119	0xb0a4	-0.145
120	0x2418	0.01599
121	0x290e	0.0395
122	0x1a20	0.00299
123	0x29b9	0.0447
124	0x2e1b	0.0954
125	0x2357	0.014336
126	0x28bf	0.03708
127	0x34dd	0.304

model/conv2d/Conv2D f2 [32, 3, 3, 1]
0	0xb4ff	-0.3123
1	0xb445	-0.2668
2	0x2e44	0.0979
3	0xb76d	-0.464
4	0x3058	0.1357
5	0x355c	0.335
6	0xa60b	-0.0236
7	0x3756	0.4585
8	0x36c2	0.4224
9	0x3216	0.1902
10	0xacbe	-0.0741
11	0xa473	-0.01738
12	0x36b1	0.4182
13	0x2d9b	0.0876
14	0xb8a1	-0.5786
15	0x3562	0.3364
16	0x3282	0.2034
17	0xb506	-0.314
18	0x35b3	0.3562
19	0x37ee	0.4956
20	0x2f19	0.1109
21	0x37d0	0.4883
22	0x304f	0.1346
23	0xb61a	-0.3813
24	0xae7d	-0.1014
25	0xb8db	-0.607
26	0xb8a7	-0.5815
27	0xbc78	-1.117
28	0xb731	-0.4495
29	0xb0e2	-0.1526
30	0xb238	-0.1943
31	0x3463	0.2742
32	0x367d	0.4055
33	0xac0a	-0.0631
34	0x32e8	0.2158
35	0x336a	0.2317
36	0x2a5f	0.04977
37	0xb0e1	-0.1525
38	0xb669	-0.4006
39	0x3403	0.2507
40	0x3396	0.237
41	0xb29f	-0.2069
42	0xa253	-0.01235
43	0x3480	0.2812
44	0x2237	0.01214
45	0x3473	0.278
46	0xaf0f	-0.1103
47	0xa8de	-0.03802
48	0x34ee	0.308
49	0xb132	-0.1624
50	0xb217	-0.1903
51	0x36b6	0.4194
52	0x9a6d	-0.003138
53	0xb5c5	-0.3606
54	0x33a7	0.2391
55	0x2ed9	0.107
56	0xb161	-0.1681
57	0x3533	0.325
58	0x198d	0.00271
59	0xb6ba	-0.4204
60	0x341f	0.2576
61	0xaf76	-0.1166
62	0xb41e	-0.2573
63	0x3643	0.3914
64	0x32ec	0.2163
65	0x3266	0.2
66	0x2dd9	0.0914
67	0x342e	0.2612
68	0x2fbe	0.121
69	0xb6ad	-0.4172
70	0xb845	-0.5337
71	0xb70d	-0.4407
72	0x37e6	0.4937
73	0x30e2	0.1526
74	0xb63b	-0.3894
75	0x3597	0.3494
76	0x3343	0.2269
77	0xb4a9	-0.2913
78	0x33d4	0.2446
79	0x347c	0.2803
80	0xacb6	-0.0736
81	0x35b6	0.357
82	0x355a	0.3345
83	0xa7a6	-0.02988
84	0x300a	0.1262
85	0x3370	0.2324
86	0xa95b	-0.04184
87	0x2916	0.03973
88	0x301f	0.1288
89	0xabf8	-0.06226
90	0x2a0a	0.04718
91	0xb55d	-0.3352
92	0xb827	-0.519
93	0x31fb	0.1869
94	0xadd3	-0.091
95	0xb4a0	-0.289
96	0x37ae	0.48
97	0x3685	0.4075
98	0x24f2	0.01932
99	0x3477	0.279
100	0x31ee	0.1853
101	0xb509	-0.3147
102	0x316c	0.1694
103	0x3208	0.1885
104	0xac4f	-0.0673
105	0x2ecd	0.10626
106	0xa9a7	-0.04416
107	0xb3a8	-0.2393
108	0xb02d	-0.1305
109	0x3491	0.2854
110	0x317e	0.1716
111	0xb4d7	-0.3025
112	0x3423	0.2585
113	0x32d5	0.2135
114	0xb40d	-0.2532
115	0x383c	0.5293
116	0x37b4	0.4814
117	0x21be	0.011215
118	0x31b8	0.1787
119	0x2f17	0.1108
120	0xb840	-0.5312
121	0x3220	0.1914
122	0x36c7	0.4236
123	0xb896	-0.573
124	0xa56b	-0.02116
125	0x374a	0.4556
126	0xb4d1	-0.301
127	0xb958	-0.668
128	0xb79d	-0.4758
129	0xadd0	-0.0908
130	0xafbe	-0.121
131	0x3418	0.2559
132	0x3442	0.266
133	0x38ef	0.6167
134	0x3874	0.5566
135	0xa779	-0.02919
136	0x3304	0.2192
137	0x1fbe	0.00756
138	0xb24a	-0.1965
139	0x35b5	0.3567
140	0xadb7	-0.0893
141	0x329c	0.2065
142	0x351e	0.3198
143	0xa6f8	-0.02722
144	0xa9c6	-0.0451
145	0x350e	0.316
146	0x30e4	0.1528
147	0xacf8	-0.07764
148	0x3439	0.264
149	0x3416	0.2554
150	0xb6f0	-0.4336
151	0xb461	-0.2737
152	0x27fa	0.03116
153	0xb27e	-0.2029
154	0xb49f	-0.2888
155	0xa133	-0.010155
156	0xae35	-0.097
157	0x3318	0.2217
158	0x31d1	0.1818
159	0x365a	0.397
160	0x3591	0.348
161	0x255e	0.02097
162	0xb28c	-0.2046
163	0x3017	0.1278
164	0x372e	0.4487
165	0xb3b6	-0.241
166	0xae79	-0.10114
167	0x34ca	0.2993
168	0xb3f9	-0.2491
169	0xb407	-0.2517
170	0x2f4b	0.11395
171	0x359d	0.3508
172	0x354e	0.3315
173	0x34b8	0.295
174	0xad00	-0.0781
175	0x2dec	0.0925
176	0x3052	0.135
177	0xb79b	-0.4753
178	0xb6ef	-0.4333
179	0xb4ad	-0.2922
180	0xb33b	-0.226
181	0xaaac	-0.05212
182	0x354a	0.3306
183	0xb6b6	-0.4194
184	0xb063	-0.1371
185	0x3464	0.2744
186	0xb4e6	-0.3062
187	0x2cd5	0.0755
188	0x36ea	0.4321
189	0xa37d	-0.014626
190	0x3318	0.2217
191	0x3144	0.1646
192	0x3549	0.3303
193	0x36c6	0.4233
194	0xb46c	-0.2764
195	0x362b	0.3855
196	0x347f	0.281
197	0xb5ea	-0.3696
198	0xb686	-0.4077
199	0xb0eb	-0.1537
200	0xad56	-0.0834
201	0xb507	-0.3142
202	0x3479	0.2795
203	0x34cb	0.2996
204	0x2c06	0.06287
205	0x3590	0.3477
206	0x31e2	0.1838
207	0xae57	-0.09906
208	0x18d8	0.002365
209	0x35dd	0.3665
210	0xb581	-0.344
211	0x3433	0.2625
212	0x3684	0.4072
213	0xb037	-0.1317
214	0x2448	0.01672
215	0x315b	0.1674
216	0xb50c	-0.3154
217	0x325b	0.1986
218	0x2d8e	0.0868
219	0x2728	0.02795
220	0x3345	0.2272
221	0xa8bd	-0.03702
222	0x34ce	0.3003
223	0x20af	0.00915
224	0xb5f7	-0.3728
225	0xb9b7	-0.7144
226	0xb542	-0.3286
227	0x326b	0.2006
228	0xb38e	-0.2361
229	0x3017	0.1278
230	0x3030	0.1309
231	0x37e8	0.4941
232	0x374e	0.4565
233	0xacc7	-0.07465
234	0x32d6	0.2136
235	0x24e5	0.01912
236	0xaf2e	-0.1122
237	0x3423	0.2585
238	0x2d41	0.0821
239	0xb34a	-0.2278
240	0x332e	0.2244
241	0xb020	-0.1289
242	0xaca2	-0.0724
243	0xb079	-0.1398
244	0xab03	-0.05478
245	0x221f	0.011955
246	0x1c82	0.004402
247	0xae81	-0.1016
248	0xb475	-0.2786
249	0x33b9	0.2413
250	0x34b2	0.2935
251	0x2051	0.00843
252	0x9df2	-0.005806
253	0x3281	0.2032
254	0x2aa1	0.0518
255	0x2d10	0.0791

model/conv2d_1/Conv2D f2 [64, 3, 3, 32]
0	0x2f59	0.1148
1	0x2ea8	0.104
2	0xa823	-0.03232
3	0xa8e4	-0.0382
4	0x2949	0.0413
5	0xb3ad	-0.2399
6	0xaee7	-0.10785
7	0x1c74	0.00435
8	0x2c75	0.06964
9	0x2db2	0.089
10	0x3182	0.1721
11	0x30b0	0.1465
12	0xa79f	-0.02977
13	0x2e65	0.0999
14	0x3243	0.1957
15	0x2cea	0.0768
16	0x241b	0.01604
17	0x29b4	0.04456
18	0xa2ad	-0.01304
19	0xaf11	-0.1104
20	0x334c	0.228
21	0x278f	0.02953
22	0x307c	0.1401
23	0x2615	0.02376
24	0x304e	0.1345
25	0x3277	0.202
26	0x3139	0.1632
27	0x2024	0.00809
28	0x2fd4	0.1223
29	0x2c67	0.0688
30	0xa969	-0.04227
31	0xa91c	-0.03992
32	0xae26	-0.09607
33	0x2f21	0.1114
34	0xb41e	-0.2573
35	0xb538	-0.3262
36	0x2d11	0.07916
37	0x319a	0.175
38	0x2764	0.02887
39	0xb31d	-0.2223
40	0x1d07	0.00491
41	0x2e3e	0.09753
42	0x297d	0.04288
43	0x27f8	0.03113
44	0xad48	-0.0825
45	0xb1e1	-0.1837
46	0x2d79	0.0855
47	0xa018	-0.007996
48	0xaa57	-0.04953
49	0x2dd0	0.0908
50	0xb84a	-0.536
51	0xb56d	-0.339
52	0xba2d	-0.772
53	0x2e28	0.0962
54	0xa79d	-0.02974
55	0x1fa8	0.007477
56	0x33ad	0.2399
57	0x3249	0.1964
58	0x9f96	-0.00741
59	0x2c13	0.06366
60	0xa9a4	-0.04407
61	0x30d0	0.1504
62	0xb5bc	-0.3584
63	0x2ddb	0.0915
64	0xb4ab	-0.2917
65	0xabe4	-0.06165
66	0xaef4	-0.10864
67	0xb7ce	-0.4878
68	0x3045	0.1334
69	0x328d	0.2047
70	0x315f	0.1678
71	0x3192	0.1741
72	0xb1d1	-0.1818
73	0xa340	-0.01416
74	0x2d34	0.0813
75	0xa801	-0.03128
76	0xb202	-0.1877
77	0xb381	-0.2345
78	0xb3be	-0.242
79	0xa86d	-0.03458
80	0xa217	-0.011894
81	0xadd6	-0.0912
82	0xa688	-0.02551
83	0x356d	0.339
84	0xb977	-0.683
85	0xad23	-0.08026
86	0xb27c	-0.2026
87	0xb32c	-0.2241
88	0x30a8	0.1455
89	0xb0a4	-0.145
90	0xb162	-0.1682
91	0xad79	-0.0855
92	0xb110	-0.1582
93	0x2c4e	0.06726
94	0x3584	0.3447
95	0x302f	0.1307
96	0xac41	-0.06647
97	0xa48e	-0.01779
98	0x338d	0.236
99	0xb459	-0.2717
100	0xaf3d	-0.1131
101	0xb2b7	-0.2098
102	0xb47b	-0.28
103	0x3609	0.3772
104	0x258c	0.02167
105	0x2bc1	0.06058
106	0xb43a	-0.2642
107	0x281c	0.0321
108	0xa5e2	-0.02298
109	0x9e79	-0.00632
110	0xa88a	-0.03546
111	0x2b3c	0.05652
112	0x325d	0.1989
113	0xa2e1	-0.013435
114	0x35eb	0.3699
115	0x388b	0.568
116	0x2dc6	0.0902
117	0xab8e	-0.05902
118	0x9208	-0.000736
119	0xa90e	-0.0395
120	0x3178	0.1709
121	0x24c7	0.01866
122	0x1db3	0.005566
123	0x2d2b	0.08075
124	0x215a	0.01045
125	0xb270	-0.2012
126	0x3828	0.5195
127	0xafd8	-0.12256
128	0xb1fe	-0.1873
129	0x2d55	0.0833
130	0xb5e2	-0.3677
131	0xb9cf	-0.726
132	0x3477	0.279
133	0xae7f	-0.1015
134	0xa3e3	-0.0154
135	0x33d5	0.2448
136	0x1d61	0.005253
137	0xa6a8	-0.026
138	0x2b2f	0.05612
139	0xa3b7	-0.01507
140	0xac0e	-0.06335
141	0x2e73	0.10077
142	0xafe5	-0.12335
143	0xac2a	-0.06506
144	0x2c01	0.06256
145	0xb0a6	-0.1453
146	0xb45b	-0.2722
147	0x35c2	0.3599
148	0xb2ea	-0.2161
149	0xae06	-0.0941
150	0xae17	-0.09515
151	0xb14e	-0.1658
152	0xb4ca	-0.2993
153	0xb0a7	-0.1454
154	0x2cb0	0.07324
155	0x1e34	0.006058
156	0x23a7	0.014946
157	0x3305	0.2194
158	0x3107	0.1571
159	0xaed0	-0.10645
160	0xb15d	-0.1676
161	0x2c6a	0.069
162	0xbbc3	-0.97
163	0xb990	-0.6953
164	0x378f	0.4724
165	0x3483	0.282
166	0x317a	0.1711
167	0xb896	-0.573
168	0x0c64	0.000268
169	0xacc1	-0.0743
170	0x3668	0.4004
171	0xa8c4	-0.03723
172	0xacf9	-0.0777
173	0xad27	-0.0805
174	0x26f3	0.02715
175	0xafa1	-0.1192
176	0xb0eb	-0.1537
177	0xa488	-0.0177
178	0xb571	-0.34
179	0xb469	-0.2756
180	0xb4b1	-0.2932
181	0xaaf6	-0.05438
182	0x9d5a	-0.005226
183	0xaf09	-0.1099
184	0x17b3	0.00188
185	0x296e	0.04242
186	0xadf7	-0.0932
187	0x2bd8	0.06128
188	0xb028	-0.1299
189	0x3725	0.4465
190	0xb535	-0.3254
191	0xa855	-0.03384
192	0xb23e	-0.1951
193	0xb55e	-0.3354
194	0x367e	0.4058
195	0xb4cb	-0.2996
196	0xb5fa	-0.3735
197	0xa360	-0.014404
198	0xb23b	-0.1947
199	0x3874	0.5566
200	0xb435	-0.263
201	0xb23c	-0.1948
202	0xb22d	-0.193
203	0xb02f	-0.1307
204	0xaf0c	-0.1101
205	0xad49	-0.0826
206	0x2c81	0.0704
207	0xb0c0	-0.1484
208	0xad2c	-0.0808
209	0xb02f	-0.1307
210	0x34ac	0.292
211	0x3880	0.5625
212	0x34c5	0.298
213	0xb3f1	-0.2482
214	0xb298	-0.206
215	0xae62	-0.09973
216	0xa825	-0.03238
217	0xaa18	-0.0476
218	0xadd0	-0.0908
219	0xb1c3	-0.18
220	0xb214	-0.19
221	0xb70e	-0.441
222	0x3909	0.6294
223	0xac28	-0.06494
224	0xa393	-0.01479
225	0xb472	-0.2778
226	0xb581	-0.344
227	0xb3f3	-0.2484
228	0xaf77	-0.11664
229	0xb9ae	-0.71
230	0xb909	-0.6294
231	0xae15	-0.09503
232	0xb11c	-0.1597
233	0xaa24	-0.04797
234	0xb1aa	-0.177
235	0xad86	-0.0863
236	0x1e2b	0.006023
237	0x3403	0.2507
238	0x2fdd	0.12286
239	0x120c	0.000738
240	0xa41e	-0.01608
241	0x2c1a	0.0641
242	0x336d	0.232
243	0xa11c	-0.00998
244	0x36ce	0.4253
245	0xaebb	-0.10516
246	0x1faf	0.007504
247	0xa074	-0.0087
248	0xac77	-0.06976
249	0x3272	0.2014
250	0xaebe	-0.10535
251	0xad1e	-0.07996
252	0xac29	-0.065
253	0xb2a7	-0.2079
254	0x3076	0.1394
255	0xb6d5	-0.427

model/conv2d_2/Conv2D f2 [128, 3, 3, 64]
0	0x2b7c	0.05847
1	0xafb8	-0.1206
2	0x32c3	0.2113
3	0xaf79	-0.11676
4	0x2ae3	0.0538
5	0xacf5	-0.07745
6	0x2821	0.03226
7	0x2e73	0.10077
8	0x2f79	0.11676
9	0x2db0	0.08887
10	0x2c3a	0.06604
11	0x2e49	0.0982
12	0x31ea	0.1848
13	0x2c5e	0.06824
14	0x3053	0.1351
15	0x2fbb	0.1208
16	0xaac4	-0.05286
17	0x2801	0.03128
18	0xb18e	-0.1736
19	0xb4c5	-0.298
20	0x2ad7	0.05344
21	0xb324	-0.2231
22	0x2c5a	0.068
23	0xad2a	-0.0807
24	0x2040	0.0083
25	0x32fb	0.2181
26	0xb789	-0.471
27	0x2fb6	0.1205
28	0x2b9b	0.05942
29	0x2d97	0.08734
30	0x2652	0.02469
31	0xb40e	-0.2534
32	0xae24	-0.09595
33	0xb76b	-0.4636
34	0x28bc	0.037
35	0xae04	-0.094
36	0xb0fa	-0.1555
37	0x2cf6	0.0775
38	0x2d53	0.0832
39	0x234f	0.014275
40	0x2ff6	0.1244
41	0xa656	-0.02475
42	0xa831	-0.03275
43	0xabcc	-0.0609
44	0x2f8f	0.1181
45	0x3315	0.2213
46	0xa8cc	-0.03748
47	0x2f08	0.10986
48	0xa657	-0.02477
49	0xb04b	-0.1342
50	0xb31b	-0.222
51	0x2f2b	0.112
52	0x2169	0.01057
53	0x2a7c	0.05066
54	0xb153	-0.1664
55	0x30ba	0.1477
56	0x2c04	0.06274
57	0xb5a1	-0.3518
58	0x26c8	0.02649
59	0xb213	-0.1898
60	0xb165	-0.1686
61	0x2e5c	0.09937
62	0x3281	0.2032
63	0xa551	-0.02077
64	0x25e7	0.02306
65	0x2896	0.03583
66	0xa341	-0.01417
67	0xb025	-0.1295
68	0xac58	-0.0679
69	0x26bf	0.02635
70	0x2c2d	0.06525
71	0xacba	-0.07385
72	0xad06	-0.0785
73	0x2882	0.03522
74	0x28fc	0.03894
75	0x1726	0.001745
76	0x15c4	0.001408
77	0x2d66	0.08435
78	0x24c5	0.01863
79	0x2df0	0.0928
80	0x2fcb	0.12177
81	0x2c8c	0.07104
82	0xb0ca	-0.1497
83	0xb0c8	-0.1494
84	0x25c0	0.02246
85	0xac40	-0.0664
86	0x29e7	0.0461
87	0xac66	-0.0687
88	0x29d8	0.04565
89	0x2e6f	0.1005
90	0xab7e	-0.05853
91	0x2201	0.01173
92	0xa542	-0.02054
93	0x2ead	0.1043
94	0x2261	0.01246
95	0x1f3b	0.00706
96	0x29c6	0.0451
97	0x2626	0.02402
98	0x2f34	0.11255
99	0xae90	-0.10254
100	0x2b5a	0.05743
101	0x20fe	0.00975
102	0xadcf	-0.09076
103	0xac29	-0.065
104	0x3568	0.338
105	0xa37d	-0.014626
106	0xb056	-0.1355
107	0xb283	-0.2035
108	0x1954	0.002602
109	0x200b	0.0079
110	0xaf47	-0.1137
111	0x226c	0.01254
112	0xad8e	-0.0868
113	0xaf12	-0.1105
114	0xb214	-0.19
115	0x287e	0.0351
116	0x2d1f	0.08
117	0x295d	0.0419
118	0xabb7	-0.06027
119	0x2bdb	0.06137
120	0x2bdd	0.06143
121	0xadca	-0.09045
122	0x30a8	0.1455
123	0x2b50	0.05713
124	0xa8c7	-0.03732
125	0x2873	0.03476
126	0x28d1	0.03763
127	0x3016	0.1277
128	0x30fe	0.156
129	0x2e6c	0.10034
130	0x1c10	0.003967
131	0xb084	-0.1411
132	0xae79	-0.10114
133	0x325e	0.199
134	0x2d49	0.0826
135	0x220c	0.01181
136	0xa9a0	-0.04395
137	0xa593	-0.02177
138	0x2de4	0.09204
139	0x2857	0.0339
140	0x2d96	0.0873
141	0x2c30	0.0654
142	0xae03	-0.09393
143	0x3079	0.1398
144	0x2ece	0.1063
145	0x324e	0.197
146	0xb454	-0.2705
147	0xb40d	-0.2532
148	0x9104	-0.0006123
149	0xb056	-0.1355
150	0x2979	0.04276
151	0xb47f	-0.281
152	0x2e62	0.09973
153	0x2b72	0.05817
154	0x199c	0.002739
155	0x2979	0.04276
156	0xaaa8	-0.052
157	0xa451	-0.01686
158	0xab01	-0.05472
159	0x2891	0.03568
160	0xaa78	-0.05054
161	0x2816	0.03192
162	0x325c	0.1987
163	0xb1e9	-0.1847
164	0x2d77	0.0854
165	0x27c5	0.03035
166	0xad7b	-0.08563
167	0xb411	-0.2542
168	0x31a2	0.176
169	0xb542	-0.3286
170	0xb159	-0.1671
171	0xb2c7	-0.2118
172	0x3044	0.1333
173	0x3023	0.1293
174	0xb284	-0.2036
175	0xa1df	-0.01147
176	0xad5b	-0.0837
177	0xb10c	-0.1577
178	0xb4d1	-0.301
179	0x2dac	0.0886
180	0x2b93	0.05917
181	0x9fea	-0.00773
182	0x999b	-0.002737
183	0x2e66	0.1
184	0xaaa7	-0.05197
185	0xad36	-0.0814
186	0x30b9	0.1476
187	0x2f15	0.11066
188	0xa707	-0.02745
189	0xb025	-0.1295
190	0x2078	0.00873
191	0x316a	0.1692
192	0x264a	0.02457
193	0xae99	-0.1031
194	0xb0d9	-0.1515
195	0xb1e9	-0.1847
196	0x2db4	0.0891
197	0xb2c0	-0.2109
198	0x3483	0.282
199	0xb548	-0.33
200	0xb677	-0.404
201	0xb3b6	-0.241
202	0xac16	-0.06384
203	0xaba5	-0.05972
204	0xad34	-0.0813
205	0x2c36	0.0658
206	0xa8bd	-0.03702
207	0xaabd	-0.05264
208	0x29fe	0.0468
209	0xa9ba	-0.04474
210	0x218f	0.01086
211	0xa532	-0.0203
212	0xae4f	-0.0986
213	0xb37d	-0.234
214	0x2c34	0.0657
215	0xb459	-0.2717
216	0x30f6	0.155
217	0xae7b	-0.10126
218	0xaeb3	-0.1047
219	0x2b69	0.0579
220	0x22a6	0.012985
221	0x21f8	0.01166
222	0xa739	-0.02821
223	0xb3d2	-0.2444
224	0xad0a	-0.07874
225	0xb98e	-0.6943
226	0xaca2	-0.0724
227	0xae17	-0.09515
228	0xb619	-0.381
229	0x2c37	0.06586
230	0x945a	-0.001062
231	0xb119	-0.1593
232	0x3588	0.3457
233	0xadff	-0.0937
234	0xadc7	-0.0903
235	0x2d82	0.08606
236	0xa806	-0.03143
237	0xa878	-0.0349
238	0xafc4	-0.12134
239	0x18d0	0.00235
240	0x3040	0.1328
241	0xb2d5	-0.2135
242	0xa8ce	-0.03754
243	0xa965	-0.04214
244	0xaa45	-0.04898
245	0xaa88	-0.05103
246	0xae9a	-0.10315
247	0x31aa	0.177
248	0x300f	0.1268
249	0xae44	-0.0979
250	0xad3d	-0.08185
251	0xb25c	-0.1987
252	0xac2b	-0.0651
253	0x2c15	0.0638
254	0x24c1	0.01857
255	0x2ef0	0.1084

model/dense/BiasAdd/ReadVariableOp f2 [128]
0	0xa8e6	-0.03827
1	0x3225	0.192
2	0x3076	0.1394
3	0x1bd9	0.003832
4	0x365e	0.398
5	0xa57e	-0.02145
6	0x2fcd	0.1219
7	0x300b	0.1263
8	0xa9c3	-0.045
9	0x2fb9	0.12067
10	0x33ca	0.2434
11	0x2acb	0.05307
12	0x2d25	0.0804
13	0x30fa	0.1555
14	0x3011	0.1271
15	0xa8f3	-0.03867
16	0xa966	-0.04218
17	0x2dbc	0.0896
18	0x3276	0.2019
19	0x31b4	0.1782
20	0xa7ea	-0.03091
21	0x2fbd	0.1209
22	0x3045	0.1334
23	0xa4e0	-0.01904
24	0x34cc	0.2998
25	0x319c	0.1753
26	0x3231	0.1935
27	0x3398	0.2373
28	0x2d8b	0.0866
29	0x311a	0.1594
30	0xad49	-0.0826
31	0xa38a	-0.014725
32	0x2cc5	0.0745
33	0x32a0	0.207
34	0x29cf	0.04538
35	0x9c12	-0.003975
36	0xab01	-0.05472
37	0x309b	0.1439
38	0x2fdc	0.1228
39	0x3165	0.1686
40	0x2bdc	0.0614
41	0xaa65	-0.04996
42	0xacb6	-0.0736
43	0xaa0d	-0.04727
44	0x2c4f	0.0673
45	0x2d30	0.08105
46	0xaa83	-0.05087
47	0x2bd2	0.0611
48	0x2d8f	0.08685
49	0x3535	0.3254
50	0x30fe	0.156
51	0x2c65	0.06866
52	0x2dc1	0.0899
53	0x3236	0.1941
54	0xa628	-0.02405
55	0xa943	-0.0411
56	0x3171	0.17
57	0x34d8	0.3027
58	0xac2e	-0.0653
59	0x2ded	0.0926
60	0x330e	0.2205
61	0x32f7	0.2177
62	0xaa03	-0.04697
63	0x2c84	0.07056
64	0x2eb1	0.10455
65	0x2a5b	0.04965
66	0x312b	0.1615
67	0x29dc	0.04578
68	0x3094	0.1431
69	0x311b	0.1595
70	0x2dc2	0.08997
71	0x307f	0.1405
72	0x31e6	0.1843
73	0xa9de	-0.04584
74	0x2d6a	0.0846
75	0xa96b	-0.04233
76	0x2d4e	0.0829
77	0x31a2	0.176
78	0x313c	0.1636
79	0x32da	0.2141
80	0x30e0	0.1523
81	0x30a1	0.1447
82	0x3060	0.1367
83	0xa559	-0.02089
84	0x31cb	0.181
85	0x322f	0.1932
86	0x2ce9	0.0767
87	0xacab	-0.07294
88	0x2e6a	0.1002
89	0x29ed	0.0463
90	0x2859	0.03397
91	0x2bbe	0.0605
92	0xacf1	-0.0772
93	0xa7af	-0.03001
94	0x341b	0.2566
95	0x3126	0.1609
96	0x3329	0.2238
97	0x2fb7	0.12054
98	0xa8ff	-0.03903
99	0xab04	-0.0548
100	0x30f7	0.1552
101	0xa467	-0.0172
102	0x2c21	0.0645
103	0x2fe2	0.12317
104	0x308d	0.1422
105	0xaae0	-0.0537
106	0x2f4c	0.114
107	0x2d9b	0.0876
108	0x2c22	0.0646
109	0x2ed0	0.10645
110	0x2ca6	0.07263
111	0x328a	0.2043
112	0xaaa7	-0.05197
113	0xa9cb	-0.04526
114	0x2674	0.0252
115	0x3241	0.1954
116	0x30d9	0.1515
117	0x3039	0.132
118	0x291b	0.0399
119	0x32e5	0.2155
120	0xac48	-0.0669
121	0x30e6	0.1531
122	0xaf3a	-0.1129
123	0x28c6	0.0373
124	0x3113	0.1586
125	0x2f20	0.1113
126	0x2cce	0.0751
127	0x31bd	0.1793

model/dense_1/BiasAdd/ReadVariableOp f2 [10]
0	0xa9f7	-0.0466
1	0xaf01	-0.10944
2	0x2993	0.04355
3	0x233b	0.01412
4	0xa941	-0.04105
5	0xa9df	-0.04587
6	0xa55d	-0.02095
7	0x336a	0.2317
8	0x2a48	0.04907
9	0xaa0a	-0.04718

model/dense/MatMul f2 [128, 128]
0	0xaae1	-0.05374
1	0xacdf	-0.0761
2	0xb019	-0.128
3	0xa92c	-0.0404
4	0x1505	0.001225
5	0xaee6	-0.1078
6	0xab6f	-0.05807
7	0x3105	0.1569
8	0x3003	0.1254
9	0x2268	0.01251
10	0x29f6	0.04657
11	0x2913	0.03964
12	0x2d81	0.086
13	0x2cb8	0.0737
14	0xb010	-0.127
15	0xad59	-0.08356
16	0xa63b	-0.02434
17	0xae08	-0.09424
18	0xa41f	-0.0161
19	0x320c	0.189
20	0x8f69	-0.0004523
21	0x2926	0.04022
22	0x3086	0.1414
23	0x2c78	0.0698
24	0xac66	-0.0687
25	0x2957	0.04172
26	0xb02f	-0.1307
27	0x305a	0.136
28	0xb086	-0.1414
29	0x9e01	-0.005863
30	0xac09	-0.06305
31	0x211e	0.009995
32	0xa6fe	-0.02731
33	0x2aea	0.05402
34	0xa7b5	-0.0301
35	0xb238	-0.1943
36	0xaad8	-0.05347
37	0xa574	-0.0213
38	0xaf3b	-0.113
39	0x8275	-3.75e-05
40	0xaf4d	-0.1141
41	0x2c52	0.0675
42	0x318e	0.1736
43	0xb344	-0.227
44	0xae0d	-0.09454
45	0xb22f	-0.1932
46	0x2e6d	0.1004
47	0xada2	-0.088
48	0x25c4	0.02252
49	0xaffc	-0.12476
50	0xace4	-0.0764
51	0xac44	-0.06665
52	0x1d47	0.005154
53	0x2917	0.03976
54	0xb00c	-0.1265
55	0xb202	-0.1877
56	0x3086	0.1414
57	0x298a	0.04327
58	0xa688	-0.02551
59	0xb175	-0.1705
60	0x2458	0.01697
61	0x282a	0.03253
62	0xad5b	-0.0837
63	0x27c1	0.03029
64	0xa839	-0.033
65	0xaf87	-0.1176
66	0xa113	-0.00991
67	0x3087	0.1415
68	0xa282	-0.01271
69	0xad5f	-0.0839
70	0x28e1	0.03812
71	0xb00c	-0.1265
72	0xa15a	-0.01045
73	0xaf1f	-0.11127
74	0xac62	-0.0685
75	0x2e23	0.0959
76	0xa290	-0.01282
77	0x3048	0.1338
78	0xac6b	-0.06903
79	0x2acf	0.0532
80	0xb132	-0.1624
81	0x2835	0.03287
82	0xb147	-0.1649
83	0xa43f	-0.01659
84	0x2ce1	0.07623
85	0x2a2d	0.04825
86	0x9c1c	-0.004013
87	0x2749	0.02846
88	0x284f	0.03366
89	0xa8d6	-0.03778
90	0xadb5	-0.0892
91	0x2a83	0.05087
92	0xb133	-0.1625
93	0xafeb	-0.1237
94	0xa93d	-0.04092
95	0xad0a	-0.07874
96	0xacb9	-0.0738
97	0x25e1	0.02296
98	0xaa3c	-0.0487
99	0x2d5e	0.08386
100	0xae91	-0.1026
101	0xb02f	-0.1307
102	0x228a	0.01277
103	0xaece	-0.1063
104	0x308e	0.1423
105	0xaeeb	-0.1081
106	0x306e	0.1384
107	0xacaa	-0.0729
108	0xae59	-0.0992
109	0x2098	0.00897
110	0xacf5	-0.07745
111	0x2a00	0.04688
112	0xa017	-0.00799
113	0xa8cc	-0.03748
114	0xae66	-0.1
115	0x2df0	0.0928
116	0xb224	-0.1919
117	0x24c1	0.01857
118	0x24da	0.01895
119	0xaaf1	-0.05423
120	0x2d1f	0.08
121	0xb09c	-0.144
122	0xb149	-0.1652
123	0xa271	-0.01258
124	0xae14	-0.095
125	0xae2a	-0.0963
126	0x1861	0.002138
127	0xa37e	-0.01463
128	0xb62f	-0.3865
129	0xa8c2	-0.03717
130	0x31f2	0.1858
131	0x2c4f	0.0673
132	0x2c9e	0.07214
133	0x2f76	0.1166
134	0xaf9f	-0.1191
135	0x27cd	0.03047
136	0x2cc5	0.0745
137	0xb4ac	-0.292
138	0xb0fa	-0.1555
139	0x3155	0.1666
140	0x24e1	0.01906
141	0xb515	-0.3176
142	0x3254	0.1978
143	0xa24e	-0.012314
144	0xb2f0	-0.2168
145	0xb0ab	-0.1459
146	0x3134	0.1626
147	0x32bf	0.2108
148	0xb19d	-0.1754
149	0x2e49	0.0982
150	0xa726	-0.02792
151	0xacac	-0.073
152	0xb740	-0.4531
153	0xb871	-0.555
154	0xb2e8	-0.2158
155	0xae06	-0.0941
156	0x3472	0.2778
157	0x2bf2	0.06207
158	0x35cb	0.362
159	0x3146	0.1648
160	0xacf6	-0.0775
161	0xb389	-0.2355
162	0x30bf	0.1483
163	0x3231	0.1935
164	0x3091	0.1427
165	0xb034	-0.1313
166	0x34e5	0.306
167	0xb224	-0.1919
168	0x2ba9	0.05984
169	0xb727	-0.447
170	0x272d	0.02803
171	0xb846	-0.534
172	0xb4da	-0.3032
173	0xb1e1	-0.1837
174	0x2e2d	0.0965
175	0x3249	0.1964
176	0x3186	0.1726
177	0xac96	-0.07166
178	0xaf2a	-0.11194
179	0xb2f7	-0.2177
180	0x9f79	-0.007298
181	0xae48	-0.09814
182	0x2743	0.02837
183	0xb480	-0.2812
184	0xb047	-0.1337
185	0x2f04	0.1096
186	0xb505	-0.3137
187	0x2938	0.04077
188	0x2f4b	0.11395
189	0xb0de	-0.1521
190	0x3051	0.1349
191	0xacf6	-0.0775
192	0xb8a4	-0.58
193	0x302b	0.1302
194	0xaf81	-0.11725
195	0xafb1	-0.1202
196	0xb53f	-0.328
197	0x2858	0.03394
198	0x29db	0.04575
199	0x31eb	0.1849
200	0xb0b0	-0.1465
201	0xae04	-0.094
202	0x2af3	0.0543
203	0x3356	0.2292
204	0xb46f	-0.277
205	0xb41e	-0.2573
206	0xb93e	-0.6553
207	0x2e60	0.0996
208	0x3139	0.1632
209	0xad1d	-0.0799
210	0x30c0	0.1484
211	0xaf44	-0.1135
212	0xb9aa	-0.708
213	0xb44a	-0.268
214	0xa59c	-0.02191
215	0xb9e0	-0.7344
216	0x1c0d	0.003956
217	0xb471	-0.2776
218	0xb2fe	-0.2185
219	0xaf11	-0.1104
220	0xb2a7	-0.2079
221	0xac45	-0.0667
222	0x336f	0.2323
223	0x2ada	0.05353
224	0xaa0f	-0.04733
225	0x3570	0.3398
226	0x3216	0.1902
227	0xa757	-0.02867
228	0x1c37	0.004116
229	0xa4a2	-0.0181
230	0x2e1e	0.0956
231	0xaa6c	-0.05017
232	0x2fa3	0.1193
233	0xb0ec	-0.1538
234	0x2d60	0.084
235	0xb14c	-0.1655
236	0x3093	0.143
237	0xae02	-0.0939
238	0x229d	0.01292
239	0xb0f5	-0.1549
240	0x3401	0.2502
241	0xad4a	-0.08264
242	0xb106	-0.157
243	0xabed	-0.06192
244	0x2f15	0.11066
245	0x2fcb	0.12177
246	0xb0f6	-0.155
247	0x31b4	0.1782
248	0xb7c1	-0.4846
249	0x30b1	0.1466
250	0x2d1f	0.08
251	0xb687	-0.408
252	0xb889	-0.567
253	0xb06a	-0.138
254	0x2faf	0.12006
255	0x35e8	0.3691

model/dense_1/MatMul f2 [10, 128]
0	0xace1	-0.07623
1	0xb995	-0.6978
2	0xb7aa	-0.479
3	0x35c4	0.3604
4	0xbbc7	-0.972
5	0xa87c	-0.03503
6	0x221d	0.01194
7	0xb1cc	-0.1812
8	0xb1f1	-0.1857
9	0x2e98	0.103
10	0x3057	0.1356
11	0x2a86	0.05096
12	0xb60c	-0.378
13	0xba19	-0.762
14	0x2f1b	0.111
15	0xb0f0	-0.1543
16	0x3020	0.1289
17	0xb135	-0.1627
18	0x31cc	0.1812
19	0x24a5	0.01814
20	0x2de3	0.092
21	0xb18e	-0.1736
22	0xad39	-0.0816
23	0x27cd	0.03047
24	0xbad9	-0.856
25	0x35b3	0.3562
26	0xb939	-0.653
27	0x32f7	0.2177
28	0xb879	-0.559
29	0x341f	0.2576
30	0xaee4	-0.10767
31	0x2f84	0.11743
32	0x34dd	0.304
33	0x3329	0.2238
34	0xa6d9	-0.02675
35	0xb293	-0.2054
36	0x2e3c	0.0974
37	0xaf59	-0.1148
38	0xb40b	-0.2527
39	0x3096	0.1433
40	0xb484	-0.2822
41	0xa98f	-0.04343
42	0x2255	0.01237
43	0xae95	-0.10284
44	0x2c42	0.0665
45	0xb0e4	-0.1528
46	0x2f0d	0.11017
47	0xb7c3	-0.485
48	0xb5fc	-0.374
49	0xad17	-0.0795
50	0xad9f	-0.0878
51	0x3415	0.2551
52	0xb8c5	-0.596
53	0xb772	-0.4653
54	0x3120	0.1602
55	0xaf7d	-0.117
56	0xa4d0	-0.0188
57	0x2e5c	0.09937
58	0x2f0f	0.1103
59	0xb693	-0.411
60	0x345c	0.2725
61	0x342e	0.2612
62	0xadc8	-0.09033
63	0xb5d8	-0.3652
64	0xae87	-0.102
65	0x3254	0.1978
66	0xabdb	-0.06137
67	0xacbf	-0.07416
68	0x2e3b	0.09735
69	0xb748	-0.455
70	0xb34c	-0.228
71	0xb40d	-0.2532
72	0xb4c6	-0.2983
73	0x2e68	0.1001
74	0xb665	-0.3997
75	0xa53f	-0.0205
76	0xb573	-0.3406
77	0x35c5	0.3606
78	0x324d	0.1969
79	0x3083	0.141
80	0x3305	0.2194
81	0x331a	0.2219
82	0x2c34	0.0657
83	0x3063	0.1371
84	0x3398	0.2373
85	0x3456	0.271
86	0xb44e	-0.269
87	0xb44b	-0.2683
88	0x3429	0.26
89	0x2af5	0.05435
90	0x32a2	0.2073
91	0xb4f5	-0.3098
92	0xaa7d	-0.0507
93	0x2913	0.03964
94	0x30a7	0.1454
95	0x3495	0.2864
96	0x2979	0.04276
97	0x2ec1	0.1055
98	0xa788	-0.02942
99	0xaa15	-0.04752
100	0x3496	0.2866
101	0xb3fc	-0.2495
102	0x354b	0.3308
103	0x34e9	0.307
104	0x3099	0.1437
105	0xad4a	-0.08264
106	0xb968	-0.676
107	0xaccb	-0.0749
108	0x3223	0.1918
109	0xa180	-0.01074
110	0x321f	0.1913
111	0xaf88	-0.1177
112	0xb158	-0.167
113	0x2cc2	0.07434
114	0x2466	0.01718
115	0x346a	0.276
116	0xb928	-0.6445
117	0xa5e0	-0.02295
118	0x267d	0.02534
119	0x2ed2	0.10657
120	0xb1fe	-0.1873
121	0x30e6	0.1531
122	0x341a	0.2563
123	0x3195	0.1744
124	0xb4cc	-0.2998
125	0xb024	-0.1294
126	0x2882	0.03522
127	0xb6f9	-0.4358
128	0xb179	-0.171
129	0xb47b	-0.28
130	0x3478	0.2793
131	0xb2b2	-0.2092
132	0x2ff7	0.12445
133	0x8ccb	-0.0002925
134	0x347a	0.2798
135	0xb408	-0.252
136	0x2ab6	0.05243
137	0xa0fe	-0.00975
138	0xb7de	-0.4917
139	0x31ab	0.1771
140	0xb557	-0.3337
141	0xb4d9	-0.303
142	0xb914	-0.635
143	0x2c9e	0.07214
144	0x311f	0.16
145	0x3065	0.1373
146	0xb5e7	-0.369
147	0x2827	0.03244
148	0x30e2	0.1526
149	0xb241	-0.1954
150	0xb8fd	-0.6235
151	0xa9bc	-0.0448
152	0xb821	-0.516
153	0xb7db	-0.491
154	0x352f	0.324
155	0x2575	0.02132
156	0x3824	0.5176
157	0xb728	-0.4473
158	0xaf00	-0.1094
159	0x30a8	0.1455
160	0x320a	0.1887
161	0xb4b9	-0.2952
162	0x3166	0.1687
163	0xaea7	-0.10394
164	0x2226	0.01201
165	0x34e7	0.3064
166	0x2be2	0.06158
167	0xba42	-0.782
168	0x2949	0.0413
169	0x260d	0.02364
170	0xb006	-0.1257
171	0x2e12	0.09485
172	0xbaff	-0.8745
173	0x3029	0.13
174	0xb177	-0.1708
175	0x3749	0.4553
176	0x34b3	0.2937
177	0x2e70	0.1006
178	0x2cdc	0.0759
179	0x2bd5	0.0612
180	0x2e14	0.095
181	0x3715	0.4426
182	0x2d15	0.0794
183	0x29c4	0.04504
184	0xb11c	-0.1597
185	0x31ae	0.1775
186	0xb3fe	-0.2498
187	0x3075	0.1393
188	0x354b	0.3308
189	0x1e75	0.006306
190	0xaf99	-0.1187
191	0x343b	0.2644
192	0x352a	0.3228
193	0xb938	-0.6523
194	0xb20a	-0.1887
195	0x3254	0.1978
196	0xbb16	-0.8857
197	0xb4c7	-0.2986
198	0xb6c1	-0.422
199	0xaf68	-0.1157
200	0x331e	0.2224
201	0x2e8b	0.10223
202	0x31f2	0.1858
203	0xaf19	-0.1109
204	0xb04d	-0.1344
205	0xb361	-0.2306
206	0xb698	-0.412
207	0xb0e9	-0.1534
208	0xb743	-0.4539
209	0x2032	0.008194
210	0xb9c0	-0.7188
211	0x2ee2	0.10754
212	0x34b5	0.2942
213	0xbc1d	-1.028
214	0x362c	0.3857
215	0xb2bf	-0.2108
216	0xbc7a	-1.119
217	0x2cfc	0.0779
218	0x32a6	0.2078
219	0xb62d	-0.386
220	0x2901	0.0391
221	0xb1ae	-0.1775
222	0xb902	-0.626
223	0x380e	0.507
224	0xaca1	-0.0723
225	0xb012	-0.1272
226	0xb094	-0.1431
227	0x3004	0.1255
228	0xb060	-0.1367
229	0x3802	0.501
230	0xb205	-0.1881
231	0xa83d	-0.0331
232	0xb3a3	-0.2386
233	0x3052	0.135
234	0x323a	0.1946
235	0xbb2e	-0.8975
236	0xbaa8	-0.832
237	0x3596	0.349
238	0x3406	0.2515
239	0xb14d	-0.1656
240	0xb583	-0.3445
241	0x3191	0.174
242	0x33bb	0.2416
243	0xb2ff	-0.2186
244	0x3449	0.2678
245	0xacb4	-0.0735
246	0x33ce	0.2439
247	0xb8b6	-0.589
248	0x2c34	0.0657
249	0x350c	0.3154
250	0x3484	0.2822
251	0x3501	0.3127
252	0xbad6	-0.8545
253	0x2ea1	0.1036
254	0x37ae	0.48
255	0x381e	0.5146
