models/tab_digit_cnn.tflite (tflite, 63292 bytes, 10 tensors)

model/conv2d/BiasAdd/ReadVariableOp f2 [16]
0	0xac24	-0.0647
1	0x96cb	-0.001658
2	0xb8a0	-0.578
3	0x24c3	0.0186
4	0x2467	0.0172
5	0x955e	-0.00131
6	0x2738	0.0282
7	0x2443	0.01665
8	0x222f	0.01208
9	0x964d	-0.001538
10	0x2648	0.02454
11	0xbc76	-1.115
12	0x9497	-0.001121
13	0x90ae	-0.0005713
14	0x25a4	0.02203
15	0x93eb	-0.0009665

model/conv2d_1/BiasAdd/ReadVariableOp f2 [32]
0	0x280b	0.0316
1	0x27b0	0.03003
2	0xab16	-0.05536
3	0x9e74	-0.0063
4	0x2ed7	0.1069
5	0x2d30	0.08105
6	0x2c56	0.06775
7	0x2e8f	0.1025
8	0x3500	0.3125
9	0x27d3	0.03056
10	0x31ea	0.1848
11	0x2b8d	0.059
12	0xb3d2	-0.2444
13	0x3049	0.1339
14	0x2dae	0.08875
15	0x3147	0.1649
16	0xb420	-0.2578
17	0x30af	0.1464
18	0x2cad	0.07306
19	0x289f	0.0361
20	0x2452	0.01688
21	0x3930	0.6484
22	0xa61c	-0.02386
23	0x30e0	0.1523
24	0x2c11	0.06354
25	0x302f	0.1307
26	0xa04e	-0.00841
27	0xa115	-0.009926
28	0xae59	-0.0992
29	0x9e95	-0.006428
30	0x2c2b	0.0651
31	0x3190	0.1738

model/conv2d_2/BiasAdd/ReadVariableOp f2 [64]
0	0x2d41	0.0821
1	0x3169	0.1691
2	0x283e	0.03314
3	0x2d30	0.08105
4	0xa92c	-0.0404
5	0x31cb	0.181
6	0x2cfd	0.07794
7	0xab98	-0.05933
8	0x938f	-0.0009227
9	0xa934	-0.04065
10	0x309a	0.1438
11	0x212e	0.01012
12	0x28ce	0.03754
13	0x2eec	0.10815
14	0x298a	0.04327
15	0x2fec	0.1238
16	0x24ce	0.01877
17	0xb56c	-0.3389
18	0x398e	0.6943
19	0x2f62	0.11536
20	0x3174	0.1704
21	0xaad5	-0.05338
22	0x31f0	0.1855
23	0x2d5f	0.0839
24	0xa8b4	-0.03674
25	0xac5f	-0.0683
26	0xac4f	-0.0673
27	0x27ac	0.02997
28	0xa83f	-0.03317
29	0x35cf	0.363
30	0xa4fa	-0.01944
31	0x342a	0.2603
32	0xb0ed	-0.1539
33	0xb037	-0.1317
34	0x9a61	-0.003115
35	0x3248	0.1963
36	0x2c28	0.06494
37	0x265a	0.02481
38	0x3880	0.5625
39	0x2d39	0.0816
40	0x2e1c	0.09546
41	0x2e35	0.097
42	0xaaaf	-0.05222
43	0x352c	0.3232
44	0x370f	0.4412
45	0xafd1	-0.12213
46	0xa0bd	-0.009254
47	0x31c0	0.1797
48	0x331d	0.2223
49	0x312e	0.1619
50	0x3001	0.1251
51	0xaff5	-0.1243
52	0x30bb	0.1478
53	0xafbe	-0.121
54	0x9d33	-0.005077
55	0xac8e	-0.07117
56	0x285d	0.0341
57	0x3511	0.3167
58	0x2ad6	0.0534
59	0xacdb	-0.07587
60	0x2cd7	0.0756
61	0xa717	-0.0277
62	0xb422	-0.2583
63	0x372c	0.4482

model/conv2d/Conv2D f2 [16, 3, 3, 1]
0	0xb4c0	-0.2969
1	0xbb19	-0.887
2	0xbd87	-1.382
3	0x383a	0.5283
4	0x37dc	0.4912
5	0x2f12	0.1105
6	0x366a	0.401
7	0x395b	0.6694
8	0x377b	0.4675
9	0x3377	0.2333
10	0x361e	0.3823
11	0xba76	-0.8076
12	0xb3ce	-0.2439
13	0x3e14	1.52
14	0xaea8	-0.104
15	0x3518	0.3184
16	0x3b8c	0.9434
17	0x33c1	0.2423
18	0xb560	-0.336
19	0xb28d	-0.2047
20	0x3630	0.3867
21	0xb767	-0.4626
22	0x341c	0.2568
23	0x34ac	0.292
24	0x385a	0.544
25	0x38e7	0.613
26	0x2dd4	0.09106
27	0xb560	-0.336
28	0x37e9	0.4944
29	0x3876	0.5576
30	0xb855	-0.5415
31	0xab30	-0.05615
32	0x390c	0.631
33	0xbc67	-1.101
34	0xae95	-0.10284
35	0x3b36	0.9014
36	0xb3dc	-0.2456
37	0xb32c	-0.2241
38	0x349d	0.2883
39	0xb99d	-0.7017
40	0xb64f	-0.3943
41	0x3bb4	0.963
42	0xb501	-0.3127
43	0x2aba	0.05255
44	0x38d1	0.602
45	0x3802	0.501
46	0x3b64	0.924
47	0xbbf7	-0.9956
48	0x34db	0.3035
49	0x3a9e	0.827
50	0xb9fd	-0.7485
51	0x38ed	0.6157
52	0x3b07	0.8784
53	0xbca9	-1.165
54	0x3a45	0.7837
55	0x29dc	0.04578
56	0xbb68	-0.926
57	0x3ccd	1.2
58	0x325e	0.199
59	0xbda5	-1.411
60	0x3ca6	1.162
61	0x339b	0.2377
62	0xbc5c	-1.09
63	0x2fc3	0.1213
64	0x306a	0.138
65	0xb1ab	-0.1771
66	0xb9d7	-0.73
67	0xadaf	-0.0888
68	0x39d2	0.7275
69	0xbc1a	-1.025
70	0x304f	0.1346
71	0x3b19	0.887
72	0x39fd	0.7485
73	0xb852	-0.54
74	0xbc5f	-1.093
75	0x397f	0.687
76	0xb4f6	-0.31
77	0xbae4	-0.8613
78	0x3bc7	0.972
79	0x36f9	0.4358
80	0x27e6	0.03085
81	0xb36d	-0.232
82	0xb11b	-0.1595
83	0x3b92	0.9463
84	0xbb11	-0.8833
85	0x342c	0.2607
86	0x3b41	0.9067
87	0xb775	-0.466
88	0x368a	0.4087
89	0x30b3	0.1469
90	0x39cc	0.7246
91	0x3be1	0.985
92	0x3949	0.6606
93	0x3250	0.1973
94	0x3421	0.258
95	0x348c	0.2842
96	0xba93	-0.822
97	0xbc0c	-1.012
98	0xbc43	-1.065
99	0x3659	0.3967
100	0x319f	0.1757
101	0x3402	0.2505
102	0x3611	0.3792
103	0x2aff	0.05466
104	0x3501	0.3127
105	0x32ba	0.2102
106	0x2fd8	0.12256
107	0x36b9	0.4202
108	0xbcf6	-1.24
109	0xb49c	-0.288
110	0x3b5a	0.919
111	0xb6ef	-0.4333
112	0x383c	0.5293
113	0x34b3	0.2937
114	0x35cc	0.3623
115	0x3dce	1.451
116	0x17ba	0.001886
117	0x371e	0.4448
118	0x38ec	0.615
119	0x3a57	0.7925
120	0xb43f	-0.2654
121	0x3db2	1.424
122	0x3625	0.384
123	0xbca2	-1.158
124	0x3b6b	0.9272
125	0x325e	0.199
126	0x37aa	0.479
127	0x3a3f	0.781
128	0xb71c	-0.4443
129	0x3c2a	1.041
130	0xaa71	-0.05032
131	0xb9ff	-0.7495
132	0x3c03	1.003
133	0xb411	-0.2542
134	0xbcc5	-1.192
135	0xbbe0	-0.9844
136	0x34d5	0.302
137	0x39b9	0.7153
138	0xbb69	-0.9263
139	0x384f	0.5386
140	0x388b	0.568
141	0xbedd	-1.716
142	0x3cce	1.201
143	0x3976	0.6826

model/conv2d_1/Conv2D f2 [32, 3, 3, 16]
0	0x3602	0.3755
1	0x2b8b	0.05893
2	0x3734	0.4502
3	0x2ff6	0.1244
4	0x32d1	0.213
5	0xb1b7	-0.1786
6	0xb2a0	-0.207
7	0x3317	0.2216
8	0x28f4	0.0387
9	0xb01c	-0.1284
10	0x2b03	0.05478
11	0x2ba4	0.0597
12	0x233f	0.01415
13	0xae0f	-0.09467
14	0xb452	-0.27
15	0xb3c3	-0.2426
16	0xad44	-0.0823
17	0x2af6	0.05438
18	0x3b73	0.931
19	0x37f2	0.4966
20	0x3a7c	0.8105
21	0x2648	0.02454
22	0xa875	-0.03482
23	0x39c4	0.7207
24	0xb4fa	-0.311
25	0x3116	0.1589
26	0xb5fd	-0.3743
27	0x30a8	0.1455
28	0x3193	0.1742
29	0x30ab	0.1459
30	0xaa58	-0.04956
31	0x2c8d	0.0711
32	0xbafe	-0.874
33	0x2cea	0.0768
34	0x3659	0.3967
35	0xb300	-0.2188
36	0xaa54	-0.04944
37	0x35d9	0.3655
38	0x34ce	0.3003
39	0xa5bb	-0.02238
40	0x3424	0.2588
41	0x1ffe	0.007805
42	0xa8e1	-0.03812
43	0x34fb	0.3113
44	0x2f30	0.1123
45	0x2d6a	0.0846
46	0x385e	0.546
47	0x24e4	0.0191
48	0x3583	0.3445
49	0x2cca	0.0748
50	0x3ae9	0.864
51	0x3110	0.1582
52	0x376e	0.4644
53	0x28e3	0.03818
54	0xb11c	-0.1597
55	0x3534	0.3252
56	0xb070	-0.1387
57	0x273b	0.02824
58	0xb5af	-0.3552
59	0x3452	0.27
60	0x337e	0.2341
61	0x28b6	0.0368
62	0x2f57	0.1147
63	0x29e9	0.04617
64	0xb871	-0.555
65	0x2ef4	0.10864
66	0x3a3d	0.78
67	0xb907	-0.6284
68	0xbb57	-0.9175
69	0x3031	0.131
70	0x3433	0.2625
71	0xbc3f	-1.062
72	0xb1e4	-0.1841
73	0xa443	-0.01665
74	0xa0f1	-0.00965
75	0x3448	0.2676
76	0x222e	0.01207
77	0xa9de	-0.04584
78	0x37c8	0.4863
79	0xaf57	-0.1147
80	0xbc1f	-1.03
81	0xb568	-0.338
82	0xb44f	-0.2693
83	0xb998	-0.699
84	0xb915	-0.6353
85	0xaa4f	-0.0493
86	0x2c51	0.06744
87	0xb92d	-0.647
88	0xb292	-0.2053
89	0xb616	-0.3804
90	0xab9c	-0.05945
91	0x2ecb	0.10614
92	0xb3c0	-0.2422
93	0xb4d8	-0.3027
94	0x3096	0.1433
95	0xb7c1	-0.4846
96	0xb4d5	-0.302
97	0xa967	-0.0422
98	0xb3c1	-0.2423
99	0xb81b	-0.513
100	0xbb8d	-0.944
101	0x2d80	0.08594
102	0x28bd	0.03702
103	0xbbe8	-0.9883
104	0xb4a5	-0.2903
105	0xa5f8	-0.02332
106	0x3c84	1.129
107	0x159e	0.001371
108	0xa48b	-0.01775
109	0xa4f4	-0.01935
110	0x383d	0.53
111	0xae07	-0.0942
112	0xa298	-0.01288
113	0xb06c	-0.1382
114	0xb8c5	-0.596
115	0xb637	-0.3884
116	0xb5d9	-0.3655
117	0xb14f	-0.1659
118	0xada7	-0.0883
119	0x3810	0.508
120	0xb2f5	-0.2174
121	0xb1f4	-0.186
122	0x39f3	0.7437
123	0xb263	-0.1996
124	0xb368	-0.2314
125	0x8c94	-0.0002794
126	0x2d0f	0.07904
127	0xab0f	-0.05515
128	0x3625	0.384
129	0xac4e	-0.06726
130	0x28ef	0.03854
131	0xb2e7	-0.2157
132	0xb436	-0.2632
133	0xad52	-0.0831
134	0xa979	-0.04276
135	0xa99e	-0.04388
136	0xa4b8	-0.01843
137	0xb025	-0.1295
138	0xba69	-0.8013
139	0xb1e4	-0.1841
140	0x229c	0.01291
141	0xb2d9	-0.214
142	0xb48b	-0.284
143	0xaf11	-0.1104
144	0x38bb	0.5913
145	0xad14	-0.07935
146	0x34c0	0.2969
147	0xb8bd	-0.5923
148	0xb984	-0.6895
149	0xaf76	-0.1166
150	0xb171	-0.17
151	0xbc94	-1.145
152	0xb1f5	-0.1862
153	0x31dd	0.1832
154	0xaac8	-0.05298
155	0x2cf5	0.07745
156	0x2c84	0.07056
157	0x2d98	0.0874
158	0xb140	-0.1641
159	0xa77d	-0.02925
160	0xb0e5	-0.153
161	0xb14a	-0.1653
162	0xbc41	-1.063
163	0xb5aa	-0.354
164	0xb56b	-0.3386
165	0xb203	-0.1879
166	0xb16e	-0.1697
167	0xb404	-0.251
168	0x336d	0.232
169	0xb419	-0.256
170	0x3a3d	0.78
171	0xb838	-0.5273
172	0xb604	-0.376
173	0xb5a5	-0.3528
174	0x3034	0.1313
175	0xb796	-0.474
176	0x34e5	0.306
177	0x1c84	0.00441
178	0x2e84	0.1018
179	0xad6b	-0.08466
180	0x31a6	0.1765
181	0xb894	-0.5723
182	0xb7cb	-0.487
183	0x38ac	0.584
184	0xb4ff	-0.3123
185	0xa533	-0.02031
186	0x2b73	0.0582
187	0xba26	-0.7686
188	0x301a	0.1282
189	0xafb2	-0.12024
190	0xb6b4	-0.419
191	0xae85	-0.10187
192	0x33d2	0.2444
193	0xb032	-0.1311
194	0xb314	-0.2212
195	0xbb05	-0.8774
196	0xbc55	-1.083
197	0x220b	0.0118
198	0x32f9	0.2179
199	0xbb6a	-0.927
200	0x3128	0.1611
201	0xb208	-0.1885
202	0x3119	0.1593
203	0x3772	0.4653
204	0xb373	-0.2328
205	0xac96	-0.07166
206	0x3501	0.3127
207	0xb92c	-0.6465
208	0xb80d	-0.5063
209	0xaf3d	-0.1131
210	0x3896	0.573
211	0x2ea7	0.10394
212	0x37b7	0.4822
213	0xb9d0	-0.7266
214	0xb824	-0.5176
215	0x38a3	0.5796
216	0xb633	-0.3875
217	0xa927	-0.04025
218	0x3513	0.3171
219	0xb438	-0.2637
220	0x31f4	0.186
221	0xaa6d	-0.0502
222	0xb112	-0.1584
223	0xa904	-0.03918
224	0xb4a6	-0.2905
225	0x2e84	0.1018
226	0xb22a	-0.1926
227	0x32fb	0.2181
228	0x3718	0.4434
229	0x2d71	0.085
230	0xb0cf	-0.1503
231	0x3893	0.572
232	0xb406	-0.2515
233	0x3328	0.2236
234	0x3172	0.1702
235	0xb33c	-0.2261
236	0x363a	0.3892
237	0x3030	0.1309
238	0xad10	-0.0791
239	0x3347	0.2274
240	0xb861	-0.5474
241	0xb55e	-0.3354
242	0x3730	0.4492
243	0x378b	0.4714
244	0x3a1d	0.764
245	0xb67a	-0.4048
246	0x26de	0.02682
247	0x3be9	0.989
248	0x2c6b	0.06903
249	0xadd5	-0.0911
250	0xad26	-0.08044
251	0x34e6	0.3062
252	0xb460	-0.2734
253	0xb155	-0.1666
254	0xa24b	-0.01229
255	0x2d4b	0.0827

model/conv2d_2/Conv2D f2 [64, 3, 3, 32]
0	0xbabd	-0.8423
1	0xb613	-0.3796
2	0xb5eb	-0.3699
3	0xac3b	-0.0661
4	0xb730	-0.4492
5	0x36e7	0.4314
6	0xafc5	-0.1214
7	0xb080	-0.1406
8	0x3045	0.1334
9	0xb4a1	-0.2893
10	0x30ba	0.1477
11	0xba04	-0.752
12	0x3103	0.1566
13	0x34fe	0.312
14	0xb2b1	-0.2091
15	0xb6ba	-0.4204
16	0xbcea	-1.229
17	0xb772	-0.4653
18	0xb72b	-0.448
19	0xb041	-0.1329
20	0xb6ba	-0.4204
21	0x345c	0.2725
22	0xb540	-0.3281
23	0x30e1	0.1525
24	0xa4a9	-0.0182
25	0xa6b0	-0.02612
26	0xae82	-0.1017
27	0x30bf	0.1483
28	0xb813	-0.5093
29	0xb51c	-0.3193
30	0xba91	-0.821
31	0xae6e	-0.10046
32	0xbb76	-0.9326
33	0x336a	0.2317
34	0xb65d	-0.3977
35	0xb8be	-0.593
36	0x2599	0.02187
37	0xb802	-0.501
38	0x3019	0.128
39	0xb136	-0.1628
40	0x2d03	0.0783
41	0xa7ab	-0.02995
42	0x3135	0.1627
43	0xbe73	-1.612
44	0xb299	-0.2062
45	0xb251	-0.1974
46	0x32b8	0.21
47	0x3276	0.2019
48	0xbd54	-1.332
49	0xb55b	-0.3347
50	0xb9ce	-0.7256
51	0x3238	0.1943
52	0xb29e	-0.2068
53	0x370a	0.44
54	0xad04	-0.07837
55	0xb88e	-0.5693
56	0x2a93	0.05136
57	0x36b5	0.4192
58	0xad3a	-0.08167
59	0x347d	0.2805
60	0x33c3	0.2426
61	0xb816	-0.5107
62	0x3389	0.2355
63	0x2bcc	0.0609
64	0x3987	0.691
65	0x3a17	0.761
66	0xb2b6	-0.2097
67	0x2e96	0.1029
68	0x2d05	0.0784
69	0xad10	-0.0791
70	0x2863	0.03427
71	0x353c	0.3271
72	0xb39c	-0.2378
73	0xafe6	-0.1234
74	0xb04d	-0.1344
75	0xbb51	-0.9146
76	0xb672	-0.4028
77	0x2fc8	0.1216
78	0xb917	-0.636
79	0x2ede	0.1073
80	0x2d24	0.0803
81	0xb007	-0.1259
82	0xb5f5	-0.3723
83	0xb6b9	-0.4202
84	0x353a	0.3267
85	0xb08b	-0.142
86	0x343a	0.2642
87	0x350e	0.316
88	0x3357	0.2294
89	0x3ba8	0.957
90	0xab90	-0.05908
91	0xa9a7	-0.04416
92	0x3127	0.161
93	0x27b1	0.03004
94	0x28d9	0.03787
95	0xb53f	-0.328
96	0xb378	-0.2334
97	0xafeb	-0.1237
98	0xb058	-0.1357
99	0x2fb4	0.12036
100	0xad53	-0.0832
101	0x3479	0.2795
102	0x3229	0.1925
103	0x31db	0.183
104	0xb232	-0.1936
105	0xaf31	-0.11237
106	0xb0ea	-0.1536
107	0xb311	-0.2208
108	0xb2e1	-0.215
109	0x3673	0.403
110	0x3718	0.4434
111	0xadec	-0.0925
112	0xb24f	-0.1971
113	0xa8bd	-0.03702
114	0x3050	0.1348
115	0x350c	0.3154
116	0x2ef0	0.1084
117	0xaacd	-0.05313
118	0xb062	-0.137
119	0x2cb9	0.0738
120	0x2efe	0.10925
121	0xb472	-0.2778
122	0xaca0	-0.07227
123	0x3622	0.3833
124	0x2444	0.01666
125	0x2d86	0.0863
126	0xb051	-0.1349
127	0x203a	0.008255
128	0xac72	-0.06946
129	0x37d5	0.4895
130	0xb824	-0.5176
131	0xbeda	-1.713
132	0x3523	0.321
133	0xb7c9	-0.4866
134	0xae8b	-0.10223
135	0x35a3	0.3523
136	0xbb1f	-0.89
137	0x3227	0.1923
138	0xb940	-0.6562
139	0xb24b	-0.1967
140	0xb50a	-0.315
141	0xafea	-0.12366
142	0x2cdf	0.0761
143	0x30cb	0.1498
144	0x3ca0	1.156
145	0x35f4	0.372
146	0xb3e0	-0.2461
147	0x342b	0.2605
148	0xb4d5	-0.302
149	0xb052	-0.135
150	0xae7b	-0.10126
151	0xb3ab	-0.2396
152	0xb30a	-0.22
153	0x3aa0	0.828
154	0x233f	0.01415
155	0x353f	0.328
156	0xaeee	-0.1083
157	0x2569	0.02113
158	0x37ab	0.4792
159	0x3887	0.566
160	0xb44d	-0.2688
161	0x36a8	0.416
162	0xae2e	-0.09656
163	0xb889	-0.567
164	0x1dee	0.00579
165	0xb539	-0.3264
166	0xb83b	-0.529
167	0x324e	0.197
168	0xb9d2	-0.7275
169	0xb1af	-0.1776
170	0xb77b	-0.4675
171	0xbb86	-0.9404
172	0x3140	0.1641
173	0xb58a	-0.3462
174	0x2429	0.01625
175	0x3058	0.1357
176	0xb161	-0.1681
177	0x2f33	0.1125
178	0xb453	-0.2703
179	0xa838	-0.03296
180	0xaeb1	-0.10455
181	0xb9b3	-0.7124
182	0x8659	-9.686e-05
183	0x27f9	0.03114
184	0x26b7	0.02623
185	0x38ac	0.584
186	0x2603	0.02348
187	0x3383	0.2347
188	0x33e2	0.2463
189	0xb01a	-0.1282
190	0x37b7	0.4822
191	0x340d	0.2532
192	0xade1	-0.09186
193	0x3101	0.1564
194	0x2e3d	0.0975
195	0xac91	-0.07135
196	0x33c1	0.2423
197	0xb4e1	-0.305
198	0xafad	-0.11993
199	0x3320	0.2227
200	0xb517	-0.318
201	0x31d6	0.1824
202	0xb84f	-0.5386
203	0x9fe2	-0.007698
204	0x28ab	0.03647
205	0xb3a2	-0.2385
206	0x2fc1	0.12115
207	0x0a2d	0.0001885
208	0x31db	0.183
209	0x3415	0.2551
210	0x31da	0.1829
211	0x1e30	0.006042
212	0x342d	0.261
213	0xa9dc	-0.04578
214	0x30e0	0.1523
215	0xa6a1	-0.0259
216	0xb7aa	-0.479
217	0x34ea	0.3071
218	0xad1e	-0.07996
219	0xb1cc	-0.1812
220	0x342c	0.2607
221	0x389d	0.5767
222	0x30a1	0.1447
223	0xb517	-0.318
224	0xb90f	-0.6323
225	0x34a2	0.2896
226	0xb2a6	-0.2078
227	0xbc2c	-1.043
228	0x379c	0.4756
229	0xb412	-0.2544
230	0xb15e	-0.1677
231	0x3414	0.255
232	0xc074	-2.227
233	0x34cf	0.3005
234	0xbacd	-0.85
235	0xb752	-0.4575
236	0xb412	-0.2544
237	0xb275	-0.2018
238	0xbb6b	-0.9272
239	0x2c16	0.06384
240	0xb215	-0.1901
241	0xaeba	-0.1051
242	0x306d	0.1383
243	0xb448	-0.2676
244	0xa5fd	-0.02339
245	0xbe95	-1.6455
246	0xb057	-0.1356
247	0x305f	0.1366
248	0xb6fe	-0.437
249	0x3840	0.5312
250	0x2531	0.02028
251	0xb92c	-0.6465
252	0x3135	0.1627
253	0x36e1	0.43
254	0x351e	0.3198
255	0xac3e	-0.0663

model/dense/BiasAdd/ReadVariableOp f2 [64]
0	0x324d	0.1969
1	0x32ef	0.2167
2	0x3773	0.4656
3	0x35b2	0.356
4	0x3567	0.3376
5	0x344d	0.2688
6	0x337f	0.2343
7	0x3428	0.2598
8	0x327b	0.2025
9	0x326d	0.2008
10	0xa91e	-0.03998
11	0xaa53	-0.0494
12	0x9a32	-0.003025
13	0x3197	0.1747
14	0x3504	0.3135
15	0x2f07	0.1098
16	0x364c	0.3936
17	0x3347	0.2274
18	0x2e84	0.1018
19	0x2f19	0.1109
20	0x32d9	0.214
21	0x3319	0.2218
22	0xac10	-0.0635
23	0xa832	-0.03278
24	0x341e	0.2573
25	0x34af	0.2927
26	0x2d7a	0.0856
27	0x352d	0.3235
28	0x3480	0.2812
29	0x2d97	0.08734
30	0x3019	0.128
31	0xaac9	-0.053
32	0x3410	0.254
33	0x201f	0.00805
34	0x2cd5	0.0755
35	0x32fb	0.2181
36	0xad11	-0.07916
37	0x3578	0.3418
38	0x3229	0.1925
39	0x3354	0.229
40	0x2efb	0.1091
41	0xaba2	-0.05963
42	0x323a	0.1946
43	0xa8b0	-0.03662
44	0x33a8	0.2393
45	0x3444	0.2666
46	0x3217	0.1903
47	0x318b	0.1732
48	0x34ad	0.2922
49	0x9896	-0.00224
50	0x3535	0.3254
51	0x307a	0.1399
52	0x2f11	0.1104
53	0x3546	0.3296
54	0x334e	0.2283
55	0x35b4	0.3564
56	0x3373	0.2328
57	0x3419	0.256
58	0x2f3c	0.11304
59	0x33c7	0.243
60	0x2862	0.03424
61	0xac82	-0.07043
62	0x35f3	0.3718
63	0x3140	0.1641

model/dense_1/BiasAdd/ReadVariableOp f2 [25]
0	0xa486	-0.01767
1	0x3148	0.165
2	0xb19d	-0.1754
3	0xb416	-0.2554
4	0x30da	0.1516
5	0x9d88	-0.0054
6	0xa560	-0.021
7	0x35c7	0.361
8	0xb0ba	-0.1477
9	0xaecf	-0.1064
10	0xac76	-0.0697
11	0x29e2	0.04596
12	0x30b6	0.1472
13	0x3402	0.2505
14	0x302a	0.1301
15	0xb255	-0.1979
16	0x161e	0.001493
17	0x310b	0.1576
18	0x319f	0.1757
19	0xad64	-0.0842
20	0xb417	-0.2556
21	0xb01f	-0.1288
22	0x2536	0.02036
23	0x349c	0.288
24	0xb589	-0.346

model/dense/MatMul f2 [64, 64]
0	0xb4f6	-0.31
1	0x2568	0.02112
2	0x3015	0.1276
3	0xb550	-0.332
4	0x3493	0.286
5	0xaaf1	-0.05423
6	0xaefe	-0.10925
7	0xae47	-0.0981
8	0xa7c8	-0.0304
9	0xab3e	-0.05658
10	0x2da1	0.08795
11	0x3194	0.1743
12	0x2edc	0.1072
13	0xbcfe	-1.248
14	0x35a7	0.3533
15	0xb418	-0.2559
16	0x36a2	0.4146
17	0x3560	0.336
18	0x3a40	0.7812
19	0x3228	0.1924
20	0xa9f7	-0.0466
21	0xad88	-0.0864
22	0x287e	0.0351
23	0x3343	0.2269
24	0xb16a	-0.1692
25	0x2f30	0.1123
26	0xb1b4	-0.1782
27	0x30b2	0.1467
28	0xa722	-0.02786
29	0xb44e	-0.269
30	0xb6a6	-0.4155
31	0x330e	0.2205
32	0x3643	0.3914
33	0xb537	-0.326
34	0xb4c5	-0.298
35	0xb86c	-0.5527
36	0x3b98	0.949
37	0xad8f	-0.08685
38	0x3611	0.3792
39	0xb446	-0.267
40	0xb133	-0.1625
41	0xb2b0	-0.209
42	0x3535	0.3254
43	0x34a6	0.2905
44	0x3b20	0.8906
45	0xb6e5	-0.431
46	0x2dd2	0.09094
47	0x2b18	0.05542
48	0xb18e	-0.1736
49	0x3545	0.3293
50	0x940c	-0.000988
51	0xb509	-0.3147
52	0xa7b9	-0.03017
53	0x34ec	0.3076
54	0x34ee	0.308
55	0xb125	-0.1608
56	0xb2ff	-0.2186
57	0xa076	-0.00871
58	0xaf5c	-0.115
59	0x31c7	0.1805
60	0xb520	-0.3203
61	0x359d	0.3508
62	0x3138	0.1631
63	0x2cbd	0.07404
64	0x2e9a	0.10315
65	0xa8e8	-0.03833
66	0x389e	0.577
67	0x3a4e	0.788
68	0xb5c2	-0.3599
69	0xaeb9	-0.10504
70	0x3023	0.1293
71	0xb8c3	-0.595
72	0x2d08	0.0786
73	0x332d	0.2242
74	0x36eb	0.4324
75	0x1bee	0.003872
76	0x2d2c	0.0808
77	0xab0b	-0.05502
78	0x2945	0.04117
79	0x33c7	0.243
80	0x240e	0.01584
81	0x988e	-0.002224
82	0x36cc	0.4248
83	0xb030	-0.1309
84	0xad6c	-0.0847
85	0xb8d4	-0.6035
86	0xb38e	-0.2361
87	0x2887	0.03537
88	0x347a	0.2798
89	0xaeed	-0.1082
90	0xad40	-0.08203
91	0x2e25	0.096
92	0x30e8	0.1533
93	0xa51c	-0.01996
94	0xba5d	-0.7954
95	0xad45	-0.08234
96	0x36a1	0.4143
97	0x309a	0.1438
98	0xb528	-0.3223
99	0xb933	-0.65
100	0x20d8	0.00946
101	0xacca	-0.0748
102	0x3a3a	0.7783
103	0xb260	-0.1992
104	0xa982	-0.04303
105	0x356b	0.3386
106	0x2950	0.0415
107	0x3201	0.1876
108	0x3025	0.1295
109	0xb47b	-0.28
110	0xbc1a	-1.025
111	0x2207	0.01177
112	0xb538	-0.3262
113	0x358f	0.3474
114	0xb09e	-0.1443
115	0xb597	-0.3494
116	0x3233	0.1937
117	0xb269	-0.2003
118	0xb974	-0.6816
119	0x2d71	0.085
120	0x378a	0.4712
121	0x34fd	0.3118
122	0x3001	0.1251
123	0x379e	0.476
124	0x3425	0.259
125	0x2d85	0.08624
126	0x3287	0.204
127	0x301a	0.1282
128	0x35e0	0.3672
129	0xb47f	-0.281
130	0xb364	-0.231
131	0x2c0f	0.0634
132	0x2fc9	0.12164
133	0xb6ef	-0.4333
134	0xb813	-0.5093
135	0x281c	0.0321
136	0x3ae1	0.86
137	0xb5d7	-0.365
138	0xb1d2	-0.1819
139	0x3266	0.2
140	0xb507	-0.3142
141	0xb460	-0.2734
142	0x3083	0.141
143	0xae5d	-0.0994
144	0xb170	-0.1699
145	0x3ab4	0.838
146	0x2129	0.01008
147	0xb65c	-0.3975
148	0xac3d	-0.0662
149	0x2fce	0.12195
150	0xb17d	-0.1715
151	0xb1bc	-0.1792
152	0x3833	0.525
153	0xaf60	-0.11523
154	0x2468	0.01721
155	0xb5d3	-0.364
156	0x30b4	0.147
157	0xb76e	-0.4644
158	0x3cf4	1.238
159	0x34ea	0.3071
160	0xa9aa	-0.04425
161	0xb02e	-0.1306
162	0x3171	0.17
163	0x9cc6	-0.00466
164	0x3812	0.509
165	0xb1c9	-0.1808
166	0xb4c2	-0.2974
167	0xb316	-0.2214
168	0x308d	0.1422
169	0x355a	0.3345
170	0x388f	0.57
171	0xb5ae	-0.355
172	0x3af8	0.871
173	0x36be	0.4214
174	0xaccf	-0.07513
175	0x3663	0.3992
176	0xb5d0	-0.3633
177	0xb737	-0.451
178	0x3a78	0.8086
179	0x385d	0.5454
180	0xb2f9	-0.2179
181	0xb08c	-0.1421
182	0x29cf	0.04538
183	0x24bb	0.01848
184	0x3a1d	0.764
185	0x3801	0.5005
186	0x33ff	0.2499
187	0xb2c3	-0.2113
188	0x32f1	0.2169
189	0xb551	-0.3323
190	0x3496	0.2866
191	0xb194	-0.1743
192	0x38d6	0.6045
193	0xb5f4	-0.372
194	0xaef8	-0.1089
195	0x90ce	-0.0005865
196	0x3399	0.2374
197	0xb60a	-0.3774
198	0xb41e	-0.2573
199	0x3576	0.3413
200	0x3890	0.5703
201	0xb25d	-0.1989
202	0xaca1	-0.0723
203	0x329f	0.2069
204	0x3012	0.1272
205	0x2d29	0.0806
206	0x358c	0.3467
207	0x365a	0.397
208	0x25e0	0.02295
209	0x38a6	0.581
210	0x3807	0.5034
211	0xb307	-0.2196
212	0x36bb	0.4207
213	0x220b	0.0118
214	0xb028	-0.1299
215	0x2957	0.04172
216	0xa67f	-0.02538
217	0xa4e6	-0.01913
218	0xb7c1	-0.4846
219	0xace7	-0.0766
220	0xaee1	-0.1075
221	0xb5c3	-0.36
222	0x368a	0.4087
223	0x2f97	0.1186
224	0xac0c	-0.06323
225	0x3394	0.2368
226	0x3107	0.1571
227	0x392b	0.646
228	0xae36	-0.09705
229	0xb947	-0.6597
230	0xb0eb	-0.1537
231	0xaac7	-0.05295
232	0xb541	-0.3284
233	0xae6a	-0.1002
234	0x3634	0.3877
235	0xb320	-0.2227
236	0x38ec	0.615
237	0x2a83	0.05087
238	0x2ebe	0.10535
239	0x39e6	0.7373
240	0xb21e	-0.1912
241	0x3669	0.4006
242	0x33fc	0.2495
243	0x25d6	0.0228
244	0x31a6	0.1765
245	0xb412	-0.2544
246	0xae6e	-0.10046
247	0xb581	-0.344
248	0xa9b3	-0.04453
249	0x3084	0.1411
250	0x2d2d	0.0809
251	0xad37	-0.0815
252	0x3627	0.3845
253	0xb309	-0.2198
254	0xb30d	-0.2203
255	0xac7a	-0.06995

model/dense_1/MatMul f2 [25, 64]
0	0xb3d5	-0.2448
1	0x3020	0.1289
2	0x32bf	0.2108
3	0x257f	0.02147
4	0x3351	0.2286
5	0xbc62	-1.096
6	0xbbd2	-0.9775
7	0xb52d	-0.3235
8	0xb01c	-0.1284
9	0xb1a2	-0.176
10	0xb76c	-0.4639
11	0xb145	-0.1647
12	0x2c70	0.06934
13	0xbb1e	-0.8896
14	0xb750	-0.457
15	0xb377	-0.2333
16	0x3ac3	0.845
17	0x339f	0.2382
18	0x2df2	0.0929
19	0x2e26	0.09607
20	0xb3ce	-0.2439
21	0xb61f	-0.3826
22	0xb414	-0.255
23	0xb2d4	-0.2134
24	0x389e	0.577
25	0xb469	-0.2756
26	0x367a	0.4048
27	0xbac3	-0.845
28	0x2cb3	0.0734
29	0x3327	0.2235
30	0xb182	-0.1721
31	0xb20b	-0.1888
32	0x3659	0.3967
33	0xb128	-0.1611
34	0xb2a5	-0.2076
35	0x2192	0.01088
36	0xa8bd	-0.03702
37	0xbd51	-1.329
38	0x31e9	0.1847
39	0xb509	-0.3147
40	0x3764	0.462
41	0xa6ab	-0.02605
42	0x220f	0.01183
43	0xb046	-0.1335
44	0xb25d	-0.1989
45	0x3403	0.2507
46	0xb861	-0.5474
47	0x9ea5	-0.00649
48	0x2854	0.0338
49	0xaca4	-0.0725
50	0xbac2	-0.8447
51	0xb936	-0.6514
52	0x2aab	0.0521
53	0x343d	0.265
54	0xb846	-0.534
55	0x2ef7	0.1088
56	0xb4fa	-0.311
57	0xa8f3	-0.03867
58	0x36b0	0.418
59	0x3249	0.1964
60	0x3460	0.2734
61	0x3193	0.1742
62	0xb176	-0.1707
63	0x3402	0.2505
64	0xb898	-0.574
65	0xb8a6	-0.581
66	0x33cb	0.2435
67	0x30a8	0.1455
68	0x9d4d	-0.005177
69	0xbe6e	-1.607
70	0x3a46	0.784
71	0xb213	-0.1898
72	0x3582	0.3442
73	0xb69d	-0.4133
74	0xb61f	-0.3826
75	0xb36e	-0.2322
76	0xb02c	-0.1304
77	0x309c	0.144
78	0xb923	-0.642
79	0xb3af	-0.2401
80	0xbef8	-1.742
81	0xbe94	-1.645
82	0x388e	0.5693
83	0xbe3e	-1.561
84	0x30c7	0.1493
85	0x3527	0.322
86	0x32f7	0.2177
87	0x317b	0.1713
88	0x37e6	0.4937
89	0x2b38	0.0564
90	0xaf9e	-0.119
91	0x327d	0.2028
92	0xb918	-0.6367
93	0xb8a8	-0.582
94	0xbda1	-1.407
95	0xa9da	-0.04572
96	0xbcad	-1.169
97	0x2ad2	0.05328
98	0xac1e	-0.06433
99	0xb16e	-0.1697
100	0x2ffb	0.1247
101	0x3a38	0.7773
102	0x352e	0.3237
103	0x3883	0.564
104	0x38ec	0.615
105	0x3109	0.1573
106	0x3181	0.172
107	0xab02	-0.05475
108	0xb607	-0.3767
109	0x38c6	0.5967
110	0xb2ea	-0.2161
111	0xb5ff	-0.3748
112	0x390e	0.632
113	0x975e	-0.001799
114	0x2c60	0.06836
115	0xbc9c	-1.152
116	0xb8cb	-0.599
117	0xb9dd	-0.733
118	0xa6c8	-0.02649
119	0xb8a9	-0.5825
120	0xbeb4	-1.676
121	0x39f2	0.743
122	0x2be6	0.0617
123	0xb90b	-0.6304
124	0xac9c	-0.072
125	0xa83d	-0.0331
126	0x2fdb	0.12274
127	0xb8ad	-0.5845
128	0x37b8	0.4824
129	0x3658	0.3965
130	0x3743	0.4539
131	0x3827	0.519
132	0xb809	-0.5044
133	0xbcb6	-1.178
134	0xb902	-0.626
135	0x3661	0.3987
136	0x350e	0.316
137	0xb9b0	-0.711
138	0x3154	0.1665
139	0x251b	0.01994
140	0xb59a	-0.35
141	0x3594	0.3486
142	0x379c	0.4756
143	0xb800	-0.5
144	0xa72c	-0.02802
145	0xb842	-0.532
146	0x3697	0.4119
147	0xbccb	-1.198
148	0xb8f7	-0.6206
149	0xb4d6	-0.3022
150	0x2af8	0.05444
151	0x32cb	0.2123
152	0x2a91	0.0513
153	0xb811	-0.5083
154	0x3479	0.2795
155	0x36be	0.4214
156	0x3810	0.508
157	0xbb44	-0.908
158	0xb5b4	-0.3564
159	0xb043	-0.1332
160	0xb33f	-0.2264
161	0x2f09	0.1099
162	0x39a1	0.7036
163	0xbe65	-1.599
164	0xb52d	-0.3235
165	0xb05a	-0.136
166	0xaf8d	-0.118
167	0x38f4	0.619
168	0xb5b8	-0.3574
169	0x30fe	0.156
170	0x2c76	0.0697
171	0xb1db	-0.183
172	0xb11f	-0.16
173	0x3502	0.313
174	0xbac7	-0.847
175	0xbe02	-1.502
176	0x3161	0.1681
177	0xb0a1	-0.1447
178	0xb4b7	-0.2947
179	0xb778	-0.4668
180	0x3236	0.1941
181	0xbbfa	-0.997
182	0xba1f	-0.765
183	0xb0a9	-0.1456
184	0xb5ca	-0.3618
185	0x3563	0.3367
186	0xae00	-0.09375
187	0xb7a1	-0.4768
188	0x352d	0.3235
189	0x1139	0.0006375
190	0x36de	0.4292
191	0xb36e	-0.2322
192	0x2731	0.02809
193	0xb4bc	-0.296
194	0xad33	-0.08124
195	0xb634	-0.3877
196	0xb3be	-0.242
197	0xb395	-0.2369
198	0xb6dc	-0.4287
199	0x37e3	0.493
200	0x359d	0.3508
201	0xb00d	-0.1266
202	0x3553	0.3328
203	0x3236	0.1941
204	0x2579	0.02138
205	0x2845	0.03336
206	0x2943	0.0411
207	0x350a	0.315
208	0xb6a6	-0.4155
209	0xa8af	-0.0366
210	0x3418	0.2559
211	0xb95e	-0.671
212	0xb5b5	-0.3567
213	0xbcc0	-1.1875
214	0x20ad	0.00913
215	0x2eb3	0.1047
216	0x3869	0.5513
217	0x30c4	0.1489
218	0x2c46	0.0668
219	0x3632	0.3872
220	0xb804	-0.502
221	0x2af2	0.05426
222	0xbc7a	-1.119
223	0xab10	-0.05518
224	0xbc37	-1.054
225	0x33c0	0.2422
226	0xb3ed	-0.2477
227	0xb9a3	-0.7046
228	0x2d21	0.08014
229	0x24b6	0.0184
230	0x36f9	0.4358
231	0xb4d3	-0.3015
232	0xb638	-0.3887
233	0xaf64	-0.1155
234	0x38b6	0.589
235	0xb095	-0.1432
236	0xbb97	-0.9487
237	0x316b	0.1693
238	0xb6ea	-0.4321
239	0xb41b	-0.2566
240	0x3402	0.2505
241	0x3300	0.2188
242	0xb72e	-0.4487
243	0xb7cb	-0.487
244	0xa82e	-0.03265
245	0xb111	-0.1583
246	0x2111	0.009895
247	0xba0f	-0.7573
248	0xb83b	-0.529
249	0x352c	0.3232
250	0x32f6	0.2175
251	0xbcd9	-1.212
252	0xa8c0	-0.0371
253	0xb01d	-0.1285
254	0x3a82	0.8135
255	0xb2ae	-0.2087
